…
weight_decay: 0.0005
stepsize: 60000
snapshot: 0
snapshot_prefix: "zf_rpn"
average_loss: 100
I0426 08:54:10.028393  4259 solver.cpp:81] Creating training net from train_net file: models/pascal_voc/ZF/faster_rcnn_alt_opt/stage1_rpn_train.pt
I0426 08:54:10.099550  4259 net.cpp:49] Initializing net from parameters: 
name: "ZF"
state {
  phase: TRAIN
}
layer {
  name: "input-data"
  type: "Python"
  top: "data"
  top: "im_info"
  top: "gt_boxes"
  python_param {
    module: "roi_data_layer.layer"
    layer: "RoIDataLayer"
    param_str: "\'num_classes\': 4"
  }
}
layer {
  name: "conv1"
  type: "Convolution"
  bottom: "data"
  top: "conv1"
  param {
    lr_mult: 1
  }
  param {
    lr_mult: 2
  }
  convolution_param {
    num_output: 96
    pad: 3
    kernel_size: 7
    stride: 2
  }
}
layer {
  name: "relu1"
  type: "ReLU"
  bottom: "conv1"
  top: "conv1"
}
layer {
  name: "norm1"
  type: "LRN"
  bottom: "conv1"
  top: "norm1"
  lrn_param {
    local_size: 3
    alpha: 5e-05
    beta: 0.75
    norm_region: WITHIN_CHANNEL
    engine: CAFFE
  }
}
layer {
  name: "pool1"
  type: "Pooling"
  bottom: "norm1"
  top: "pool1"
  pooling_param {
    pool: MAX
    kernel_size: 3
    stride: 2
    pad: 1
  }
}
layer {
  name: "conv2"
  type: "Convolution"
  bottom: "pool1"
  top: "conv2"
  param {
    lr_mult: 1
  }
  param {
    lr_mult: 2
  }
  convolution_param {
    num_output: 256
    pad: 2
    kernel_size: 5
    stride: 2
  }
}
layer {
  name: "relu2"
  type: "ReLU"
  bottom: "conv2"
  top: "conv2"
}
layer {
  name: "norm2"
  type: "LRN"
  bottom: "conv2"
  top: "norm2"
  lrn_param {
    local_size: 3
    alpha: 5e-05
    beta: 0.75
    norm_region: WITHIN_CHANNEL
    engine: CAFFE
  }
}
layer {
  name: "pool2"
  type: "Pooling"
  bottom: "norm2"
  top: "pool2"
  pooling_param {
    pool: MAX
    kernel_size: 3
    stride: 2
    pad: 1
  }
}
layer {
  name: "conv3"
  type: "Convolution"
  bottom: "pool2"
  top: "conv3"
  param {
    lr_mult: 1
  }
  param {
    lr_mult: 2
  }
  convolution_param {
    num_output: 384
    pad: 1
    kernel_size: 3
    stride: 1
  }
}
layer {
  name: "relu3"
  type: "ReLU"
  bottom: "conv3"
  top: "conv3"
}
layer {
  name: "conv4"
  type: "Convolution"
  bottom: "conv3"
  top: "conv4"
  param {
    lr_mult: 1
  }
  param {
    lr_mult: 2
  }
  convolution_param {
    num_output: 384
    pad: 1
    kernel_size: 3
    stride: 1
  }
}
layer {
  name: "relu4"
  type: "ReLU"
  bottom: "conv4"
  top: "conv4"
}
layer {
  name: "conv5"
  type: "Convolution"
  bottom: "conv4"
  top: "conv5"
  param {
    lr_mult: 1
  }
  param {
    lr_mult: 2
  }
  convolution_param {
    num_output: 256
    pad: 1
    kernel_size: 3
    stride: 1
  }
}
layer {
  name: "relu5"
  type: "ReLU"
  bottom: "conv5"
  top: "conv5"
}
layer {
  name: "rpn_conv1"
  type: "Convolution"
  bottom: "conv5"
  top: "rpn_conv1"
  param {
    lr_mult: 1
  }
  param {
    lr_mult: 2
  }
  convolution_param {
    num_output: 256
    pad: 1
    kernel_size: 3
    stride: 1
    weight_filler {
      type: "gaussian"
      std: 0.01
    }
    bias_filler {
      type: "constant"
      value: 0
    }
  }
}
layer {
  name: "rpn_relu1"
  type: "ReLU"
  bottom: "rpn_conv1"
  top: "rpn_conv1"
}
layer {
  name: "rpn_cls_score"
  type: "Convolution"
  bottom: "rpn_conv1"
  top: "rpn_cls_score"
  param {
    lr_mult: 1
  }
  param {
    lr_mult: 2
  }
  convolution_param {
    num_output: 18
    pad: 0
    kernel_size: 1
    stride: 1
    weight_filler {
      type: "gaussian"
      std: 0.01
    }
    bias_filler {
      type: "constant"
      value: 0
    }
  }
}
layer {
  name: "rpn_bbox_pred"
  type: "Convolution"
  bottom: "rpn_conv1"
  top: "rpn_bbox_pred"
  param {
    lr_mult: 1
  }
  param {
    lr_mult: 2
  }
  convolution_param {
    num_output: 36
    pad: 0
    kernel_size: 1
    stride: 1
    weight_filler {
      type: "gaussian"
      std: 0.01
    }
    bias_filler {
      type: "constant"
      value: 0
    }
  }
}
layer {
  name: "rpn_cls_score_reshape"
  type: "Reshape"
  bottom: "rpn_cls_score"
  top: "rpn_cls_score_reshape"
  reshape_param {
    shape {
      dim: 0
      dim: 2
      dim: -1
      dim: 0
    }
  }
}
layer {
  name: "rpn-data"
  type: "Python"
  bottom: "rpn_cls_score"
  bottom: "gt_boxes"
  bottom: "im_info"
  bottom: "data"
  top: "rpn_labels"
  top: "rpn_bbox_targets"
  top: "rpn_bbox_inside_weights"
  top: "rpn_bbox_outside_weights"
  python_param {
    module: "rpn.anchor_target_layer"
    layer: "AnchorTargetLayer"
    param_str: "\'feat_stride\': 16"
  }
}
layer {
  name: "rpn_loss_cls"
  type: "SoftmaxWithLoss"
  bottom: "rpn_cls_score_reshape"
  bottom: "rpn_labels"
  top: "rpn_cls_loss"
  loss_weight: 1
  propagate_down: true
  propagate_down: false
  loss_param {
    ignore_label: -1
    normalize: true
  }
}
layer {
  name: "rpn_loss_bbox"
  type: "SmoothL1Loss"
  bottom: "rpn_bbox_pred"
  bottom: "rpn_bbox_targets"
  bottom: "rpn_bbox_inside_weights"
  bottom: "rpn_bbox_outside_weights"
  top: "rpn_loss_bbox"
  loss_weight: 1
  smooth_l1_loss_param {
    sigma: 3
  }
}
layer {
  name: "dummy_roi_pool_conv5"
  type: "DummyData"
  top: "dummy_roi_pool_conv5"
  dummy_data_param {
    data_filler {
      type: "gaussian"
      std: 0.01
    }
    shape {
      dim: 1
      dim: 9216
    }
  }
}
layer {
  name: "fc6"
  type: "InnerProduct"
  bottom: "dummy_roi_pool_conv5"
  top: "fc6"
  param {
    lr_mult: 0
    decay_mult: 0
  }
  param {
    lr_mult: 0
    decay_mult: 0
  }
  inner_product_param {
    num_output: 4096
  }
}
layer {
  name: "relu6"
  type: "ReLU"
  bottom: "fc6"
  top: "fc6"
}
layer {
  name: "fc7"
  type: "InnerProduct"
  bottom: "fc6"
  top: "fc7"
  param {
    lr_mult: 0
    decay_mult: 0
  }
  param {
    lr_mult: 0
    decay_mult: 0
  }
  inner_product_param {
    num_output: 4096
  }
}
layer {
  name: "silence_fc7"
  type: "Silence"
  bottom: "fc7"
}
I0426 08:54:10.107059  4259 layer_factory.hpp:77] Creating layer input-data
I0426 08:54:10.119621  4259 net.cpp:106] Creating Layer input-data
I0426 08:54:10.119647  4259 net.cpp:411] input-data -> data
I0426 08:54:10.133015  4259 net.cpp:411] input-data -> im_info
I0426 08:54:10.133083  4259 net.cpp:411] input-data -> gt_boxes
RoiDataLayer: name_to_top: {'gt_boxes': 2, 'data': 0, 'im_info': 1}
I0426 08:54:10.135028  4259 net.cpp:150] Setting up input-data
I0426 08:54:10.135083  4259 net.cpp:157] Top shape: 1 3 600 1000 (1800000)
I0426 08:54:10.135123  4259 net.cpp:157] Top shape: 1 3 (3)
I0426 08:54:10.135164  4259 net.cpp:157] Top shape: 1 4 (4)
I0426 08:54:10.135195  4259 net.cpp:165] Memory required for data: 7200028
I0426 08:54:10.135228  4259 layer_factory.hpp:77] Creating layer data_input-data_0_split
I0426 08:54:10.135291  4259 net.cpp:106] Creating Layer data_input-data_0_split
I0426 08:54:10.135321  4259 net.cpp:454] data_input-data_0_split <- data
I0426 08:54:10.135362  4259 net.cpp:411] data_input-data_0_split -> data_input-data_0_split_0
I0426 08:54:10.135414  4259 net.cpp:411] data_input-data_0_split -> data_input-data_0_split_1
I0426 08:54:10.136098  4259 net.cpp:150] Setting up data_input-data_0_split
I0426 08:54:10.136121  4259 net.cpp:157] Top shape: 1 3 600 1000 (1800000)
I0426 08:54:10.136138  4259 net.cpp:157] Top shape: 1 3 600 1000 (1800000)
I0426 08:54:10.136152  4259 net.cpp:165] Memory required for data: 21600028
I0426 08:54:10.136165  4259 layer_factory.hpp:77] Creating layer conv1
I0426 08:54:10.136193  4259 net.cpp:106] Creating Layer conv1
I0426 08:54:10.136204  4259 net.cpp:454] conv1 <- data_input-data_0_split_0
I0426 08:54:10.136224  4259 net.cpp:411] conv1 -> conv1
I0426 08:54:10.137064  4259 net.cpp:150] Setting up conv1
I0426 08:54:10.137084  4259 net.cpp:157] Top shape: 1 96 300 500 (14400000)
I0426 08:54:10.137096  4259 net.cpp:165] Memory required for data: 79200028
I0426 08:54:10.137125  4259 layer_factory.hpp:77] Creating layer relu1
I0426 08:54:10.137140  4259 net.cpp:106] Creating Layer relu1
I0426 08:54:10.137153  4259 net.cpp:454] relu1 <- conv1
I0426 08:54:10.137171  4259 net.cpp:397] relu1 -> conv1 (in-place)
I0426 08:54:10.137735  4259 net.cpp:150] Setting up relu1
I0426 08:54:10.137753  4259 net.cpp:157] Top shape: 1 96 300 500 (14400000)
I0426 08:54:10.137766  4259 net.cpp:165] Memory required for data: 136800028
I0426 08:54:10.137779  4259 layer_factory.hpp:77] Creating layer norm1
I0426 08:54:10.137800  4259 net.cpp:106] Creating Layer norm1
I0426 08:54:10.137812  4259 net.cpp:454] norm1 <- conv1
I0426 08:54:10.137831  4259 net.cpp:411] norm1 -> norm1
I0426 08:54:10.138249  4259 net.cpp:150] Setting up norm1
I0426 08:54:10.138267  4259 net.cpp:157] Top shape: 1 96 300 500 (14400000)
I0426 08:54:10.138280  4259 net.cpp:165] Memory required for data: 194400028
I0426 08:54:10.138293  4259 layer_factory.hpp:77] Creating layer pool1
I0426 08:54:10.138309  4259 net.cpp:106] Creating Layer pool1
I0426 08:54:10.138322  4259 net.cpp:454] pool1 <- norm1
I0426 08:54:10.138339  4259 net.cpp:411] pool1 -> pool1
I0426 08:54:10.138361  4259 net.cpp:150] Setting up pool1
I0426 08:54:10.138376  4259 net.cpp:157] Top shape: 1 96 151 251 (3638496)
I0426 08:54:10.138389  4259 net.cpp:165] Memory required for data: 208954012
I0426 08:54:10.138402  4259 layer_factory.hpp:77] Creating layer conv2
I0426 08:54:10.138422  4259 net.cpp:106] Creating Layer conv2
I0426 08:54:10.138433  4259 net.cpp:454] conv2 <- pool1
I0426 08:54:10.138451  4259 net.cpp:411] conv2 -> conv2
I0426 08:54:10.139654  4259 net.cpp:150] Setting up conv2
I0426 08:54:10.139706  4259 net.cpp:157] Top shape: 1 256 76 126 (2451456)
I0426 08:54:10.139717  4259 net.cpp:165] Memory required for data: 218759836
I0426 08:54:10.139745  4259 layer_factory.hpp:77] Creating layer relu2
I0426 08:54:10.139770  4259 net.cpp:106] Creating Layer relu2
I0426 08:54:10.139782  4259 net.cpp:454] relu2 <- conv2
I0426 08:54:10.139799  4259 net.cpp:397] relu2 -> conv2 (in-place)
I0426 08:54:10.139820  4259 net.cpp:150] Setting up relu2
I0426 08:54:10.139835  4259 net.cpp:157] Top shape: 1 256 76 126 (2451456)
I0426 08:54:10.139848  4259 net.cpp:165] Memory required for data: 228565660
I0426 08:54:10.139861  4259 layer_factory.hpp:77] Creating layer norm2
I0426 08:54:10.139883  4259 net.cpp:106] Creating Layer norm2
I0426 08:54:10.139894  4259 net.cpp:454] norm2 <- conv2
I0426 08:54:10.139911  4259 net.cpp:411] norm2 -> norm2
I0426 08:54:10.139948  4259 net.cpp:150] Setting up norm2
I0426 08:54:10.139964  4259 net.cpp:157] Top shape: 1 256 76 126 (2451456)
I0426 08:54:10.139976  4259 net.cpp:165] Memory required for data: 238371484
I0426 08:54:10.139991  4259 layer_factory.hpp:77] Creating layer pool2
I0426 08:54:10.140007  4259 net.cpp:106] Creating Layer pool2
I0426 08:54:10.140019  4259 net.cpp:454] pool2 <- norm2
I0426 08:54:10.140036  4259 net.cpp:411] pool2 -> pool2
I0426 08:54:10.140058  4259 net.cpp:150] Setting up pool2
I0426 08:54:10.140071  4259 net.cpp:157] Top shape: 1 256 39 64 (638976)
I0426 08:54:10.140084  4259 net.cpp:165] Memory required for data: 240927388
I0426 08:54:10.140097  4259 layer_factory.hpp:77] Creating layer conv3
I0426 08:54:10.140120  4259 net.cpp:106] Creating Layer conv3
I0426 08:54:10.140130  4259 net.cpp:454] conv3 <- pool2
I0426 08:54:10.140147  4259 net.cpp:411] conv3 -> conv3
I0426 08:54:10.141839  4259 net.cpp:150] Setting up conv3
I0426 08:54:10.141890  4259 net.cpp:157] Top shape: 1 384 39 64 (958464)
I0426 08:54:10.141898  4259 net.cpp:165] Memory required for data: 244761244
I0426 08:54:10.141928  4259 layer_factory.hpp:77] Creating layer relu3
I0426 08:54:10.141952  4259 net.cpp:106] Creating Layer relu3
I0426 08:54:10.141964  4259 net.cpp:454] relu3 <- conv3
I0426 08:54:10.141983  4259 net.cpp:397] relu3 -> conv3 (in-place)
I0426 08:54:10.142001  4259 net.cpp:150] Setting up relu3
I0426 08:54:10.142016  4259 net.cpp:157] Top shape: 1 384 39 64 (958464)
I0426 08:54:10.142030  4259 net.cpp:165] Memory required for data: 248595100
I0426 08:54:10.142041  4259 layer_factory.hpp:77] Creating layer conv4
I0426 08:54:10.142062  4259 net.cpp:106] Creating Layer conv4
I0426 08:54:10.142074  4259 net.cpp:454] conv4 <- conv3
I0426 08:54:10.142092  4259 net.cpp:411] conv4 -> conv4
I0426 08:54:10.144265  4259 net.cpp:150] Setting up conv4
I0426 08:54:10.144311  4259 net.cpp:157] Top shape: 1 384 39 64 (958464)
I0426 08:54:10.144321  4259 net.cpp:165] Memory required for data: 252428956
I0426 08:54:10.144345  4259 layer_factory.hpp:77] Creating layer relu4
I0426 08:54:10.144363  4259 net.cpp:106] Creating Layer relu4
I0426 08:54:10.144376  4259 net.cpp:454] relu4 <- conv4
I0426 08:54:10.144395  4259 net.cpp:397] relu4 -> conv4 (in-place)
I0426 08:54:10.144415  4259 net.cpp:150] Setting up relu4
I0426 08:54:10.144429  4259 net.cpp:157] Top shape: 1 384 39 64 (958464)
I0426 08:54:10.144441  4259 net.cpp:165] Memory required for data: 256262812
I0426 08:54:10.144454  4259 layer_factory.hpp:77] Creating layer conv5
I0426 08:54:10.144487  4259 net.cpp:106] Creating Layer conv5
I0426 08:54:10.144500  4259 net.cpp:454] conv5 <- conv4
I0426 08:54:10.144520  4259 net.cpp:411] conv5 -> conv5
I0426 08:54:10.145923  4259 net.cpp:150] Setting up conv5
I0426 08:54:10.145964  4259 net.cpp:157] Top shape: 1 256 39 64 (638976)
I0426 08:54:10.145977  4259 net.cpp:165] Memory required for data: 258818716
I0426 08:54:10.146001  4259 layer_factory.hpp:77] Creating layer relu5
I0426 08:54:10.146023  4259 net.cpp:106] Creating Layer relu5
I0426 08:54:10.146034  4259 net.cpp:454] relu5 <- conv5
I0426 08:54:10.146054  4259 net.cpp:397] relu5 -> conv5 (in-place)
I0426 08:54:10.146072  4259 net.cpp:150] Setting up relu5
I0426 08:54:10.146086  4259 net.cpp:157] Top shape: 1 256 39 64 (638976)
I0426 08:54:10.146100  4259 net.cpp:165] Memory required for data: 261374620
I0426 08:54:10.146112  4259 layer_factory.hpp:77] Creating layer rpn_conv1
I0426 08:54:10.146138  4259 net.cpp:106] Creating Layer rpn_conv1
I0426 08:54:10.146149  4259 net.cpp:454] rpn_conv1 <- conv5
I0426 08:54:10.146168  4259 net.cpp:411] rpn_conv1 -> rpn_conv1
I0426 08:54:10.168994  4259 net.cpp:150] Setting up rpn_conv1
I0426 08:54:10.169035  4259 net.cpp:157] Top shape: 1 256 39 64 (638976)
I0426 08:54:10.169047  4259 net.cpp:165] Memory required for data: 263930524
I0426 08:54:10.169068  4259 layer_factory.hpp:77] Creating layer rpn_relu1
I0426 08:54:10.169090  4259 net.cpp:106] Creating Layer rpn_relu1
I0426 08:54:10.169104  4259 net.cpp:454] rpn_relu1 <- rpn_conv1
I0426 08:54:10.169123  4259 net.cpp:397] rpn_relu1 -> rpn_conv1 (in-place)
I0426 08:54:10.169144  4259 net.cpp:150] Setting up rpn_relu1
I0426 08:54:10.169160  4259 net.cpp:157] Top shape: 1 256 39 64 (638976)
I0426 08:54:10.169181  4259 net.cpp:165] Memory required for data: 266486428
I0426 08:54:10.169195  4259 layer_factory.hpp:77] Creating layer rpn_conv1_rpn_relu1_0_split
I0426 08:54:10.169212  4259 net.cpp:106] Creating Layer rpn_conv1_rpn_relu1_0_split
I0426 08:54:10.169225  4259 net.cpp:454] rpn_conv1_rpn_relu1_0_split <- rpn_conv1
I0426 08:54:10.169240  4259 net.cpp:411] rpn_conv1_rpn_relu1_0_split -> rpn_conv1_rpn_relu1_0_split_0
I0426 08:54:10.169260  4259 net.cpp:411] rpn_conv1_rpn_relu1_0_split -> rpn_conv1_rpn_relu1_0_split_1
I0426 08:54:10.169284  4259 net.cpp:150] Setting up rpn_conv1_rpn_relu1_0_split
I0426 08:54:10.169299  4259 net.cpp:157] Top shape: 1 256 39 64 (638976)
I0426 08:54:10.169317  4259 net.cpp:157] Top shape: 1 256 39 64 (638976)
I0426 08:54:10.169328  4259 net.cpp:165] Memory required for data: 271598236
I0426 08:54:10.169342  4259 layer_factory.hpp:77] Creating layer rpn_cls_score
I0426 08:54:10.169366  4259 net.cpp:106] Creating Layer rpn_cls_score
I0426 08:54:10.169378  4259 net.cpp:454] rpn_cls_score <- rpn_conv1_rpn_relu1_0_split_0
I0426 08:54:10.169397  4259 net.cpp:411] rpn_cls_score -> rpn_cls_score
I0426 08:54:10.169610  4259 net.cpp:150] Setting up rpn_cls_score
I0426 08:54:10.169626  4259 net.cpp:157] Top shape: 1 18 39 64 (44928)
I0426 08:54:10.169638  4259 net.cpp:165] Memory required for data: 271777948
I0426 08:54:10.169658  4259 layer_factory.hpp:77] Creating layer rpn_cls_score_rpn_cls_score_0_split
I0426 08:54:10.169673  4259 net.cpp:106] Creating Layer rpn_cls_score_rpn_cls_score_0_split
I0426 08:54:10.169687  4259 net.cpp:454] rpn_cls_score_rpn_cls_score_0_split <- rpn_cls_score
I0426 08:54:10.169703  4259 net.cpp:411] rpn_cls_score_rpn_cls_score_0_split -> rpn_cls_score_rpn_cls_score_0_split_0
I0426 08:54:10.169723  4259 net.cpp:411] rpn_cls_score_rpn_cls_score_0_split -> rpn_cls_score_rpn_cls_score_0_split_1
I0426 08:54:10.169741  4259 net.cpp:150] Setting up rpn_cls_score_rpn_cls_score_0_split
I0426 08:54:10.169756  4259 net.cpp:157] Top shape: 1 18 39 64 (44928)
I0426 08:54:10.169772  4259 net.cpp:157] Top shape: 1 18 39 64 (44928)
I0426 08:54:10.169785  4259 net.cpp:165] Memory required for data: 272137372
I0426 08:54:10.169797  4259 layer_factory.hpp:77] Creating layer rpn_bbox_pred
I0426 08:54:10.169819  4259 net.cpp:106] Creating Layer rpn_bbox_pred
I0426 08:54:10.169832  4259 net.cpp:454] rpn_bbox_pred <- rpn_conv1_rpn_relu1_0_split_1
I0426 08:54:10.169848  4259 net.cpp:411] rpn_bbox_pred -> rpn_bbox_pred
I0426 08:54:10.170240  4259 net.cpp:150] Setting up rpn_bbox_pred
I0426 08:54:10.170256  4259 net.cpp:157] Top shape: 1 36 39 64 (89856)
I0426 08:54:10.170269  4259 net.cpp:165] Memory required for data: 272496796
I0426 08:54:10.170289  4259 layer_factory.hpp:77] Creating layer rpn_cls_score_reshape
I0426 08:54:10.170307  4259 net.cpp:106] Creating Layer rpn_cls_score_reshape
I0426 08:54:10.170320  4259 net.cpp:454] rpn_cls_score_reshape <- rpn_cls_score_rpn_cls_score_0_split_0
I0426 08:54:10.170338  4259 net.cpp:411] rpn_cls_score_reshape -> rpn_cls_score_reshape
I0426 08:54:10.170363  4259 net.cpp:150] Setting up rpn_cls_score_reshape
I0426 08:54:10.170377  4259 net.cpp:157] Top shape: 1 2 351 64 (44928)
I0426 08:54:10.170390  4259 net.cpp:165] Memory required for data: 272676508
I0426 08:54:10.170403  4259 layer_factory.hpp:77] Creating layer rpn-data
I0426 08:54:10.171458  4259 net.cpp:106] Creating Layer rpn-data
I0426 08:54:10.171476  4259 net.cpp:454] rpn-data <- rpn_cls_score_rpn_cls_score_0_split_1
I0426 08:54:10.171489  4259 net.cpp:454] rpn-data <- gt_boxes
I0426 08:54:10.171507  4259 net.cpp:454] rpn-data <- im_info
I0426 08:54:10.171525  4259 net.cpp:454] rpn-data <- data_input-data_0_split_1
I0426 08:54:10.171543  4259 net.cpp:411] rpn-data -> rpn_labels
I0426 08:54:10.171564  4259 net.cpp:411] rpn-data -> rpn_bbox_targets
I0426 08:54:10.171584  4259 net.cpp:411] rpn-data -> rpn_bbox_inside_weights
I0426 08:54:10.171604  4259 net.cpp:411] rpn-data -> rpn_bbox_outside_weights
I0426 08:54:10.172657  4259 net.cpp:150] Setting up rpn-data
I0426 08:54:10.172680  4259 net.cpp:157] Top shape: 1 1 351 64 (22464)
I0426 08:54:10.172695  4259 net.cpp:157] Top shape: 1 36 39 64 (89856)
I0426 08:54:10.172713  4259 net.cpp:157] Top shape: 1 36 39 64 (89856)
I0426 08:54:10.172725  4259 net.cpp:157] Top shape: 1 36 39 64 (89856)
I0426 08:54:10.172739  4259 net.cpp:165] Memory required for data: 273844636
I0426 08:54:10.172754  4259 layer_factory.hpp:77] Creating layer rpn_loss_cls
I0426 08:54:10.172775  4259 net.cpp:106] Creating Layer rpn_loss_cls
I0426 08:54:10.172787  4259 net.cpp:454] rpn_loss_cls <- rpn_cls_score_reshape
I0426 08:54:10.172803  4259 net.cpp:454] rpn_loss_cls <- rpn_labels
I0426 08:54:10.172822  4259 net.cpp:411] rpn_loss_cls -> rpn_cls_loss
…
