…
average_loss: 100
I0302 03:10:30.232475  5085 solver.cpp:81] Creating training net from train_net file: models/pascal_voc/ZF/faster_rcnn_alt_opt/stage1_fast_rcnn_train.pt
I0302 03:10:30.233317  5085 net.cpp:49] Initializing net from parameters: 
name: "ZF"
state {
  phase: TRAIN
}
layer {
  name: "data"
  type: "Python"
  top: "data"
  top: "rois"
  top: "labels"
  top: "bbox_targets"
  top: "bbox_inside_weights"
  top: "bbox_outside_weights"
  python_param {
    module: "roi_data_layer.layer"
    layer: "RoIDataLayer"
    param_str: "\'num_classes\': 4"
  }
}
layer {
  name: "conv1"
  type: "Convolution"
  bottom: "data"
  top: "conv1"
  param {
    lr_mult: 1
  }
  param {
    lr_mult: 2
  }
  convolution_param {
    num_output: 96
    pad: 3
    kernel_size: 7
    stride: 2
  }
}
layer {
  name: "relu1"
  type: "ReLU"
  bottom: "conv1"
  top: "conv1"
}
layer {
  name: "norm1"
  type: "LRN"
  bottom: "conv1"
  top: "norm1"
  lrn_param {
    local_size: 3
    alpha: 5e-05
    beta: 0.75
    norm_region: WITHIN_CHANNEL
    engine: CAFFE
  }
}
layer {
  name: "pool1"
  type: "Pooling"
  bottom: "norm1"
  top: "pool1"
  pooling_param {
    pool: MAX
    kernel_size: 3
    stride: 2
    pad: 1
  }
}
layer {
  name: "conv2"
  type: "Convolution"
  bottom: "pool1"
  top: "conv2"
  param {
    lr_mult: 1
  }
  param {
    lr_mult: 2
  }
  convolution_param {
    num_output: 256
    pad: 2
    kernel_size: 5
    stride: 2
  }
}
layer {
  name: "relu2"
  type: "ReLU"
  bottom: "conv2"
  top: "conv2"
}
layer {
  name: "norm2"
  type: "LRN"
  bottom: "conv2"
  top: "norm2"
  lrn_param {
    local_size: 3
    alpha: 5e-05
    beta: 0.75
    norm_region: WITHIN_CHANNEL
    engine: CAFFE
  }
}
layer {
  name: "pool2"
  type: "Pooling"
  bottom: "norm2"
  top: "pool2"
  pooling_param {
    pool: MAX
    kernel_size: 3
    stride: 2
    pad: 1
  }
}
layer {
  name: "conv3"
  type: "Convolution"
  bottom: "pool2"
  top: "conv3"
  param {
    lr_mult: 1
  }
  param {
    lr_mult: 2
  }
  convolution_param {
    num_output: 384
    pad: 1
    kernel_size: 3
    stride: 1
  }
}
layer {
  name: "relu3"
  type: "ReLU"
  bottom: "conv3"
  top: "conv3"
}
layer {
  name: "conv4"
  type: "Convolution"
  bottom: "conv3"
  top: "conv4"
  param {
    lr_mult: 1
  }
  param {
    lr_mult: 2
  }
  convolution_param {
    num_output: 384
    pad: 1
    kernel_size: 3
    stride: 1
  }
}
layer {
  name: "relu4"
  type: "ReLU"
  bottom: "conv4"
  top: "conv4"
}
layer {
  name: "conv5"
  type: "Convolution"
  bottom: "conv4"
  top: "conv5"
  param {
    lr_mult: 1
  }
  param {
    lr_mult: 2
  }
  convolution_param {
    num_output: 256
    pad: 1
    kernel_size: 3
    stride: 1
  }
}
layer {
  name: "relu5"
  type: "ReLU"
  bottom: "conv5"
  top: "conv5"
}
layer {
  name: "roi_pool_conv5"
  type: "ROIPooling"
  bottom: "conv5"
  bottom: "rois"
  top: "roi_pool_conv5"
  roi_pooling_param {
    pooled_h: 6
    pooled_w: 6
    spatial_scale: 0.0625
  }
}
layer {
  name: "fc6"
  type: "InnerProduct"
  bottom: "roi_pool_conv5"
  top: "fc6"
  param {
    lr_mult: 1
  }
  param {
    lr_mult: 2
  }
  inner_product_param {
    num_output: 4096
  }
}
layer {
  name: "relu6"
  type: "ReLU"
  bottom: "fc6"
  top: "fc6"
}
layer {
  name: "drop6"
  type: "Dropout"
  bottom: "fc6"
  top: "fc6"
  dropout_param {
    dropout_ratio: 0.5
    scale_train: false
  }
}
layer {
  name: "fc7"
  type: "InnerProduct"
  bottom: "fc6"
  top: "fc7"
  param {
    lr_mult: 1
  }
  param {
    lr_mult: 2
  }
  inner_product_param {
    num_output: 4096
  }
}
layer {
  name: "relu7"
  type: "ReLU"
  bottom: "fc7"
  top: "fc7"
}
layer {
  name: "drop7"
  type: "Dropout"
  bottom: "fc7"
  top: "fc7"
  dropout_param {
    dropout_ratio: 0.5
    scale_train: false
  }
}
layer {
  name: "cls_score"
  type: "InnerProduct"
  bottom: "fc7"
  top: "cls_score"
  param {
    lr_mult: 1
  }
  param {
    lr_mult: 2
  }
  inner_product_param {
    num_output: 4
    weight_filler {
      type: "gaussian"
      std: 0.01
    }
    bias_filler {
      type: "constant"
      value: 0
    }
  }
}
layer {
  name: "bbox_pred"
  type: "InnerProduct"
  bottom: "fc7"
  top: "bbox_pred"
  param {
    lr_mult: 1
  }
  param {
    lr_mult: 2
  }
  inner_product_param {
    num_output: 16
    weight_filler {
      type: "gaussian"
      std: 0.001
    }
    bias_filler {
      type: "constant"
      value: 0
    }
  }
}
layer {
  name: "loss_cls"
  type: "SoftmaxWithLoss"
  bottom: "cls_score"
  bottom: "labels"
  top: "cls_loss"
  loss_weight: 1
  propagate_down: true
  propagate_down: false
  loss_param {
    ignore_label: -1
    normalize: true
  }
}
layer {
  name: "loss_bbox"
  type: "SmoothL1Loss"
  bottom: "bbox_pred"
  bottom: "bbox_targets"
  bottom: "bbox_inside_weights"
  bottom: "bbox_outside_weights"
  top: "bbox_loss"
  loss_weight: 1
}
layer {
  name: "rpn_conv1"
  type: "Convolution"
  bottom: "conv5"
  top: "rpn_conv1"
  param {
    lr_mult: 0
    decay_mult: 0
  }
  param {
    lr_mult: 0
    decay_mult: 0
  }
  convolution_param {
    num_output: 256
    pad: 1
    kernel_size: 3
    stride: 1
    weight_filler {
      type: "gaussian"
      std: 0.01
    }
    bias_filler {
      type: "constant"
      value: 0
    }
  }
}
layer {
  name: "rpn_relu1"
  type: "ReLU"
  bottom: "rpn_conv1"
  top: "rpn_conv1"
}
layer {
  name: "rpn_cls_score"
  type: "Convolution"
  bottom: "rpn_conv1"
  top: "rpn_cls_score"
  param {
    lr_mult: 0
    decay_mult: 0
  }
  param {
    lr_mult: 0
    decay_mult: 0
  }
  convolution_param {
    num_output: 18
    pad: 0
    kernel_size: 1
    stride: 1
    weight_filler {
      type: "gaussian"
      std: 0.01
    }
    bias_filler {
      type: "constant"
      value: 0
    }
  }
}
layer {
  name: "rpn_bbox_pred"
  type: "Convolution"
  bottom: "rpn_conv1"
  top: "rpn_bbox_pred"
  param {
    lr_mult: 0
    decay_mult: 0
  }
  param {
    lr_mult: 0
    decay_mult: 0
  }
  convolution_param {
    num_output: 36
    pad: 0
    kernel_size: 1
    stride: 1
    weight_filler {
      type: "gaussian"
      std: 0.01
    }
    bias_filler {
      type: "constant"
      value: 0
    }
  }
}
layer {
  name: "silence_rpn_cls_score"
  type: "Silence"
  bottom: "rpn_cls_score"
}
layer {
  name: "silence_rpn_bbox_pred"
  type: "Silence"
  bottom: "rpn_bbox_pred"
}
I0302 03:10:30.233525  5085 layer_factory.hpp:77] Creating layer data
I0302 03:10:30.234058  5085 net.cpp:106] Creating Layer data
I0302 03:10:30.234068  5085 net.cpp:411] data -> data
I0302 03:10:30.234077  5085 net.cpp:411] data -> rois
I0302 03:10:30.234082  5085 net.cpp:411] data -> labels
I0302 03:10:30.234087  5085 net.cpp:411] data -> bbox_targets
I0302 03:10:30.234091  5085 net.cpp:411] data -> bbox_inside_weights
I0302 03:10:30.234097  5085 net.cpp:411] data -> bbox_outside_weights
RoiDataLayer: name_to_top: {'bbox_inside_weights': 4, 'labels': 2, 'rois': 1, 'bbox_targets': 3, 'bbox_outside_weights': 5, 'data': 0}
I0302 03:10:30.243183  5085 net.cpp:150] Setting up data
I0302 03:10:30.243221  5085 net.cpp:157] Top shape: 2 3 600 1000 (3600000)
I0302 03:10:30.243226  5085 net.cpp:157] Top shape: 1 5 (5)
I0302 03:10:30.243228  5085 net.cpp:157] Top shape: 1 (1)
I0302 03:10:30.243230  5085 net.cpp:157] Top shape: 1 16 (16)
I0302 03:10:30.243233  5085 net.cpp:157] Top shape: 1 16 (16)
I0302 03:10:30.243237  5085 net.cpp:157] Top shape: 1 16 (16)
I0302 03:10:30.243238  5085 net.cpp:165] Memory required for data: 14400216
I0302 03:10:30.243243  5085 layer_factory.hpp:77] Creating layer conv1
I0302 03:10:30.243255  5085 net.cpp:106] Creating Layer conv1
I0302 03:10:30.243258  5085 net.cpp:454] conv1 <- data
I0302 03:10:30.243265  5085 net.cpp:411] conv1 -> conv1
I0302 03:10:30.342666  5085 net.cpp:150] Setting up conv1
I0302 03:10:30.342702  5085 net.cpp:157] Top shape: 2 96 300 500 (28800000)
I0302 03:10:30.342706  5085 net.cpp:165] Memory required for data: 129600216
I0302 03:10:30.342720  5085 layer_factory.hpp:77] Creating layer relu1
I0302 03:10:30.342742  5085 net.cpp:106] Creating Layer relu1
I0302 03:10:30.342747  5085 net.cpp:454] relu1 <- conv1
I0302 03:10:30.342752  5085 net.cpp:397] relu1 -> conv1 (in-place)
I0302 03:10:30.343072  5085 net.cpp:150] Setting up relu1
I0302 03:10:30.343093  5085 net.cpp:157] Top shape: 2 96 300 500 (28800000)
I0302 03:10:30.343096  5085 net.cpp:165] Memory required for data: 244800216
I0302 03:10:30.343098  5085 layer_factory.hpp:77] Creating layer norm1
I0302 03:10:30.343106  5085 net.cpp:106] Creating Layer norm1
I0302 03:10:30.343108  5085 net.cpp:454] norm1 <- conv1
I0302 03:10:30.343123  5085 net.cpp:411] norm1 -> norm1
I0302 03:10:30.343230  5085 net.cpp:150] Setting up norm1
I0302 03:10:30.343238  5085 net.cpp:157] Top shape: 2 96 300 500 (28800000)
I0302 03:10:30.343251  5085 net.cpp:165] Memory required for data: 360000216
I0302 03:10:30.343253  5085 layer_factory.hpp:77] Creating layer pool1
I0302 03:10:30.343260  5085 net.cpp:106] Creating Layer pool1
I0302 03:10:30.343262  5085 net.cpp:454] pool1 <- norm1
I0302 03:10:30.343276  5085 net.cpp:411] pool1 -> pool1
I0302 03:10:30.343303  5085 net.cpp:150] Setting up pool1
I0302 03:10:30.343310  5085 net.cpp:157] Top shape: 2 96 151 251 (7276992)
I0302 03:10:30.343312  5085 net.cpp:165] Memory required for data: 389108184
I0302 03:10:30.343315  5085 layer_factory.hpp:77] Creating layer conv2
I0302 03:10:30.343324  5085 net.cpp:106] Creating Layer conv2
I0302 03:10:30.343327  5085 net.cpp:454] conv2 <- pool1
I0302 03:10:30.343331  5085 net.cpp:411] conv2 -> conv2
I0302 03:10:30.345180  5085 net.cpp:150] Setting up conv2
I0302 03:10:30.345202  5085 net.cpp:157] Top shape: 2 256 76 126 (4902912)
I0302 03:10:30.345206  5085 net.cpp:165] Memory required for data: 408719832
I0302 03:10:30.345213  5085 layer_factory.hpp:77] Creating layer relu2
I0302 03:10:30.345230  5085 net.cpp:106] Creating Layer relu2
I0302 03:10:30.345233  5085 net.cpp:454] relu2 <- conv2
I0302 03:10:30.345238  5085 net.cpp:397] relu2 -> conv2 (in-place)
I0302 03:10:30.345381  5085 net.cpp:150] Setting up relu2
I0302 03:10:30.345391  5085 net.cpp:157] Top shape: 2 256 76 126 (4902912)
I0302 03:10:30.345403  5085 net.cpp:165] Memory required for data: 428331480
I0302 03:10:30.345405  5085 layer_factory.hpp:77] Creating layer norm2
I0302 03:10:30.345412  5085 net.cpp:106] Creating Layer norm2
I0302 03:10:30.345414  5085 net.cpp:454] norm2 <- conv2
I0302 03:10:30.345428  5085 net.cpp:411] norm2 -> norm2
I0302 03:10:30.345518  5085 net.cpp:150] Setting up norm2
I0302 03:10:30.345525  5085 net.cpp:157] Top shape: 2 256 76 126 (4902912)
I0302 03:10:30.345538  5085 net.cpp:165] Memory required for data: 447943128
I0302 03:10:30.345541  5085 layer_factory.hpp:77] Creating layer pool2
I0302 03:10:30.345547  5085 net.cpp:106] Creating Layer pool2
I0302 03:10:30.345551  5085 net.cpp:454] pool2 <- norm2
I0302 03:10:30.345564  5085 net.cpp:411] pool2 -> pool2
I0302 03:10:30.345588  5085 net.cpp:150] Setting up pool2
I0302 03:10:30.345594  5085 net.cpp:157] Top shape: 2 256 39 64 (1277952)
I0302 03:10:30.345597  5085 net.cpp:165] Memory required for data: 453054936
I0302 03:10:30.345599  5085 layer_factory.hpp:77] Creating layer conv3
I0302 03:10:30.345607  5085 net.cpp:106] Creating Layer conv3
I0302 03:10:30.345610  5085 net.cpp:454] conv3 <- pool2
I0302 03:10:30.345614  5085 net.cpp:411] conv3 -> conv3
I0302 03:10:30.348510  5085 net.cpp:150] Setting up conv3
I0302 03:10:30.348551  5085 net.cpp:157] Top shape: 2 384 39 64 (1916928)
I0302 03:10:30.348554  5085 net.cpp:165] Memory required for data: 460722648
I0302 03:10:30.348567  5085 layer_factory.hpp:77] Creating layer relu3
I0302 03:10:30.348587  5085 net.cpp:106] Creating Layer relu3
I0302 03:10:30.348592  5085 net.cpp:454] relu3 <- conv3
I0302 03:10:30.348598  5085 net.cpp:397] relu3 -> conv3 (in-place)
I0302 03:10:30.348899  5085 net.cpp:150] Setting up relu3
I0302 03:10:30.348920  5085 net.cpp:157] Top shape: 2 384 39 64 (1916928)
I0302 03:10:30.348923  5085 net.cpp:165] Memory required for data: 468390360
I0302 03:10:30.348927  5085 layer_factory.hpp:77] Creating layer conv4
I0302 03:10:30.348935  5085 net.cpp:106] Creating Layer conv4
I0302 03:10:30.348938  5085 net.cpp:454] conv4 <- conv3
I0302 03:10:30.348943  5085 net.cpp:411] conv4 -> conv4
I0302 03:10:30.351547  5085 net.cpp:150] Setting up conv4
I0302 03:10:30.351586  5085 net.cpp:157] Top shape: 2 384 39 64 (1916928)
I0302 03:10:30.351589  5085 net.cpp:165] Memory required for data: 476058072
I0302 03:10:30.351598  5085 layer_factory.hpp:77] Creating layer relu4
I0302 03:10:30.351606  5085 net.cpp:106] Creating Layer relu4
I0302 03:10:30.351611  5085 net.cpp:454] relu4 <- conv4
I0302 03:10:30.351618  5085 net.cpp:397] relu4 -> conv4 (in-place)
I0302 03:10:30.351909  5085 net.cpp:150] Setting up relu4
I0302 03:10:30.351930  5085 net.cpp:157] Top shape: 2 384 39 64 (1916928)
I0302 03:10:30.351933  5085 net.cpp:165] Memory required for data: 483725784
I0302 03:10:30.351936  5085 layer_factory.hpp:77] Creating layer conv5
I0302 03:10:30.351945  5085 net.cpp:106] Creating Layer conv5
I0302 03:10:30.351948  5085 net.cpp:454] conv5 <- conv4
I0302 03:10:30.351953  5085 net.cpp:411] conv5 -> conv5
I0302 03:10:30.354051  5085 net.cpp:150] Setting up conv5
I0302 03:10:30.354079  5085 net.cpp:157] Top shape: 2 256 39 64 (1277952)
I0302 03:10:30.354084  5085 net.cpp:165] Memory required for data: 488837592
I0302 03:10:30.354094  5085 layer_factory.hpp:77] Creating layer relu5
I0302 03:10:30.354101  5085 net.cpp:106] Creating Layer relu5
I0302 03:10:30.354105  5085 net.cpp:454] relu5 <- conv5
I0302 03:10:30.354110  5085 net.cpp:397] relu5 -> conv5 (in-place)
I0302 03:10:30.354279  5085 net.cpp:150] Setting up relu5
I0302 03:10:30.354310  5085 net.cpp:157] Top shape: 2 256 39 64 (1277952)
I0302 03:10:30.354315  5085 net.cpp:165] Memory required for data: 493949400
I0302 03:10:30.354320  5085 layer_factory.hpp:77] Creating layer conv5_relu5_0_split
I0302 03:10:30.354327  5085 net.cpp:106] Creating Layer conv5_relu5_0_split
I0302 03:10:30.354331  5085 net.cpp:454] conv5_relu5_0_split <- conv5
I0302 03:10:30.354336  5085 net.cpp:411] conv5_relu5_0_split -> conv5_relu5_0_split_0
I0302 03:10:30.354341  5085 net.cpp:411] conv5_relu5_0_split -> conv5_relu5_0_split_1
I0302 03:10:30.354395  5085 net.cpp:150] Setting up conv5_relu5_0_split
I0302 03:10:30.354405  5085 net.cpp:157] Top shape: 2 256 39 64 (1277952)
I0302 03:10:30.354409  5085 net.cpp:157] Top shape: 2 256 39 64 (1277952)
I0302 03:10:30.354413  5085 net.cpp:165] Memory required for data: 504173016
I0302 03:10:30.354414  5085 layer_factory.hpp:77] Creating layer roi_pool_conv5
I0302 03:10:30.354423  5085 net.cpp:106] Creating Layer roi_pool_conv5
I0302 03:10:30.354425  5085 net.cpp:454] roi_pool_conv5 <- conv5_relu5_0_split_0
I0302 03:10:30.354429  5085 net.cpp:454] roi_pool_conv5 <- rois
I0302 03:10:30.354434  5085 net.cpp:411] roi_pool_conv5 -> roi_pool_conv5
I0302 03:10:30.354439  5085 roi_pooling_layer.cpp:30] Spatial scale: 0.0625
I0302 03:10:30.354473  5085 net.cpp:150] Setting up roi_pool_conv5
I0302 03:10:30.354482  5085 net.cpp:157] Top shape: 1 256 6 6 (9216)
I0302 03:10:30.354486  5085 net.cpp:165] Memory required for data: 504209880
I0302 03:10:30.354490  5085 layer_factory.hpp:77] Creating layer fc6
I0302 03:10:30.354499  5085 net.cpp:106] Creating Layer fc6
I0302 03:10:30.354506  5085 net.cpp:454] fc6 <- roi_pool_conv5
I0302 03:10:30.354512  5085 net.cpp:411] fc6 -> fc6
I0302 03:10:30.413432  5085 net.cpp:150] Setting up fc6
I0302 03:10:30.413475  5085 net.cpp:157] Top shape: 1 4096 (4096)
I0302 03:10:30.413477  5085 net.cpp:165] Memory required for data: 504226264
I0302 03:10:30.413486  5085 layer_factory.hpp:77] Creating layer relu6
I0302 03:10:30.413496  5085 net.cpp:106] Creating Layer relu6
I0302 03:10:30.413512  5085 net.cpp:454] relu6 <- fc6
I0302 03:10:30.413519  5085 net.cpp:397] relu6 -> fc6 (in-place)
I0302 03:10:30.413923  5085 net.cpp:150] Setting up relu6
I0302 03:10:30.413946  5085 net.cpp:157] Top shape: 1 4096 (4096)
I0302 03:10:30.413949  5085 net.cpp:165] Memory required for data: 504242648
I0302 03:10:30.413954  5085 layer_factory.hpp:77] Creating layer drop6
I0302 03:10:30.413960  5085 net.cpp:106] Creating Layer drop6
I0302 03:10:30.413974  5085 net.cpp:454] drop6 <- fc6
I0302 03:10:30.413977  5085 net.cpp:397] drop6 -> fc6 (in-place)
I0302 03:10:30.414000  5085 net.cpp:150] Setting up drop6
I0302 03:10:30.414006  5085 net.cpp:157] Top shape: 1 4096 (4096)
I0302 03:10:30.414010  5085 net.cpp:165] Memory required for data: 504259032
I0302 03:10:30.414011  5085 layer_factory.hpp:77] Creating layer fc7
I0302 03:10:30.414026  5085 net.cpp:106] Creating Layer fc7
I0302 03:10:30.414029  5085 net.cpp:454] fc7 <- fc6
I0302 03:10:30.414033  5085 net.cpp:411] fc7 -> fc7
I0302 03:10:30.441047  5085 net.cpp:150] Setting up fc7
I0302 03:10:30.441092  5085 net.cpp:157] Top shape: 1 4096 (4096)
I0302 03:10:30.441094  5085 net.cpp:165] Memory required for data: 504275416
I0302 03:10:30.441103  5085 layer_factory.hpp:77] Creating layer relu7
I0302 03:10:30.441112  5085 net.cpp:106] Creating Layer relu7
I0302 03:10:30.441131  5085 net.cpp:454] relu7 <- fc7
I0302 03:10:30.441138  5085 net.cpp:397] relu7 -> fc7 (in-place)
I0302 03:10:30.441354  5085 net.cpp:150] Setting up relu7
I0302 03:10:30.441362  5085 net.cpp:157] Top shape: 1 4096 (4096)
I0302 03:10:30.441380  5085 net.cpp:165] Memory required for data: 504291800
I0302 03:10:30.441381  5085 layer_factory.hpp:77] Creating layer drop7
I0302 03:10:30.441388  5085 net.cpp:106] Creating Layer drop7
I0302 03:10:30.441391  5085 net.cpp:454] drop7 <- fc7
I0302 03:10:30.441395  5085 net.cpp:397] drop7 -> fc7 (in-place)
I0302 03:10:30.441433  5085 net.cpp:150] Setting up drop7
I0302 03:10:30.441439  5085 net.cpp:157] Top shape: 1 4096 (4096)
I0302 03:10:30.441442  5085 net.cpp:165] Memory required for data: 504308184
I0302 03:10:30.441444  5085 layer_factory.hpp:77] Creating layer fc7_drop7_0_split
I0302 03:10:30.441449  5085 net.cpp:106] Creating Layer fc7_drop7_0_split
I0302 03:10:30.441452  5085 net.cpp:454] fc7_drop7_0_split <- fc7
I0302 03:10:30.441457  5085 net.cpp:411] fc7_drop7_0_split -> fc7_drop7_0_split_0
I0302 03:10:30.441462  5085 net.cpp:411] fc7_drop7_0_split -> fc7_drop7_0_split_1
I0302 03:10:30.441504  5085 net.cpp:150] Setting up fc7_drop7_0_split
I0302 03:10:30.441510  5085 net.cpp:157] Top shape: 1 4096 (4096)
I0302 03:10:30.441514  5085 net.cpp:157] Top shape: 1 4096 (4096)
I0302 03:10:30.441515  5085 net.cpp:165] Memory required for data: 504340952
I0302 03:10:30.441517  5085 layer_factory.hpp:77] Creating layer cls_score
I0302 03:10:30.441524  5085 net.cpp:106] Creating Layer cls_score
I0302 03:10:30.441527  5085 net.cpp:454] cls_score <- fc7_drop7_0_split_0
I0302 03:10:30.441532  5085 net.cpp:411] cls_score -> cls_score
I0302 03:10:30.442057  5085 net.cpp:150] Setting up cls_score
I0302 03:10:30.442080  5085 net.cpp:157] Top shape: 1 4 (4)
I0302 03:10:30.442083  5085 net.cpp:165] Memory required for data: 504340968
I0302 03:10:30.442088  5085 layer_factory.hpp:77] Creating layer bbox_pred
I0302 03:10:30.442095  5085 net.cpp:106] Creating Layer bbox_pred
I0302 03:10:30.442097  5085 net.cpp:454] bbox_pred <- fc7_drop7_0_split_1
I0302 03:10:30.442119  5085 net.cpp:411] bbox_pred -> bbox_pred
I0302 03:10:30.444413  5085 net.cpp:150] Setting up bbox_pred
I0302 03:10:30.444438  5085 net.cpp:157] Top shape: 1 16 (16)
I0302 03:10:30.444442  5085 net.cpp:165] Memory required for data: 504341032
I0302 03:10:30.444452  5085 layer_factory.hpp:77] Creating layer loss_cls
I0302 03:10:30.444458  5085 net.cpp:106] Creating Layer loss_cls
I0302 03:10:30.444479  5085 net.cpp:454] loss_cls <- cls_score
I0302 03:10:30.444483  5085 net.cpp:454] loss_cls <- labels
I0302 03:10:30.444489  5085 net.cpp:411] loss_cls -> cls_loss
…
I0302 03:10:30.445044  5085 net.cpp:150] Setting up loss_bbox
I0302 03:10:30.445050  5085 net.cpp:157] Top shape: (1)
I0302 03:10:30.445052  5085 net.cpp:160]     with loss weight 1
I0302 03:10:30.445055  5085 net.cpp:165] Memory required for data: 504341040
I0302 03:10:30.445058  5085 layer_factory.hpp:77] Creating layer rpn_conv1
I0302 03:10:30.445085  5085 net.cpp:106] Creating Layer rpn_conv1
I0302 03:10:30.445087  5085 net.cpp:454] rpn_conv1 <- conv5_relu5_0_split_1
I0302 03:10:30.445092  5085 net.cpp:411] rpn_conv1 -> rpn_conv1
I0302 03:10:30.460902  5085 net.cpp:150] Setting up rpn_conv1
I0302 03:10:30.460932  5085 net.cpp:157] Top shape: 2 256 39 64 (1277952)
I0302 03:10:30.460935  5085 net.cpp:165] Memory required for data: 509452848
I0302 03:10:30.460942  5085 layer_factory.hpp:77] Creating layer rpn_relu1
I0302 03:10:30.460947  5085 net.cpp:106] Creating Layer rpn_relu1
I0302 03:10:30.460952  5085 net.cpp:454] rpn_relu1 <- rpn_conv1
I0302 03:10:30.460957  5085 net.cpp:397] rpn_relu1 -> rpn_conv1 (in-place)
I0302 03:10:30.461102  5085 net.cpp:150] Setting up rpn_relu1
I0302 03:10:30.461112  5085 net.cpp:157] Top shape: 2 256 39 64 (1277952)
I0302 03:10:30.461127  5085 net.cpp:165] Memory required for data: 514564656
I0302 03:10:30.461130  5085 layer_factory.hpp:77] Creating layer rpn_conv1_rpn_relu1_0_split
I0302 03:10:30.461136  5085 net.cpp:106] Creating Layer rpn_conv1_rpn_relu1_0_split
I0302 03:10:30.461139  5085 net.cpp:454] rpn_conv1_rpn_relu1_0_split <- rpn_conv1
I0302 03:10:30.461143  5085 net.cpp:411] rpn_conv1_rpn_relu1_0_split -> rpn_conv1_rpn_relu1_0_split_0
I0302 03:10:30.461148  5085 net.cpp:411] rpn_conv1_rpn_relu1_0_split -> rpn_conv1_rpn_relu1_0_split_1
I0302 03:10:30.461190  5085 net.cpp:150] Setting up rpn_conv1_rpn_relu1_0_split
I0302 03:10:30.461196  5085 net.cpp:157] Top shape: 2 256 39 64 (1277952)
I0302 03:10:30.461199  5085 net.cpp:157] Top shape: 2 256 39 64 (1277952)
I0302 03:10:30.461202  5085 net.cpp:165] Memory required for data: 524788272
I0302 03:10:30.461205  5085 layer_factory.hpp:77] Creating layer rpn_cls_score
I0302 03:10:30.461230  5085 net.cpp:106] Creating Layer rpn_cls_score
I0302 03:10:30.461233  5085 net.cpp:454] rpn_cls_score <- rpn_conv1_rpn_relu1_0_split_0
I0302 03:10:30.461238  5085 net.cpp:411] rpn_cls_score -> rpn_cls_score
I0302 03:10:30.462203  5085 net.cpp:150] Setting up rpn_cls_score
I0302 03:10:30.462224  5085 net.cpp:157] Top shape: 2 18 39 64 (89856)
I0302 03:10:30.462227  5085 net.cpp:165] Memory required for data: 525147696
I0302 03:10:30.462232  5085 layer_factory.hpp:77] Creating layer rpn_bbox_pred
I0302 03:10:30.462245  5085 net.cpp:106] Creating Layer rpn_bbox_pred
I0302 03:10:30.462250  5085 net.cpp:454] rpn_bbox_pred <- rpn_conv1_rpn_relu1_0_split_1
I0302 03:10:30.462256  5085 net.cpp:411] rpn_bbox_pred -> rpn_bbox_pred
I0302 03:10:30.463351  5085 net.cpp:150] Setting up rpn_bbox_pred
I0302 03:10:30.463372  5085 net.cpp:157] Top shape: 2 36 39 64 (179712)
I0302 03:10:30.463376  5085 net.cpp:165] Memory required for data: 525866544
I0302 03:10:30.463382  5085 layer_factory.hpp:77] Creating layer silence_rpn_cls_score
I0302 03:10:30.463387  5085 net.cpp:106] Creating Layer silence_rpn_cls_score
I0302 03:10:30.463390  5085 net.cpp:454] silence_rpn_cls_score <- rpn_cls_score
I0302 03:10:30.463394  5085 net.cpp:150] Setting up silence_rpn_cls_score
…
