…
average_loss: 100
I0302 15:50:16.319006 11421 solver.cpp:81] Creating training net from train_net file: models/pascal_voc/ZF/faster_rcnn_alt_opt/stage2_fast_rcnn_train.pt
I0302 15:50:16.330684 11421 net.cpp:49] Initializing net from parameters: 
name: "ZF"
state {
  phase: TRAIN
}
layer {
  name: "data"
  type: "Python"
  top: "data"
  top: "rois"
  top: "labels"
  top: "bbox_targets"
  top: "bbox_inside_weights"
  top: "bbox_outside_weights"
  python_param {
    module: "roi_data_layer.layer"
    layer: "RoIDataLayer"
    param_str: "\'num_classes\': 4"
  }
}
layer {
  name: "conv1"
  type: "Convolution"
  bottom: "data"
  top: "conv1"
  param {
    lr_mult: 0
    decay_mult: 0
  }
  param {
    lr_mult: 0
    decay_mult: 0
  }
  convolution_param {
    num_output: 96
    pad: 3
    kernel_size: 7
    stride: 2
  }
}
layer {
  name: "relu1"
  type: "ReLU"
  bottom: "conv1"
  top: "conv1"
}
layer {
  name: "norm1"
  type: "LRN"
  bottom: "conv1"
  top: "norm1"
  lrn_param {
    local_size: 3
    alpha: 5e-05
    beta: 0.75
    norm_region: WITHIN_CHANNEL
    engine: CAFFE
  }
}
layer {
  name: "pool1"
  type: "Pooling"
  bottom: "norm1"
  top: "pool1"
  pooling_param {
    pool: MAX
    kernel_size: 3
    stride: 2
    pad: 1
  }
}
layer {
  name: "conv2"
  type: "Convolution"
  bottom: "pool1"
  top: "conv2"
  param {
    lr_mult: 0
    decay_mult: 0
  }
  param {
    lr_mult: 0
    decay_mult: 0
  }
  convolution_param {
    num_output: 256
    pad: 2
    kernel_size: 5
    stride: 2
  }
}
layer {
  name: "relu2"
  type: "ReLU"
  bottom: "conv2"
  top: "conv2"
}
layer {
  name: "norm2"
  type: "LRN"
  bottom: "conv2"
  top: "norm2"
  lrn_param {
    local_size: 3
    alpha: 5e-05
    beta: 0.75
    norm_region: WITHIN_CHANNEL
    engine: CAFFE
  }
}
layer {
  name: "pool2"
  type: "Pooling"
  bottom: "norm2"
  top: "pool2"
  pooling_param {
    pool: MAX
    kernel_size: 3
    stride: 2
    pad: 1
  }
}
layer {
  name: "conv3"
  type: "Convolution"
  bottom: "pool2"
  top: "conv3"
  param {
    lr_mult: 0
    decay_mult: 0
  }
  param {
    lr_mult: 0
    decay_mult: 0
  }
  convolution_param {
    num_output: 384
    pad: 1
    kernel_size: 3
    stride: 1
  }
}
layer {
  name: "relu3"
  type: "ReLU"
  bottom: "conv3"
  top: "conv3"
}
layer {
  name: "conv4"
  type: "Convolution"
  bottom: "conv3"
  top: "conv4"
  param {
    lr_mult: 0
    decay_mult: 0
  }
  param {
    lr_mult: 0
    decay_mult: 0
  }
  convolution_param {
    num_output: 384
    pad: 1
    kernel_size: 3
    stride: 1
  }
}
layer {
  name: "relu4"
  type: "ReLU"
  bottom: "conv4"
  top: "conv4"
}
layer {
  name: "conv5"
  type: "Convolution"
  bottom: "conv4"
  top: "conv5"
  param {
    lr_mult: 0
    decay_mult: 0
  }
  param {
    lr_mult: 0
    decay_mult: 0
  }
  convolution_param {
    num_output: 256
    pad: 1
    kernel_size: 3
    stride: 1
  }
}
layer {
  name: "relu5"
  type: "ReLU"
  bottom: "conv5"
  top: "conv5"
}
layer {
  name: "roi_pool_conv5"
  type: "ROIPooling"
  bottom: "conv5"
  bottom: "rois"
  top: "roi_pool_conv5"
  roi_pooling_param {
    pooled_h: 6
    pooled_w: 6
    spatial_scale: 0.0625
  }
}
layer {
  name: "fc6"
  type: "InnerProduct"
  bottom: "roi_pool_conv5"
  top: "fc6"
  param {
    lr_mult: 1
  }
  param {
    lr_mult: 2
  }
  inner_product_param {
    num_output: 4096
  }
}
layer {
  name: "relu6"
  type: "ReLU"
  bottom: "fc6"
  top: "fc6"
}
layer {
  name: "drop6"
  type: "Dropout"
  bottom: "fc6"
  top: "fc6"
  dropout_param {
    dropout_ratio: 0.5
    scale_train: false
  }
}
layer {
  name: "fc7"
  type: "InnerProduct"
  bottom: "fc6"
  top: "fc7"
  param {
    lr_mult: 1
  }
  param {
    lr_mult: 2
  }
  inner_product_param {
    num_output: 4096
  }
}
layer {
  name: "relu7"
  type: "ReLU"
  bottom: "fc7"
  top: "fc7"
}
layer {
  name: "drop7"
  type: "Dropout"
  bottom: "fc7"
  top: "fc7"
  dropout_param {
    dropout_ratio: 0.5
    scale_train: false
  }
}
layer {
  name: "cls_score"
  type: "InnerProduct"
  bottom: "fc7"
  top: "cls_score"
  param {
    lr_mult: 1
  }
  param {
    lr_mult: 2
  }
  inner_product_param {
    num_output: 4
    weight_filler {
      type: "gaussian"
      std: 0.01
    }
    bias_filler {
      type: "constant"
      value: 0
    }
  }
}
layer {
  name: "bbox_pred"
  type: "InnerProduct"
  bottom: "fc7"
  top: "bbox_pred"
  param {
    lr_mult: 1
  }
  param {
    lr_mult: 2
  }
  inner_product_param {
    num_output: 16
    weight_filler {
      type: "gaussian"
      std: 0.001
    }
    bias_filler {
      type: "constant"
      value: 0
    }
  }
}
layer {
  name: "loss_cls"
  type: "SoftmaxWithLoss"
  bottom: "cls_score"
  bottom: "labels"
  top: "cls_loss"
  loss_weight: 1
  propagate_down: true
  propagate_down: false
  loss_param {
    ignore_label: -1
    normalize: true
  }
}
layer {
  name: "loss_bbox"
  type: "SmoothL1Loss"
  bottom: "bbox_pred"
  bottom: "bbox_targets"
  bottom: "bbox_inside_weights"
  bottom: "bbox_outside_weights"
  top: "bbox_loss"
  loss_weight: 1
}
layer {
  name: "rpn_conv1"
  type: "Convolution"
  bottom: "conv5"
  top: "rpn_conv1"
  param {
    lr_mult: 0
    decay_mult: 0
  }
  param {
    lr_mult: 0
    decay_mult: 0
  }
  convolution_param {
    num_output: 256
    pad: 1
    kernel_size: 3
    stride: 1
    weight_filler {
      type: "gaussian"
      std: 0.01
    }
    bias_filler {
      type: "constant"
      value: 0
    }
  }
}
layer {
  name: "rpn_relu1"
  type: "ReLU"
  bottom: "rpn_conv1"
  top: "rpn_conv1"
}
layer {
  name: "rpn_cls_score"
  type: "Convolution"
  bottom: "rpn_conv1"
  top: "rpn_cls_score"
  param {
    lr_mult: 0
    decay_mult: 0
  }
  param {
    lr_mult: 0
    decay_mult: 0
  }
  convolution_param {
    num_output: 18
    pad: 0
    kernel_size: 1
    stride: 1
    weight_filler {
      type: "gaussian"
      std: 0.01
    }
    bias_filler {
      type: "constant"
      value: 0
    }
  }
}
layer {
  name: "rpn_bbox_pred"
  type: "Convolution"
  bottom: "rpn_conv1"
  top: "rpn_bbox_pred"
  param {
    lr_mult: 0
    decay_mult: 0
  }
  param {
    lr_mult: 0
    decay_mult: 0
  }
  convolution_param {
    num_output: 36
    pad: 0
    kernel_size: 1
    stride: 1
    weight_filler {
      type: "gaussian"
      std: 0.01
    }
    bias_filler {
      type: "constant"
      value: 0
    }
  }
}
layer {
  name: "silence_rpn_cls_score"
  type: "Silence"
  bottom: "rpn_cls_score"
}
layer {
  name: "silence_rpn_bbox_pred"
  type: "Silence"
  bottom: "rpn_bbox_pred"
}
I0302 15:50:16.330899 11421 layer_factory.hpp:77] Creating layer data
I0302 15:50:16.351471 11421 net.cpp:106] Creating Layer data
I0302 15:50:16.351497 11421 net.cpp:411] data -> data
I0302 15:50:16.351510 11421 net.cpp:411] data -> rois
I0302 15:50:16.351517 11421 net.cpp:411] data -> labels
I0302 15:50:16.351524 11421 net.cpp:411] data -> bbox_targets
I0302 15:50:16.351529 11421 net.cpp:411] data -> bbox_inside_weights
I0302 15:50:16.351536 11421 net.cpp:411] data -> bbox_outside_weights
RoiDataLayer: name_to_top: {'bbox_inside_weights': 4, 'labels': 2, 'rois': 1, 'bbox_targets': 3, 'bbox_outside_weights': 5, 'data': 0}
I0302 15:50:16.362799 11421 net.cpp:150] Setting up data
I0302 15:50:16.362859 11421 net.cpp:157] Top shape: 2 3 600 1000 (3600000)
I0302 15:50:16.362869 11421 net.cpp:157] Top shape: 1 5 (5)
I0302 15:50:16.362882 11421 net.cpp:157] Top shape: 1 (1)
I0302 15:50:16.362885 11421 net.cpp:157] Top shape: 1 16 (16)
I0302 15:50:16.362889 11421 net.cpp:157] Top shape: 1 16 (16)
I0302 15:50:16.362891 11421 net.cpp:157] Top shape: 1 16 (16)
I0302 15:50:16.362895 11421 net.cpp:165] Memory required for data: 14400216
I0302 15:50:16.362900 11421 layer_factory.hpp:77] Creating layer conv1
I0302 15:50:16.362915 11421 net.cpp:106] Creating Layer conv1
I0302 15:50:16.362920 11421 net.cpp:454] conv1 <- data
I0302 15:50:16.362926 11421 net.cpp:411] conv1 -> conv1
I0302 15:50:16.532604 11421 net.cpp:150] Setting up conv1
I0302 15:50:16.532634 11421 net.cpp:157] Top shape: 2 96 300 500 (28800000)
I0302 15:50:16.532637 11421 net.cpp:165] Memory required for data: 129600216
I0302 15:50:16.532652 11421 layer_factory.hpp:77] Creating layer relu1
I0302 15:50:16.532665 11421 net.cpp:106] Creating Layer relu1
I0302 15:50:16.532670 11421 net.cpp:454] relu1 <- conv1
I0302 15:50:16.532675 11421 net.cpp:397] relu1 -> conv1 (in-place)
I0302 15:50:16.532994 11421 net.cpp:150] Setting up relu1
I0302 15:50:16.533006 11421 net.cpp:157] Top shape: 2 96 300 500 (28800000)
I0302 15:50:16.533010 11421 net.cpp:165] Memory required for data: 244800216
I0302 15:50:16.533013 11421 layer_factory.hpp:77] Creating layer norm1
I0302 15:50:16.533021 11421 net.cpp:106] Creating Layer norm1
I0302 15:50:16.533025 11421 net.cpp:454] norm1 <- conv1
I0302 15:50:16.533031 11421 net.cpp:411] norm1 -> norm1
I0302 15:50:16.533131 11421 net.cpp:150] Setting up norm1
I0302 15:50:16.533139 11421 net.cpp:157] Top shape: 2 96 300 500 (28800000)
I0302 15:50:16.533143 11421 net.cpp:165] Memory required for data: 360000216
I0302 15:50:16.533144 11421 layer_factory.hpp:77] Creating layer pool1
I0302 15:50:16.533151 11421 net.cpp:106] Creating Layer pool1
I0302 15:50:16.533154 11421 net.cpp:454] pool1 <- norm1
I0302 15:50:16.533159 11421 net.cpp:411] pool1 -> pool1
I0302 15:50:16.533186 11421 net.cpp:150] Setting up pool1
I0302 15:50:16.533193 11421 net.cpp:157] Top shape: 2 96 151 251 (7276992)
I0302 15:50:16.533195 11421 net.cpp:165] Memory required for data: 389108184
I0302 15:50:16.533198 11421 layer_factory.hpp:77] Creating layer conv2
I0302 15:50:16.533207 11421 net.cpp:106] Creating Layer conv2
I0302 15:50:16.533210 11421 net.cpp:454] conv2 <- pool1
I0302 15:50:16.533215 11421 net.cpp:411] conv2 -> conv2
I0302 15:50:16.535393 11421 net.cpp:150] Setting up conv2
I0302 15:50:16.535418 11421 net.cpp:157] Top shape: 2 256 76 126 (4902912)
I0302 15:50:16.535421 11421 net.cpp:165] Memory required for data: 408719832
I0302 15:50:16.535429 11421 layer_factory.hpp:77] Creating layer relu2
I0302 15:50:16.535446 11421 net.cpp:106] Creating Layer relu2
I0302 15:50:16.535450 11421 net.cpp:454] relu2 <- conv2
I0302 15:50:16.535454 11421 net.cpp:397] relu2 -> conv2 (in-place)
I0302 15:50:16.535598 11421 net.cpp:150] Setting up relu2
I0302 15:50:16.535605 11421 net.cpp:157] Top shape: 2 256 76 126 (4902912)
I0302 15:50:16.535619 11421 net.cpp:165] Memory required for data: 428331480
I0302 15:50:16.535621 11421 layer_factory.hpp:77] Creating layer norm2
I0302 15:50:16.535627 11421 net.cpp:106] Creating Layer norm2
I0302 15:50:16.535630 11421 net.cpp:454] norm2 <- conv2
I0302 15:50:16.535645 11421 net.cpp:411] norm2 -> norm2
I0302 15:50:16.535734 11421 net.cpp:150] Setting up norm2
I0302 15:50:16.535740 11421 net.cpp:157] Top shape: 2 256 76 126 (4902912)
I0302 15:50:16.535753 11421 net.cpp:165] Memory required for data: 447943128
I0302 15:50:16.535755 11421 layer_factory.hpp:77] Creating layer pool2
I0302 15:50:16.535763 11421 net.cpp:106] Creating Layer pool2
I0302 15:50:16.535765 11421 net.cpp:454] pool2 <- norm2
I0302 15:50:16.535779 11421 net.cpp:411] pool2 -> pool2
I0302 15:50:16.535804 11421 net.cpp:150] Setting up pool2
I0302 15:50:16.535809 11421 net.cpp:157] Top shape: 2 256 39 64 (1277952)
I0302 15:50:16.535811 11421 net.cpp:165] Memory required for data: 453054936
I0302 15:50:16.535815 11421 layer_factory.hpp:77] Creating layer conv3
I0302 15:50:16.535821 11421 net.cpp:106] Creating Layer conv3
I0302 15:50:16.535825 11421 net.cpp:454] conv3 <- pool2
I0302 15:50:16.535828 11421 net.cpp:411] conv3 -> conv3
I0302 15:50:16.538718 11421 net.cpp:150] Setting up conv3
I0302 15:50:16.538758 11421 net.cpp:157] Top shape: 2 384 39 64 (1916928)
I0302 15:50:16.538761 11421 net.cpp:165] Memory required for data: 460722648
I0302 15:50:16.538772 11421 layer_factory.hpp:77] Creating layer relu3
I0302 15:50:16.538781 11421 net.cpp:106] Creating Layer relu3
I0302 15:50:16.538795 11421 net.cpp:454] relu3 <- conv3
I0302 15:50:16.538801 11421 net.cpp:397] relu3 -> conv3 (in-place)
I0302 15:50:16.539109 11421 net.cpp:150] Setting up relu3
I0302 15:50:16.539130 11421 net.cpp:157] Top shape: 2 384 39 64 (1916928)
I0302 15:50:16.539134 11421 net.cpp:165] Memory required for data: 468390360
I0302 15:50:16.539136 11421 layer_factory.hpp:77] Creating layer conv4
I0302 15:50:16.539145 11421 net.cpp:106] Creating Layer conv4
I0302 15:50:16.539149 11421 net.cpp:454] conv4 <- conv3
I0302 15:50:16.539153 11421 net.cpp:411] conv4 -> conv4
I0302 15:50:16.542009 11421 net.cpp:150] Setting up conv4
I0302 15:50:16.542045 11421 net.cpp:157] Top shape: 2 384 39 64 (1916928)
I0302 15:50:16.542048 11421 net.cpp:165] Memory required for data: 476058072
I0302 15:50:16.542057 11421 layer_factory.hpp:77] Creating layer relu4
I0302 15:50:16.542065 11421 net.cpp:106] Creating Layer relu4
I0302 15:50:16.542069 11421 net.cpp:454] relu4 <- conv4
I0302 15:50:16.542075 11421 net.cpp:397] relu4 -> conv4 (in-place)
I0302 15:50:16.542388 11421 net.cpp:150] Setting up relu4
I0302 15:50:16.542409 11421 net.cpp:157] Top shape: 2 384 39 64 (1916928)
I0302 15:50:16.542412 11421 net.cpp:165] Memory required for data: 483725784
I0302 15:50:16.542415 11421 layer_factory.hpp:77] Creating layer conv5
I0302 15:50:16.542424 11421 net.cpp:106] Creating Layer conv5
I0302 15:50:16.542428 11421 net.cpp:454] conv5 <- conv4
I0302 15:50:16.542433 11421 net.cpp:411] conv5 -> conv5
I0302 15:50:16.544925 11421 net.cpp:150] Setting up conv5
I0302 15:50:16.544960 11421 net.cpp:157] Top shape: 2 256 39 64 (1277952)
I0302 15:50:16.544963 11421 net.cpp:165] Memory required for data: 488837592
I0302 15:50:16.544975 11421 layer_factory.hpp:77] Creating layer relu5
I0302 15:50:16.544994 11421 net.cpp:106] Creating Layer relu5
I0302 15:50:16.544999 11421 net.cpp:454] relu5 <- conv5
I0302 15:50:16.545006 11421 net.cpp:397] relu5 -> conv5 (in-place)
I0302 15:50:16.545141 11421 net.cpp:150] Setting up relu5
I0302 15:50:16.545151 11421 net.cpp:157] Top shape: 2 256 39 64 (1277952)
I0302 15:50:16.545155 11421 net.cpp:165] Memory required for data: 493949400
I0302 15:50:16.545157 11421 layer_factory.hpp:77] Creating layer conv5_relu5_0_split
I0302 15:50:16.545166 11421 net.cpp:106] Creating Layer conv5_relu5_0_split
I0302 15:50:16.545169 11421 net.cpp:454] conv5_relu5_0_split <- conv5
I0302 15:50:16.545176 11421 net.cpp:411] conv5_relu5_0_split -> conv5_relu5_0_split_0
I0302 15:50:16.545184 11421 net.cpp:411] conv5_relu5_0_split -> conv5_relu5_0_split_1
I0302 15:50:16.545233 11421 net.cpp:150] Setting up conv5_relu5_0_split
I0302 15:50:16.545240 11421 net.cpp:157] Top shape: 2 256 39 64 (1277952)
I0302 15:50:16.545244 11421 net.cpp:157] Top shape: 2 256 39 64 (1277952)
I0302 15:50:16.545246 11421 net.cpp:165] Memory required for data: 504173016
I0302 15:50:16.545249 11421 layer_factory.hpp:77] Creating layer roi_pool_conv5
I0302 15:50:16.545260 11421 net.cpp:106] Creating Layer roi_pool_conv5
I0302 15:50:16.545265 11421 net.cpp:454] roi_pool_conv5 <- conv5_relu5_0_split_0
I0302 15:50:16.545271 11421 net.cpp:454] roi_pool_conv5 <- rois
I0302 15:50:16.545277 11421 net.cpp:411] roi_pool_conv5 -> roi_pool_conv5
I0302 15:50:16.545286 11421 roi_pooling_layer.cpp:30] Spatial scale: 0.0625
I0302 15:50:16.545336 11421 net.cpp:150] Setting up roi_pool_conv5
I0302 15:50:16.545344 11421 net.cpp:157] Top shape: 1 256 6 6 (9216)
I0302 15:50:16.545346 11421 net.cpp:165] Memory required for data: 504209880
I0302 15:50:16.545349 11421 layer_factory.hpp:77] Creating layer fc6
I0302 15:50:16.545356 11421 net.cpp:106] Creating Layer fc6
I0302 15:50:16.545359 11421 net.cpp:454] fc6 <- roi_pool_conv5
I0302 15:50:16.545364 11421 net.cpp:411] fc6 -> fc6
I0302 15:50:16.608060 11421 net.cpp:150] Setting up fc6
I0302 15:50:16.608101 11421 net.cpp:157] Top shape: 1 4096 (4096)
I0302 15:50:16.608105 11421 net.cpp:165] Memory required for data: 504226264
I0302 15:50:16.608117 11421 layer_factory.hpp:77] Creating layer relu6
I0302 15:50:16.608129 11421 net.cpp:106] Creating Layer relu6
I0302 15:50:16.608136 11421 net.cpp:454] relu6 <- fc6
I0302 15:50:16.608144 11421 net.cpp:397] relu6 -> fc6 (in-place)
I0302 15:50:16.608606 11421 net.cpp:150] Setting up relu6
I0302 15:50:16.608631 11421 net.cpp:157] Top shape: 1 4096 (4096)
I0302 15:50:16.608635 11421 net.cpp:165] Memory required for data: 504242648
I0302 15:50:16.608640 11421 layer_factory.hpp:77] Creating layer drop6
I0302 15:50:16.608647 11421 net.cpp:106] Creating Layer drop6
I0302 15:50:16.608662 11421 net.cpp:454] drop6 <- fc6
I0302 15:50:16.608669 11421 net.cpp:397] drop6 -> fc6 (in-place)
I0302 15:50:16.608700 11421 net.cpp:150] Setting up drop6
I0302 15:50:16.608716 11421 net.cpp:157] Top shape: 1 4096 (4096)
I0302 15:50:16.608718 11421 net.cpp:165] Memory required for data: 504259032
I0302 15:50:16.608734 11421 layer_factory.hpp:77] Creating layer fc7
I0302 15:50:16.608741 11421 net.cpp:106] Creating Layer fc7
I0302 15:50:16.608753 11421 net.cpp:454] fc7 <- fc6
I0302 15:50:16.608757 11421 net.cpp:411] fc7 -> fc7
I0302 15:50:16.638041 11421 net.cpp:150] Setting up fc7
I0302 15:50:16.638088 11421 net.cpp:157] Top shape: 1 4096 (4096)
I0302 15:50:16.638092 11421 net.cpp:165] Memory required for data: 504275416
I0302 15:50:16.638103 11421 layer_factory.hpp:77] Creating layer relu7
I0302 15:50:16.638113 11421 net.cpp:106] Creating Layer relu7
I0302 15:50:16.638118 11421 net.cpp:454] relu7 <- fc7
I0302 15:50:16.638124 11421 net.cpp:397] relu7 -> fc7 (in-place)
I0302 15:50:16.638332 11421 net.cpp:150] Setting up relu7
I0302 15:50:16.638341 11421 net.cpp:157] Top shape: 1 4096 (4096)
I0302 15:50:16.638358 11421 net.cpp:165] Memory required for data: 504291800
I0302 15:50:16.638361 11421 layer_factory.hpp:77] Creating layer drop7
I0302 15:50:16.638367 11421 net.cpp:106] Creating Layer drop7
I0302 15:50:16.638370 11421 net.cpp:454] drop7 <- fc7
I0302 15:50:16.638375 11421 net.cpp:397] drop7 -> fc7 (in-place)
I0302 15:50:16.638396 11421 net.cpp:150] Setting up drop7
I0302 15:50:16.638401 11421 net.cpp:157] Top shape: 1 4096 (4096)
I0302 15:50:16.638403 11421 net.cpp:165] Memory required for data: 504308184
I0302 15:50:16.638406 11421 layer_factory.hpp:77] Creating layer fc7_drop7_0_split
I0302 15:50:16.638411 11421 net.cpp:106] Creating Layer fc7_drop7_0_split
I0302 15:50:16.638413 11421 net.cpp:454] fc7_drop7_0_split <- fc7
I0302 15:50:16.638417 11421 net.cpp:411] fc7_drop7_0_split -> fc7_drop7_0_split_0
I0302 15:50:16.638423 11421 net.cpp:411] fc7_drop7_0_split -> fc7_drop7_0_split_1
I0302 15:50:16.638451 11421 net.cpp:150] Setting up fc7_drop7_0_split
I0302 15:50:16.638458 11421 net.cpp:157] Top shape: 1 4096 (4096)
I0302 15:50:16.638473 11421 net.cpp:157] Top shape: 1 4096 (4096)
I0302 15:50:16.638475 11421 net.cpp:165] Memory required for data: 504340952
I0302 15:50:16.638478 11421 layer_factory.hpp:77] Creating layer cls_score
I0302 15:50:16.638484 11421 net.cpp:106] Creating Layer cls_score
I0302 15:50:16.638487 11421 net.cpp:454] cls_score <- fc7_drop7_0_split_0
I0302 15:50:16.638492 11421 net.cpp:411] cls_score -> cls_score
I0302 15:50:16.639098 11421 net.cpp:150] Setting up cls_score
I0302 15:50:16.639125 11421 net.cpp:157] Top shape: 1 4 (4)
I0302 15:50:16.639132 11421 net.cpp:165] Memory required for data: 504340968
I0302 15:50:16.639139 11421 layer_factory.hpp:77] Creating layer bbox_pred
I0302 15:50:16.639165 11421 net.cpp:106] Creating Layer bbox_pred
I0302 15:50:16.639170 11421 net.cpp:454] bbox_pred <- fc7_drop7_0_split_1
I0302 15:50:16.639178 11421 net.cpp:411] bbox_pred -> bbox_pred
I0302 15:50:16.641505 11421 net.cpp:150] Setting up bbox_pred
I0302 15:50:16.641518 11421 net.cpp:157] Top shape: 1 16 (16)
I0302 15:50:16.641535 11421 net.cpp:165] Memory required for data: 504341032
I0302 15:50:16.641546 11421 layer_factory.hpp:77] Creating layer loss_cls
I0302 15:50:16.641553 11421 net.cpp:106] Creating Layer loss_cls
I0302 15:50:16.641557 11421 net.cpp:454] loss_cls <- cls_score
I0302 15:50:16.641561 11421 net.cpp:454] loss_cls <- labels
I0302 15:50:16.641566 11421 net.cpp:411] loss_cls -> cls_loss
…
I0302 15:50:16.642113 11421 net.cpp:150] Setting up loss_bbox
I0302 15:50:16.642119 11421 net.cpp:157] Top shape: (1)
I0302 15:50:16.642132 11421 net.cpp:160]     with loss weight 1
I0302 15:50:16.642135 11421 net.cpp:165] Memory required for data: 504341040
I0302 15:50:16.642138 11421 layer_factory.hpp:77] Creating layer rpn_conv1
I0302 15:50:16.642158 11421 net.cpp:106] Creating Layer rpn_conv1
I0302 15:50:16.642161 11421 net.cpp:454] rpn_conv1 <- conv5_relu5_0_split_1
I0302 15:50:16.642168 11421 net.cpp:411] rpn_conv1 -> rpn_conv1
I0302 15:50:16.658170 11421 net.cpp:150] Setting up rpn_conv1
I0302 15:50:16.658198 11421 net.cpp:157] Top shape: 2 256 39 64 (1277952)
I0302 15:50:16.658201 11421 net.cpp:165] Memory required for data: 509452848
I0302 15:50:16.658207 11421 layer_factory.hpp:77] Creating layer rpn_relu1
I0302 15:50:16.658215 11421 net.cpp:106] Creating Layer rpn_relu1
I0302 15:50:16.658218 11421 net.cpp:454] rpn_relu1 <- rpn_conv1
I0302 15:50:16.658223 11421 net.cpp:397] rpn_relu1 -> rpn_conv1 (in-place)
I0302 15:50:16.658370 11421 net.cpp:150] Setting up rpn_relu1
I0302 15:50:16.658380 11421 net.cpp:157] Top shape: 2 256 39 64 (1277952)
I0302 15:50:16.658382 11421 net.cpp:165] Memory required for data: 514564656
I0302 15:50:16.658385 11421 layer_factory.hpp:77] Creating layer rpn_conv1_rpn_relu1_0_split
I0302 15:50:16.658391 11421 net.cpp:106] Creating Layer rpn_conv1_rpn_relu1_0_split
I0302 15:50:16.658396 11421 net.cpp:454] rpn_conv1_rpn_relu1_0_split <- rpn_conv1
I0302 15:50:16.658401 11421 net.cpp:411] rpn_conv1_rpn_relu1_0_split -> rpn_conv1_rpn_relu1_0_split_0
I0302 15:50:16.658406 11421 net.cpp:411] rpn_conv1_rpn_relu1_0_split -> rpn_conv1_rpn_relu1_0_split_1
I0302 15:50:16.658447 11421 net.cpp:150] Setting up rpn_conv1_rpn_relu1_0_split
I0302 15:50:16.658463 11421 net.cpp:157] Top shape: 2 256 39 64 (1277952)
I0302 15:50:16.658465 11421 net.cpp:157] Top shape: 2 256 39 64 (1277952)
I0302 15:50:16.658468 11421 net.cpp:165] Memory required for data: 524788272
I0302 15:50:16.658470 11421 layer_factory.hpp:77] Creating layer rpn_cls_score
I0302 15:50:16.658480 11421 net.cpp:106] Creating Layer rpn_cls_score
I0302 15:50:16.658483 11421 net.cpp:454] rpn_cls_score <- rpn_conv1_rpn_relu1_0_split_0
I0302 15:50:16.658488 11421 net.cpp:411] rpn_cls_score -> rpn_cls_score
I0302 15:50:16.659498 11421 net.cpp:150] Setting up rpn_cls_score
I0302 15:50:16.659520 11421 net.cpp:157] Top shape: 2 18 39 64 (89856)
I0302 15:50:16.659523 11421 net.cpp:165] Memory required for data: 525147696
I0302 15:50:16.659528 11421 layer_factory.hpp:77] Creating layer rpn_bbox_pred
I0302 15:50:16.659543 11421 net.cpp:106] Creating Layer rpn_bbox_pred
I0302 15:50:16.659546 11421 net.cpp:454] rpn_bbox_pred <- rpn_conv1_rpn_relu1_0_split_1
I0302 15:50:16.659553 11421 net.cpp:411] rpn_bbox_pred -> rpn_bbox_pred
I0302 15:50:16.660636 11421 net.cpp:150] Setting up rpn_bbox_pred
I0302 15:50:16.660658 11421 net.cpp:157] Top shape: 2 36 39 64 (179712)
I0302 15:50:16.660661 11421 net.cpp:165] Memory required for data: 525866544
I0302 15:50:16.660666 11421 layer_factory.hpp:77] Creating layer silence_rpn_cls_score
I0302 15:50:16.660671 11421 net.cpp:106] Creating Layer silence_rpn_cls_score
I0302 15:50:16.660675 11421 net.cpp:454] silence_rpn_cls_score <- rpn_cls_score
I0302 15:50:16.660679 11421 net.cpp:150] Setting up silence_rpn_cls_score
…
