…
average_loss: 100
I0427 21:27:47.626711  3416 solver.cpp:81] Creating training net from train_net file: models/pascal_voc/ZF/faster_rcnn_alt_opt/stage1_fast_rcnn_train.pt
I0427 21:27:47.627730  3416 net.cpp:49] Initializing net from parameters: 
name: "ZF"
state {
  phase: TRAIN
}
layer {
  name: "data"
  type: "Python"
  top: "data"
  top: "rois"
  top: "labels"
  top: "bbox_targets"
  top: "bbox_inside_weights"
  top: "bbox_outside_weights"
  python_param {
    module: "roi_data_layer.layer"
    layer: "RoIDataLayer"
    param_str: "\'num_classes\': 4"
  }
}
layer {
  name: "conv1"
  type: "Convolution"
  bottom: "data"
  top: "conv1"
  param {
    lr_mult: 1
  }
  param {
    lr_mult: 2
  }
  convolution_param {
    num_output: 96
    pad: 3
    kernel_size: 7
    stride: 2
  }
}
layer {
  name: "relu1"
  type: "ReLU"
  bottom: "conv1"
  top: "conv1"
}
layer {
  name: "norm1"
  type: "LRN"
  bottom: "conv1"
  top: "norm1"
  lrn_param {
    local_size: 3
    alpha: 5e-05
    beta: 0.75
    norm_region: WITHIN_CHANNEL
    engine: CAFFE
  }
}
layer {
  name: "pool1"
  type: "Pooling"
  bottom: "norm1"
  top: "pool1"
  pooling_param {
    pool: MAX
    kernel_size: 3
    stride: 2
    pad: 1
  }
}
layer {
  name: "conv2"
  type: "Convolution"
  bottom: "pool1"
  top: "conv2"
  param {
    lr_mult: 1
  }
  param {
    lr_mult: 2
  }
  convolution_param {
    num_output: 256
    pad: 2
    kernel_size: 5
    stride: 2
  }
}
layer {
  name: "relu2"
  type: "ReLU"
  bottom: "conv2"
  top: "conv2"
}
layer {
  name: "norm2"
  type: "LRN"
  bottom: "conv2"
  top: "norm2"
  lrn_param {
    local_size: 3
    alpha: 5e-05
    beta: 0.75
    norm_region: WITHIN_CHANNEL
    engine: CAFFE
  }
}
layer {
  name: "pool2"
  type: "Pooling"
  bottom: "norm2"
  top: "pool2"
  pooling_param {
    pool: MAX
    kernel_size: 3
    stride: 2
    pad: 1
  }
}
layer {
  name: "conv3"
  type: "Convolution"
  bottom: "pool2"
  top: "conv3"
  param {
    lr_mult: 1
  }
  param {
    lr_mult: 2
  }
  convolution_param {
    num_output: 384
    pad: 1
    kernel_size: 3
    stride: 1
  }
}
layer {
  name: "relu3"
  type: "ReLU"
  bottom: "conv3"
  top: "conv3"
}
layer {
  name: "conv4"
  type: "Convolution"
  bottom: "conv3"
  top: "conv4"
  param {
    lr_mult: 1
  }
  param {
    lr_mult: 2
  }
  convolution_param {
    num_output: 384
    pad: 1
    kernel_size: 3
    stride: 1
  }
}
layer {
  name: "relu4"
  type: "ReLU"
  bottom: "conv4"
  top: "conv4"
}
layer {
  name: "conv5"
  type: "Convolution"
  bottom: "conv4"
  top: "conv5"
  param {
    lr_mult: 1
  }
  param {
    lr_mult: 2
  }
  convolution_param {
    num_output: 256
    pad: 1
    kernel_size: 3
    stride: 1
  }
}
layer {
  name: "relu5"
  type: "ReLU"
  bottom: "conv5"
  top: "conv5"
}
layer {
  name: "roi_pool_conv5"
  type: "ROIPooling"
  bottom: "conv5"
  bottom: "rois"
  top: "roi_pool_conv5"
  roi_pooling_param {
    pooled_h: 6
    pooled_w: 6
    spatial_scale: 0.0625
  }
}
layer {
  name: "fc6"
  type: "InnerProduct"
  bottom: "roi_pool_conv5"
  top: "fc6"
  param {
    lr_mult: 1
  }
  param {
    lr_mult: 2
  }
  inner_product_param {
    num_output: 4096
  }
}
layer {
  name: "relu6"
  type: "ReLU"
  bottom: "fc6"
  top: "fc6"
}
layer {
  name: "drop6"
  type: "Dropout"
  bottom: "fc6"
  top: "fc6"
  dropout_param {
    dropout_ratio: 0.5
    scale_train: false
  }
}
layer {
  name: "fc7"
  type: "InnerProduct"
  bottom: "fc6"
  top: "fc7"
  param {
    lr_mult: 1
  }
  param {
    lr_mult: 2
  }
  inner_product_param {
    num_output: 4096
  }
}
layer {
  name: "relu7"
  type: "ReLU"
  bottom: "fc7"
  top: "fc7"
}
layer {
  name: "drop7"
  type: "Dropout"
  bottom: "fc7"
  top: "fc7"
  dropout_param {
    dropout_ratio: 0.5
    scale_train: false
  }
}
layer {
  name: "cls_score"
  type: "InnerProduct"
  bottom: "fc7"
  top: "cls_score"
  param {
    lr_mult: 1
  }
  param {
    lr_mult: 2
  }
  inner_product_param {
    num_output: 4
    weight_filler {
      type: "gaussian"
      std: 0.01
    }
    bias_filler {
      type: "constant"
      value: 0
    }
  }
}
layer {
  name: "bbox_pred"
  type: "InnerProduct"
  bottom: "fc7"
  top: "bbox_pred"
  param {
    lr_mult: 1
  }
  param {
    lr_mult: 2
  }
  inner_product_param {
    num_output: 16
    weight_filler {
      type: "gaussian"
      std: 0.001
    }
    bias_filler {
      type: "constant"
      value: 0
    }
  }
}
layer {
  name: "loss_cls"
  type: "SoftmaxWithLoss"
  bottom: "cls_score"
  bottom: "labels"
  top: "cls_loss"
  loss_weight: 1
  propagate_down: true
  propagate_down: false
  loss_param {
    ignore_label: -1
    normalize: true
  }
}
layer {
  name: "loss_bbox"
  type: "SmoothL1Loss"
  bottom: "bbox_pred"
  bottom: "bbox_targets"
  bottom: "bbox_inside_weights"
  bottom: "bbox_outside_weights"
  top: "bbox_loss"
  loss_weight: 1
}
layer {
  name: "rpn_conv1"
  type: "Convolution"
  bottom: "conv5"
  top: "rpn_conv1"
  param {
    lr_mult: 0
    decay_mult: 0
  }
  param {
    lr_mult: 0
    decay_mult: 0
  }
  convolution_param {
    num_output: 256
    pad: 1
    kernel_size: 3
    stride: 1
    weight_filler {
      type: "gaussian"
      std: 0.01
    }
    bias_filler {
      type: "constant"
      value: 0
    }
  }
}
layer {
  name: "rpn_relu1"
  type: "ReLU"
  bottom: "rpn_conv1"
  top: "rpn_conv1"
}
layer {
  name: "rpn_cls_score"
  type: "Convolution"
  bottom: "rpn_conv1"
  top: "rpn_cls_score"
  param {
    lr_mult: 0
    decay_mult: 0
  }
  param {
    lr_mult: 0
    decay_mult: 0
  }
  convolution_param {
    num_output: 18
    pad: 0
    kernel_size: 1
    stride: 1
    weight_filler {
      type: "gaussian"
      std: 0.01
    }
    bias_filler {
      type: "constant"
      value: 0
    }
  }
}
layer {
  name: "rpn_bbox_pred"
  type: "Convolution"
  bottom: "rpn_conv1"
  top: "rpn_bbox_pred"
  param {
    lr_mult: 0
    decay_mult: 0
  }
  param {
    lr_mult: 0
    decay_mult: 0
  }
  convolution_param {
    num_output: 36
    pad: 0
    kernel_size: 1
    stride: 1
    weight_filler {
      type: "gaussian"
      std: 0.01
    }
    bias_filler {
      type: "constant"
      value: 0
    }
  }
}
layer {
  name: "silence_rpn_cls_score"
  type: "Silence"
  bottom: "rpn_cls_score"
}
layer {
  name: "silence_rpn_bbox_pred"
  type: "Silence"
  bottom: "rpn_bbox_pred"
}
I0427 21:27:47.627872  3416 layer_factory.hpp:77] Creating layer data
I0427 21:27:47.629189  3416 net.cpp:106] Creating Layer data
I0427 21:27:47.629199  3416 net.cpp:411] data -> data
I0427 21:27:47.629204  3416 net.cpp:411] data -> rois
I0427 21:27:47.629209  3416 net.cpp:411] data -> labels
I0427 21:27:47.629214  3416 net.cpp:411] data -> bbox_targets
I0427 21:27:47.629217  3416 net.cpp:411] data -> bbox_inside_weights
I0427 21:27:47.629221  3416 net.cpp:411] data -> bbox_outside_weights
RoiDataLayer: name_to_top: {'bbox_inside_weights': 4, 'labels': 2, 'rois': 1, 'bbox_targets': 3, 'bbox_outside_weights': 5, 'data': 0}
I0427 21:27:48.838546  3416 net.cpp:150] Setting up data
I0427 21:27:48.838564  3416 net.cpp:157] Top shape: 2 3 600 1000 (3600000)
I0427 21:27:48.838568  3416 net.cpp:157] Top shape: 1 5 (5)
I0427 21:27:48.838572  3416 net.cpp:157] Top shape: 1 (1)
I0427 21:27:48.838573  3416 net.cpp:157] Top shape: 1 16 (16)
I0427 21:27:48.838577  3416 net.cpp:157] Top shape: 1 16 (16)
I0427 21:27:48.838578  3416 net.cpp:157] Top shape: 1 16 (16)
I0427 21:27:48.838580  3416 net.cpp:165] Memory required for data: 14400216
I0427 21:27:48.838585  3416 layer_factory.hpp:77] Creating layer conv1
I0427 21:27:48.838603  3416 net.cpp:106] Creating Layer conv1
I0427 21:27:48.838608  3416 net.cpp:454] conv1 <- data
I0427 21:27:48.838613  3416 net.cpp:411] conv1 -> conv1
I0427 21:27:48.998981  3416 net.cpp:150] Setting up conv1
I0427 21:27:48.999004  3416 net.cpp:157] Top shape: 2 96 300 500 (28800000)
I0427 21:27:48.999006  3416 net.cpp:165] Memory required for data: 129600216
I0427 21:27:48.999017  3416 layer_factory.hpp:77] Creating layer relu1
I0427 21:27:48.999028  3416 net.cpp:106] Creating Layer relu1
I0427 21:27:48.999032  3416 net.cpp:454] relu1 <- conv1
I0427 21:27:48.999037  3416 net.cpp:397] relu1 -> conv1 (in-place)
I0427 21:27:48.999176  3416 net.cpp:150] Setting up relu1
I0427 21:27:48.999181  3416 net.cpp:157] Top shape: 2 96 300 500 (28800000)
I0427 21:27:48.999183  3416 net.cpp:165] Memory required for data: 244800216
I0427 21:27:48.999186  3416 layer_factory.hpp:77] Creating layer norm1
I0427 21:27:48.999192  3416 net.cpp:106] Creating Layer norm1
I0427 21:27:48.999194  3416 net.cpp:454] norm1 <- conv1
I0427 21:27:48.999198  3416 net.cpp:411] norm1 -> norm1
I0427 21:27:48.999285  3416 net.cpp:150] Setting up norm1
I0427 21:27:48.999289  3416 net.cpp:157] Top shape: 2 96 300 500 (28800000)
I0427 21:27:48.999291  3416 net.cpp:165] Memory required for data: 360000216
I0427 21:27:48.999294  3416 layer_factory.hpp:77] Creating layer pool1
I0427 21:27:48.999300  3416 net.cpp:106] Creating Layer pool1
I0427 21:27:48.999301  3416 net.cpp:454] pool1 <- norm1
I0427 21:27:48.999305  3416 net.cpp:411] pool1 -> pool1
I0427 21:27:48.999327  3416 net.cpp:150] Setting up pool1
I0427 21:27:48.999331  3416 net.cpp:157] Top shape: 2 96 151 251 (7276992)
I0427 21:27:48.999332  3416 net.cpp:165] Memory required for data: 389108184
I0427 21:27:48.999335  3416 layer_factory.hpp:77] Creating layer conv2
I0427 21:27:48.999342  3416 net.cpp:106] Creating Layer conv2
I0427 21:27:48.999344  3416 net.cpp:454] conv2 <- pool1
I0427 21:27:48.999347  3416 net.cpp:411] conv2 -> conv2
I0427 21:27:49.001307  3416 net.cpp:150] Setting up conv2
I0427 21:27:49.001318  3416 net.cpp:157] Top shape: 2 256 76 126 (4902912)
I0427 21:27:49.001320  3416 net.cpp:165] Memory required for data: 408719832
I0427 21:27:49.001328  3416 layer_factory.hpp:77] Creating layer relu2
I0427 21:27:49.001333  3416 net.cpp:106] Creating Layer relu2
I0427 21:27:49.001337  3416 net.cpp:454] relu2 <- conv2
I0427 21:27:49.001340  3416 net.cpp:397] relu2 -> conv2 (in-place)
I0427 21:27:49.001685  3416 net.cpp:150] Setting up relu2
I0427 21:27:49.001693  3416 net.cpp:157] Top shape: 2 256 76 126 (4902912)
I0427 21:27:49.001699  3416 net.cpp:165] Memory required for data: 428331480
I0427 21:27:49.001703  3416 layer_factory.hpp:77] Creating layer norm2
I0427 21:27:49.001708  3416 net.cpp:106] Creating Layer norm2
I0427 21:27:49.001711  3416 net.cpp:454] norm2 <- conv2
I0427 21:27:49.001714  3416 net.cpp:411] norm2 -> norm2
I0427 21:27:49.001780  3416 net.cpp:150] Setting up norm2
I0427 21:27:49.001785  3416 net.cpp:157] Top shape: 2 256 76 126 (4902912)
I0427 21:27:49.001787  3416 net.cpp:165] Memory required for data: 447943128
I0427 21:27:49.001790  3416 layer_factory.hpp:77] Creating layer pool2
I0427 21:27:49.001794  3416 net.cpp:106] Creating Layer pool2
I0427 21:27:49.001796  3416 net.cpp:454] pool2 <- norm2
I0427 21:27:49.001799  3416 net.cpp:411] pool2 -> pool2
I0427 21:27:49.001821  3416 net.cpp:150] Setting up pool2
I0427 21:27:49.001823  3416 net.cpp:157] Top shape: 2 256 39 64 (1277952)
I0427 21:27:49.001826  3416 net.cpp:165] Memory required for data: 453054936
I0427 21:27:49.001827  3416 layer_factory.hpp:77] Creating layer conv3
I0427 21:27:49.001833  3416 net.cpp:106] Creating Layer conv3
I0427 21:27:49.001835  3416 net.cpp:454] conv3 <- pool2
I0427 21:27:49.001839  3416 net.cpp:411] conv3 -> conv3
I0427 21:27:49.005275  3416 net.cpp:150] Setting up conv3
I0427 21:27:49.005293  3416 net.cpp:157] Top shape: 2 384 39 64 (1916928)
I0427 21:27:49.005295  3416 net.cpp:165] Memory required for data: 460722648
I0427 21:27:49.005306  3416 layer_factory.hpp:77] Creating layer relu3
I0427 21:27:49.005314  3416 net.cpp:106] Creating Layer relu3
I0427 21:27:49.005317  3416 net.cpp:454] relu3 <- conv3
I0427 21:27:49.005322  3416 net.cpp:397] relu3 -> conv3 (in-place)
I0427 21:27:49.005462  3416 net.cpp:150] Setting up relu3
I0427 21:27:49.005467  3416 net.cpp:157] Top shape: 2 384 39 64 (1916928)
I0427 21:27:49.005470  3416 net.cpp:165] Memory required for data: 468390360
I0427 21:27:49.005471  3416 layer_factory.hpp:77] Creating layer conv4
I0427 21:27:49.005480  3416 net.cpp:106] Creating Layer conv4
I0427 21:27:49.005481  3416 net.cpp:454] conv4 <- conv3
I0427 21:27:49.005486  3416 net.cpp:411] conv4 -> conv4
I0427 21:27:49.008183  3416 net.cpp:150] Setting up conv4
I0427 21:27:49.008199  3416 net.cpp:157] Top shape: 2 384 39 64 (1916928)
I0427 21:27:49.008201  3416 net.cpp:165] Memory required for data: 476058072
I0427 21:27:49.008208  3416 layer_factory.hpp:77] Creating layer relu4
I0427 21:27:49.008215  3416 net.cpp:106] Creating Layer relu4
I0427 21:27:49.008219  3416 net.cpp:454] relu4 <- conv4
I0427 21:27:49.008222  3416 net.cpp:397] relu4 -> conv4 (in-place)
I0427 21:27:49.008363  3416 net.cpp:150] Setting up relu4
I0427 21:27:49.008366  3416 net.cpp:157] Top shape: 2 384 39 64 (1916928)
I0427 21:27:49.008368  3416 net.cpp:165] Memory required for data: 483725784
I0427 21:27:49.008371  3416 layer_factory.hpp:77] Creating layer conv5
I0427 21:27:49.008378  3416 net.cpp:106] Creating Layer conv5
I0427 21:27:49.008380  3416 net.cpp:454] conv5 <- conv4
I0427 21:27:49.008385  3416 net.cpp:411] conv5 -> conv5
I0427 21:27:49.010713  3416 net.cpp:150] Setting up conv5
I0427 21:27:49.010726  3416 net.cpp:157] Top shape: 2 256 39 64 (1277952)
I0427 21:27:49.010728  3416 net.cpp:165] Memory required for data: 488837592
I0427 21:27:49.010743  3416 layer_factory.hpp:77] Creating layer relu5
I0427 21:27:49.010751  3416 net.cpp:106] Creating Layer relu5
I0427 21:27:49.010753  3416 net.cpp:454] relu5 <- conv5
I0427 21:27:49.010757  3416 net.cpp:397] relu5 -> conv5 (in-place)
I0427 21:27:49.010884  3416 net.cpp:150] Setting up relu5
I0427 21:27:49.010888  3416 net.cpp:157] Top shape: 2 256 39 64 (1277952)
I0427 21:27:49.010890  3416 net.cpp:165] Memory required for data: 493949400
I0427 21:27:49.010892  3416 layer_factory.hpp:77] Creating layer conv5_relu5_0_split
I0427 21:27:49.010897  3416 net.cpp:106] Creating Layer conv5_relu5_0_split
I0427 21:27:49.010900  3416 net.cpp:454] conv5_relu5_0_split <- conv5
I0427 21:27:49.010903  3416 net.cpp:411] conv5_relu5_0_split -> conv5_relu5_0_split_0
I0427 21:27:49.010907  3416 net.cpp:411] conv5_relu5_0_split -> conv5_relu5_0_split_1
I0427 21:27:49.010937  3416 net.cpp:150] Setting up conv5_relu5_0_split
I0427 21:27:49.010941  3416 net.cpp:157] Top shape: 2 256 39 64 (1277952)
I0427 21:27:49.010943  3416 net.cpp:157] Top shape: 2 256 39 64 (1277952)
I0427 21:27:49.010946  3416 net.cpp:165] Memory required for data: 504173016
I0427 21:27:49.010947  3416 layer_factory.hpp:77] Creating layer roi_pool_conv5
I0427 21:27:49.010954  3416 net.cpp:106] Creating Layer roi_pool_conv5
I0427 21:27:49.010957  3416 net.cpp:454] roi_pool_conv5 <- conv5_relu5_0_split_0
I0427 21:27:49.010959  3416 net.cpp:454] roi_pool_conv5 <- rois
I0427 21:27:49.010962  3416 net.cpp:411] roi_pool_conv5 -> roi_pool_conv5
I0427 21:27:49.010972  3416 roi_pooling_layer.cpp:30] Spatial scale: 0.0625
I0427 21:27:49.011003  3416 net.cpp:150] Setting up roi_pool_conv5
I0427 21:27:49.011006  3416 net.cpp:157] Top shape: 1 256 6 6 (9216)
I0427 21:27:49.011008  3416 net.cpp:165] Memory required for data: 504209880
I0427 21:27:49.011010  3416 layer_factory.hpp:77] Creating layer fc6
I0427 21:27:49.011015  3416 net.cpp:106] Creating Layer fc6
I0427 21:27:49.011018  3416 net.cpp:454] fc6 <- roi_pool_conv5
I0427 21:27:49.011021  3416 net.cpp:411] fc6 -> fc6
I0427 21:27:49.060605  3416 net.cpp:150] Setting up fc6
I0427 21:27:49.060626  3416 net.cpp:157] Top shape: 1 4096 (4096)
I0427 21:27:49.060628  3416 net.cpp:165] Memory required for data: 504226264
I0427 21:27:49.060636  3416 layer_factory.hpp:77] Creating layer relu6
I0427 21:27:49.060642  3416 net.cpp:106] Creating Layer relu6
I0427 21:27:49.060647  3416 net.cpp:454] relu6 <- fc6
I0427 21:27:49.060652  3416 net.cpp:397] relu6 -> fc6 (in-place)
I0427 21:27:49.060845  3416 net.cpp:150] Setting up relu6
I0427 21:27:49.060850  3416 net.cpp:157] Top shape: 1 4096 (4096)
I0427 21:27:49.060858  3416 net.cpp:165] Memory required for data: 504242648
I0427 21:27:49.060859  3416 layer_factory.hpp:77] Creating layer drop6
I0427 21:27:49.060873  3416 net.cpp:106] Creating Layer drop6
I0427 21:27:49.060874  3416 net.cpp:454] drop6 <- fc6
I0427 21:27:49.060878  3416 net.cpp:397] drop6 -> fc6 (in-place)
I0427 21:27:49.060899  3416 net.cpp:150] Setting up drop6
I0427 21:27:49.060902  3416 net.cpp:157] Top shape: 1 4096 (4096)
I0427 21:27:49.060904  3416 net.cpp:165] Memory required for data: 504259032
I0427 21:27:49.060905  3416 layer_factory.hpp:77] Creating layer fc7
I0427 21:27:49.060911  3416 net.cpp:106] Creating Layer fc7
I0427 21:27:49.060914  3416 net.cpp:454] fc7 <- fc6
I0427 21:27:49.060916  3416 net.cpp:411] fc7 -> fc7
I0427 21:27:49.082911  3416 net.cpp:150] Setting up fc7
I0427 21:27:49.082937  3416 net.cpp:157] Top shape: 1 4096 (4096)
I0427 21:27:49.082939  3416 net.cpp:165] Memory required for data: 504275416
I0427 21:27:49.082947  3416 layer_factory.hpp:77] Creating layer relu7
I0427 21:27:49.082954  3416 net.cpp:106] Creating Layer relu7
I0427 21:27:49.082958  3416 net.cpp:454] relu7 <- fc7
I0427 21:27:49.082963  3416 net.cpp:397] relu7 -> fc7 (in-place)
I0427 21:27:49.083462  3416 net.cpp:150] Setting up relu7
I0427 21:27:49.083469  3416 net.cpp:157] Top shape: 1 4096 (4096)
I0427 21:27:49.083472  3416 net.cpp:165] Memory required for data: 504291800
I0427 21:27:49.083477  3416 layer_factory.hpp:77] Creating layer drop7
I0427 21:27:49.083495  3416 net.cpp:106] Creating Layer drop7
I0427 21:27:49.083498  3416 net.cpp:454] drop7 <- fc7
I0427 21:27:49.083501  3416 net.cpp:397] drop7 -> fc7 (in-place)
I0427 21:27:49.083525  3416 net.cpp:150] Setting up drop7
I0427 21:27:49.083529  3416 net.cpp:157] Top shape: 1 4096 (4096)
I0427 21:27:49.083530  3416 net.cpp:165] Memory required for data: 504308184
I0427 21:27:49.083533  3416 layer_factory.hpp:77] Creating layer fc7_drop7_0_split
I0427 21:27:49.083537  3416 net.cpp:106] Creating Layer fc7_drop7_0_split
I0427 21:27:49.083539  3416 net.cpp:454] fc7_drop7_0_split <- fc7
I0427 21:27:49.083544  3416 net.cpp:411] fc7_drop7_0_split -> fc7_drop7_0_split_0
I0427 21:27:49.083547  3416 net.cpp:411] fc7_drop7_0_split -> fc7_drop7_0_split_1
I0427 21:27:49.083575  3416 net.cpp:150] Setting up fc7_drop7_0_split
I0427 21:27:49.083580  3416 net.cpp:157] Top shape: 1 4096 (4096)
I0427 21:27:49.083581  3416 net.cpp:157] Top shape: 1 4096 (4096)
I0427 21:27:49.083583  3416 net.cpp:165] Memory required for data: 504340952
I0427 21:27:49.083585  3416 layer_factory.hpp:77] Creating layer cls_score
I0427 21:27:49.083591  3416 net.cpp:106] Creating Layer cls_score
I0427 21:27:49.083593  3416 net.cpp:454] cls_score <- fc7_drop7_0_split_0
I0427 21:27:49.083597  3416 net.cpp:411] cls_score -> cls_score
I0427 21:27:49.083796  3416 net.cpp:150] Setting up cls_score
I0427 21:27:49.083799  3416 net.cpp:157] Top shape: 1 4 (4)
I0427 21:27:49.083801  3416 net.cpp:165] Memory required for data: 504340968
I0427 21:27:49.083804  3416 layer_factory.hpp:77] Creating layer bbox_pred
I0427 21:27:49.083811  3416 net.cpp:106] Creating Layer bbox_pred
I0427 21:27:49.083812  3416 net.cpp:454] bbox_pred <- fc7_drop7_0_split_1
I0427 21:27:49.083817  3416 net.cpp:411] bbox_pred -> bbox_pred
I0427 21:27:49.085000  3416 net.cpp:150] Setting up bbox_pred
I0427 21:27:49.085007  3416 net.cpp:157] Top shape: 1 16 (16)
I0427 21:27:49.085011  3416 net.cpp:165] Memory required for data: 504341032
I0427 21:27:49.085017  3416 layer_factory.hpp:77] Creating layer loss_cls
I0427 21:27:49.085026  3416 net.cpp:106] Creating Layer loss_cls
I0427 21:27:49.085027  3416 net.cpp:454] loss_cls <- cls_score
I0427 21:27:49.085031  3416 net.cpp:454] loss_cls <- labels
I0427 21:27:49.085034  3416 net.cpp:411] loss_cls -> cls_loss
…
I0427 21:27:49.085330  3416 net.cpp:150] Setting up loss_bbox
I0427 21:27:49.085332  3416 net.cpp:157] Top shape: (1)
I0427 21:27:49.085335  3416 net.cpp:160]     with loss weight 1
I0427 21:27:49.085337  3416 net.cpp:165] Memory required for data: 504341040
I0427 21:27:49.085340  3416 layer_factory.hpp:77] Creating layer rpn_conv1
I0427 21:27:49.085346  3416 net.cpp:106] Creating Layer rpn_conv1
I0427 21:27:49.085350  3416 net.cpp:454] rpn_conv1 <- conv5_relu5_0_split_1
I0427 21:27:49.085353  3416 net.cpp:411] rpn_conv1 -> rpn_conv1
I0427 21:27:49.091146  3416 net.cpp:150] Setting up rpn_conv1
I0427 21:27:49.091158  3416 net.cpp:157] Top shape: 2 256 39 64 (1277952)
I0427 21:27:49.091161  3416 net.cpp:165] Memory required for data: 509452848
I0427 21:27:49.091166  3416 layer_factory.hpp:77] Creating layer rpn_relu1
I0427 21:27:49.091172  3416 net.cpp:106] Creating Layer rpn_relu1
I0427 21:27:49.091176  3416 net.cpp:454] rpn_relu1 <- rpn_conv1
I0427 21:27:49.091179  3416 net.cpp:397] rpn_relu1 -> rpn_conv1 (in-place)
I0427 21:27:49.091308  3416 net.cpp:150] Setting up rpn_relu1
I0427 21:27:49.091313  3416 net.cpp:157] Top shape: 2 256 39 64 (1277952)
I0427 21:27:49.091315  3416 net.cpp:165] Memory required for data: 514564656
I0427 21:27:49.091317  3416 layer_factory.hpp:77] Creating layer rpn_conv1_rpn_relu1_0_split
I0427 21:27:49.091322  3416 net.cpp:106] Creating Layer rpn_conv1_rpn_relu1_0_split
I0427 21:27:49.091325  3416 net.cpp:454] rpn_conv1_rpn_relu1_0_split <- rpn_conv1
I0427 21:27:49.091328  3416 net.cpp:411] rpn_conv1_rpn_relu1_0_split -> rpn_conv1_rpn_relu1_0_split_0
I0427 21:27:49.091332  3416 net.cpp:411] rpn_conv1_rpn_relu1_0_split -> rpn_conv1_rpn_relu1_0_split_1
I0427 21:27:49.091368  3416 net.cpp:150] Setting up rpn_conv1_rpn_relu1_0_split
I0427 21:27:49.091372  3416 net.cpp:157] Top shape: 2 256 39 64 (1277952)
I0427 21:27:49.091374  3416 net.cpp:157] Top shape: 2 256 39 64 (1277952)
I0427 21:27:49.091377  3416 net.cpp:165] Memory required for data: 524788272
I0427 21:27:49.091378  3416 layer_factory.hpp:77] Creating layer rpn_cls_score
I0427 21:27:49.091385  3416 net.cpp:106] Creating Layer rpn_cls_score
I0427 21:27:49.091387  3416 net.cpp:454] rpn_cls_score <- rpn_conv1_rpn_relu1_0_split_0
I0427 21:27:49.091392  3416 net.cpp:411] rpn_cls_score -> rpn_cls_score
I0427 21:27:49.092255  3416 net.cpp:150] Setting up rpn_cls_score
I0427 21:27:49.092264  3416 net.cpp:157] Top shape: 2 18 39 64 (89856)
I0427 21:27:49.092267  3416 net.cpp:165] Memory required for data: 525147696
I0427 21:27:49.092270  3416 layer_factory.hpp:77] Creating layer rpn_bbox_pred
I0427 21:27:49.092283  3416 net.cpp:106] Creating Layer rpn_bbox_pred
I0427 21:27:49.092284  3416 net.cpp:454] rpn_bbox_pred <- rpn_conv1_rpn_relu1_0_split_1
I0427 21:27:49.092289  3416 net.cpp:411] rpn_bbox_pred -> rpn_bbox_pred
I0427 21:27:49.093154  3416 net.cpp:150] Setting up rpn_bbox_pred
I0427 21:27:49.093163  3416 net.cpp:157] Top shape: 2 36 39 64 (179712)
I0427 21:27:49.093164  3416 net.cpp:165] Memory required for data: 525866544
I0427 21:27:49.093168  3416 layer_factory.hpp:77] Creating layer silence_rpn_cls_score
I0427 21:27:49.093173  3416 net.cpp:106] Creating Layer silence_rpn_cls_score
I0427 21:27:49.093175  3416 net.cpp:454] silence_rpn_cls_score <- rpn_cls_score
I0427 21:27:49.093179  3416 net.cpp:150] Setting up silence_rpn_cls_score
…
