…
average_loss: 100
I0428 01:32:07.690254  4771 solver.cpp:81] Creating training net from train_net file: models/pascal_voc/ZF/faster_rcnn_alt_opt/stage2_fast_rcnn_train.pt
I0428 01:32:07.691026  4771 net.cpp:49] Initializing net from parameters: 
name: "ZF"
state {
  phase: TRAIN
}
layer {
  name: "data"
  type: "Python"
  top: "data"
  top: "rois"
  top: "labels"
  top: "bbox_targets"
  top: "bbox_inside_weights"
  top: "bbox_outside_weights"
  python_param {
    module: "roi_data_layer.layer"
    layer: "RoIDataLayer"
    param_str: "\'num_classes\': 4"
  }
}
layer {
  name: "conv1"
  type: "Convolution"
  bottom: "data"
  top: "conv1"
  param {
    lr_mult: 0
    decay_mult: 0
  }
  param {
    lr_mult: 0
    decay_mult: 0
  }
  convolution_param {
    num_output: 96
    pad: 3
    kernel_size: 7
    stride: 2
  }
}
layer {
  name: "relu1"
  type: "ReLU"
  bottom: "conv1"
  top: "conv1"
}
layer {
  name: "norm1"
  type: "LRN"
  bottom: "conv1"
  top: "norm1"
  lrn_param {
    local_size: 3
    alpha: 5e-05
    beta: 0.75
    norm_region: WITHIN_CHANNEL
    engine: CAFFE
  }
}
layer {
  name: "pool1"
  type: "Pooling"
  bottom: "norm1"
  top: "pool1"
  pooling_param {
    pool: MAX
    kernel_size: 3
    stride: 2
    pad: 1
  }
}
layer {
  name: "conv2"
  type: "Convolution"
  bottom: "pool1"
  top: "conv2"
  param {
    lr_mult: 0
    decay_mult: 0
  }
  param {
    lr_mult: 0
    decay_mult: 0
  }
  convolution_param {
    num_output: 256
    pad: 2
    kernel_size: 5
    stride: 2
  }
}
layer {
  name: "relu2"
  type: "ReLU"
  bottom: "conv2"
  top: "conv2"
}
layer {
  name: "norm2"
  type: "LRN"
  bottom: "conv2"
  top: "norm2"
  lrn_param {
    local_size: 3
    alpha: 5e-05
    beta: 0.75
    norm_region: WITHIN_CHANNEL
    engine: CAFFE
  }
}
layer {
  name: "pool2"
  type: "Pooling"
  bottom: "norm2"
  top: "pool2"
  pooling_param {
    pool: MAX
    kernel_size: 3
    stride: 2
    pad: 1
  }
}
layer {
  name: "conv3"
  type: "Convolution"
  bottom: "pool2"
  top: "conv3"
  param {
    lr_mult: 0
    decay_mult: 0
  }
  param {
    lr_mult: 0
    decay_mult: 0
  }
  convolution_param {
    num_output: 384
    pad: 1
    kernel_size: 3
    stride: 1
  }
}
layer {
  name: "relu3"
  type: "ReLU"
  bottom: "conv3"
  top: "conv3"
}
layer {
  name: "conv4"
  type: "Convolution"
  bottom: "conv3"
  top: "conv4"
  param {
    lr_mult: 0
    decay_mult: 0
  }
  param {
    lr_mult: 0
    decay_mult: 0
  }
  convolution_param {
    num_output: 384
    pad: 1
    kernel_size: 3
    stride: 1
  }
}
layer {
  name: "relu4"
  type: "ReLU"
  bottom: "conv4"
  top: "conv4"
}
layer {
  name: "conv5"
  type: "Convolution"
  bottom: "conv4"
  top: "conv5"
  param {
    lr_mult: 0
    decay_mult: 0
  }
  param {
    lr_mult: 0
    decay_mult: 0
  }
  convolution_param {
    num_output: 256
    pad: 1
    kernel_size: 3
    stride: 1
  }
}
layer {
  name: "relu5"
  type: "ReLU"
  bottom: "conv5"
  top: "conv5"
}
layer {
  name: "roi_pool_conv5"
  type: "ROIPooling"
  bottom: "conv5"
  bottom: "rois"
  top: "roi_pool_conv5"
  roi_pooling_param {
    pooled_h: 6
    pooled_w: 6
    spatial_scale: 0.0625
  }
}
layer {
  name: "fc6"
  type: "InnerProduct"
  bottom: "roi_pool_conv5"
  top: "fc6"
  param {
    lr_mult: 1
  }
  param {
    lr_mult: 2
  }
  inner_product_param {
    num_output: 4096
  }
}
layer {
  name: "relu6"
  type: "ReLU"
  bottom: "fc6"
  top: "fc6"
}
layer {
  name: "drop6"
  type: "Dropout"
  bottom: "fc6"
  top: "fc6"
  dropout_param {
    dropout_ratio: 0.5
    scale_train: false
  }
}
layer {
  name: "fc7"
  type: "InnerProduct"
  bottom: "fc6"
  top: "fc7"
  param {
    lr_mult: 1
  }
  param {
    lr_mult: 2
  }
  inner_product_param {
    num_output: 4096
  }
}
layer {
  name: "relu7"
  type: "ReLU"
  bottom: "fc7"
  top: "fc7"
}
layer {
  name: "drop7"
  type: "Dropout"
  bottom: "fc7"
  top: "fc7"
  dropout_param {
    dropout_ratio: 0.5
    scale_train: false
  }
}
layer {
  name: "cls_score"
  type: "InnerProduct"
  bottom: "fc7"
  top: "cls_score"
  param {
    lr_mult: 1
  }
  param {
    lr_mult: 2
  }
  inner_product_param {
    num_output: 4
    weight_filler {
      type: "gaussian"
      std: 0.01
    }
    bias_filler {
      type: "constant"
      value: 0
    }
  }
}
layer {
  name: "bbox_pred"
  type: "InnerProduct"
  bottom: "fc7"
  top: "bbox_pred"
  param {
    lr_mult: 1
  }
  param {
    lr_mult: 2
  }
  inner_product_param {
    num_output: 16
    weight_filler {
      type: "gaussian"
      std: 0.001
    }
    bias_filler {
      type: "constant"
      value: 0
    }
  }
}
layer {
  name: "loss_cls"
  type: "SoftmaxWithLoss"
  bottom: "cls_score"
  bottom: "labels"
  top: "cls_loss"
  loss_weight: 1
  propagate_down: true
  propagate_down: false
  loss_param {
    ignore_label: -1
    normalize: true
  }
}
layer {
  name: "loss_bbox"
  type: "SmoothL1Loss"
  bottom: "bbox_pred"
  bottom: "bbox_targets"
  bottom: "bbox_inside_weights"
  bottom: "bbox_outside_weights"
  top: "bbox_loss"
  loss_weight: 1
}
layer {
  name: "rpn_conv1"
  type: "Convolution"
  bottom: "conv5"
  top: "rpn_conv1"
  param {
    lr_mult: 0
    decay_mult: 0
  }
  param {
    lr_mult: 0
    decay_mult: 0
  }
  convolution_param {
    num_output: 256
    pad: 1
    kernel_size: 3
    stride: 1
    weight_filler {
      type: "gaussian"
      std: 0.01
    }
    bias_filler {
      type: "constant"
      value: 0
    }
  }
}
layer {
  name: "rpn_relu1"
  type: "ReLU"
  bottom: "rpn_conv1"
  top: "rpn_conv1"
}
layer {
  name: "rpn_cls_score"
  type: "Convolution"
  bottom: "rpn_conv1"
  top: "rpn_cls_score"
  param {
    lr_mult: 0
    decay_mult: 0
  }
  param {
    lr_mult: 0
    decay_mult: 0
  }
  convolution_param {
    num_output: 18
    pad: 0
    kernel_size: 1
    stride: 1
    weight_filler {
      type: "gaussian"
      std: 0.01
    }
    bias_filler {
      type: "constant"
      value: 0
    }
  }
}
layer {
  name: "rpn_bbox_pred"
  type: "Convolution"
  bottom: "rpn_conv1"
  top: "rpn_bbox_pred"
  param {
    lr_mult: 0
    decay_mult: 0
  }
  param {
    lr_mult: 0
    decay_mult: 0
  }
  convolution_param {
    num_output: 36
    pad: 0
    kernel_size: 1
    stride: 1
    weight_filler {
      type: "gaussian"
      std: 0.01
    }
    bias_filler {
      type: "constant"
      value: 0
    }
  }
}
layer {
  name: "silence_rpn_cls_score"
  type: "Silence"
  bottom: "rpn_cls_score"
}
layer {
  name: "silence_rpn_bbox_pred"
  type: "Silence"
  bottom: "rpn_bbox_pred"
}
I0428 01:32:07.691273  4771 layer_factory.hpp:77] Creating layer data
I0428 01:32:07.692112  4771 net.cpp:106] Creating Layer data
I0428 01:32:07.692124  4771 net.cpp:411] data -> data
I0428 01:32:07.692131  4771 net.cpp:411] data -> rois
I0428 01:32:07.692136  4771 net.cpp:411] data -> labels
I0428 01:32:07.692139  4771 net.cpp:411] data -> bbox_targets
I0428 01:32:07.692143  4771 net.cpp:411] data -> bbox_inside_weights
I0428 01:32:07.692147  4771 net.cpp:411] data -> bbox_outside_weights
RoiDataLayer: name_to_top: {'bbox_inside_weights': 4, 'labels': 2, 'rois': 1, 'bbox_targets': 3, 'bbox_outside_weights': 5, 'data': 0}
I0428 01:32:08.995528  4771 net.cpp:150] Setting up data
I0428 01:32:08.995545  4771 net.cpp:157] Top shape: 2 3 600 1000 (3600000)
I0428 01:32:08.995548  4771 net.cpp:157] Top shape: 1 5 (5)
I0428 01:32:08.995551  4771 net.cpp:157] Top shape: 1 (1)
I0428 01:32:08.995553  4771 net.cpp:157] Top shape: 1 16 (16)
I0428 01:32:08.995556  4771 net.cpp:157] Top shape: 1 16 (16)
I0428 01:32:08.995558  4771 net.cpp:157] Top shape: 1 16 (16)
I0428 01:32:08.995560  4771 net.cpp:165] Memory required for data: 14400216
I0428 01:32:08.995565  4771 layer_factory.hpp:77] Creating layer conv1
I0428 01:32:08.995584  4771 net.cpp:106] Creating Layer conv1
I0428 01:32:08.995587  4771 net.cpp:454] conv1 <- data
I0428 01:32:08.995592  4771 net.cpp:411] conv1 -> conv1
I0428 01:32:09.358173  4771 net.cpp:150] Setting up conv1
I0428 01:32:09.358196  4771 net.cpp:157] Top shape: 2 96 300 500 (28800000)
I0428 01:32:09.358199  4771 net.cpp:165] Memory required for data: 129600216
I0428 01:32:09.358213  4771 layer_factory.hpp:77] Creating layer relu1
I0428 01:32:09.358225  4771 net.cpp:106] Creating Layer relu1
I0428 01:32:09.358230  4771 net.cpp:454] relu1 <- conv1
I0428 01:32:09.358234  4771 net.cpp:397] relu1 -> conv1 (in-place)
I0428 01:32:09.358639  4771 net.cpp:150] Setting up relu1
I0428 01:32:09.358646  4771 net.cpp:157] Top shape: 2 96 300 500 (28800000)
I0428 01:32:09.358649  4771 net.cpp:165] Memory required for data: 244800216
I0428 01:32:09.358651  4771 layer_factory.hpp:77] Creating layer norm1
I0428 01:32:09.358659  4771 net.cpp:106] Creating Layer norm1
I0428 01:32:09.358660  4771 net.cpp:454] norm1 <- conv1
I0428 01:32:09.358664  4771 net.cpp:411] norm1 -> norm1
I0428 01:32:09.359761  4771 net.cpp:150] Setting up norm1
I0428 01:32:09.359768  4771 net.cpp:157] Top shape: 2 96 300 500 (28800000)
I0428 01:32:09.359771  4771 net.cpp:165] Memory required for data: 360000216
I0428 01:32:09.359772  4771 layer_factory.hpp:77] Creating layer pool1
I0428 01:32:09.359782  4771 net.cpp:106] Creating Layer pool1
I0428 01:32:09.359784  4771 net.cpp:454] pool1 <- norm1
I0428 01:32:09.359788  4771 net.cpp:411] pool1 -> pool1
I0428 01:32:09.359813  4771 net.cpp:150] Setting up pool1
I0428 01:32:09.359817  4771 net.cpp:157] Top shape: 2 96 151 251 (7276992)
I0428 01:32:09.359819  4771 net.cpp:165] Memory required for data: 389108184
I0428 01:32:09.359822  4771 layer_factory.hpp:77] Creating layer conv2
I0428 01:32:09.359830  4771 net.cpp:106] Creating Layer conv2
I0428 01:32:09.359833  4771 net.cpp:454] conv2 <- pool1
I0428 01:32:09.359835  4771 net.cpp:411] conv2 -> conv2
I0428 01:32:09.362264  4771 net.cpp:150] Setting up conv2
I0428 01:32:09.362277  4771 net.cpp:157] Top shape: 2 256 76 126 (4902912)
I0428 01:32:09.362283  4771 net.cpp:165] Memory required for data: 408719832
I0428 01:32:09.362293  4771 layer_factory.hpp:77] Creating layer relu2
I0428 01:32:09.362299  4771 net.cpp:106] Creating Layer relu2
I0428 01:32:09.362303  4771 net.cpp:454] relu2 <- conv2
I0428 01:32:09.362308  4771 net.cpp:397] relu2 -> conv2 (in-place)
I0428 01:32:09.362674  4771 net.cpp:150] Setting up relu2
I0428 01:32:09.362682  4771 net.cpp:157] Top shape: 2 256 76 126 (4902912)
I0428 01:32:09.362684  4771 net.cpp:165] Memory required for data: 428331480
I0428 01:32:09.362687  4771 layer_factory.hpp:77] Creating layer norm2
I0428 01:32:09.362692  4771 net.cpp:106] Creating Layer norm2
I0428 01:32:09.362695  4771 net.cpp:454] norm2 <- conv2
I0428 01:32:09.362699  4771 net.cpp:411] norm2 -> norm2
I0428 01:32:09.362771  4771 net.cpp:150] Setting up norm2
I0428 01:32:09.362776  4771 net.cpp:157] Top shape: 2 256 76 126 (4902912)
I0428 01:32:09.362777  4771 net.cpp:165] Memory required for data: 447943128
I0428 01:32:09.362779  4771 layer_factory.hpp:77] Creating layer pool2
I0428 01:32:09.362784  4771 net.cpp:106] Creating Layer pool2
I0428 01:32:09.362787  4771 net.cpp:454] pool2 <- norm2
I0428 01:32:09.362790  4771 net.cpp:411] pool2 -> pool2
I0428 01:32:09.362813  4771 net.cpp:150] Setting up pool2
I0428 01:32:09.362817  4771 net.cpp:157] Top shape: 2 256 39 64 (1277952)
I0428 01:32:09.362818  4771 net.cpp:165] Memory required for data: 453054936
I0428 01:32:09.362820  4771 layer_factory.hpp:77] Creating layer conv3
I0428 01:32:09.362826  4771 net.cpp:106] Creating Layer conv3
I0428 01:32:09.362829  4771 net.cpp:454] conv3 <- pool2
I0428 01:32:09.362833  4771 net.cpp:411] conv3 -> conv3
I0428 01:32:09.366346  4771 net.cpp:150] Setting up conv3
I0428 01:32:09.366364  4771 net.cpp:157] Top shape: 2 384 39 64 (1916928)
I0428 01:32:09.366369  4771 net.cpp:165] Memory required for data: 460722648
I0428 01:32:09.366379  4771 layer_factory.hpp:77] Creating layer relu3
I0428 01:32:09.366387  4771 net.cpp:106] Creating Layer relu3
I0428 01:32:09.366391  4771 net.cpp:454] relu3 <- conv3
I0428 01:32:09.366395  4771 net.cpp:397] relu3 -> conv3 (in-place)
I0428 01:32:09.366531  4771 net.cpp:150] Setting up relu3
I0428 01:32:09.366538  4771 net.cpp:157] Top shape: 2 384 39 64 (1916928)
I0428 01:32:09.366540  4771 net.cpp:165] Memory required for data: 468390360
I0428 01:32:09.366542  4771 layer_factory.hpp:77] Creating layer conv4
I0428 01:32:09.366549  4771 net.cpp:106] Creating Layer conv4
I0428 01:32:09.366552  4771 net.cpp:454] conv4 <- conv3
I0428 01:32:09.366556  4771 net.cpp:411] conv4 -> conv4
I0428 01:32:09.369341  4771 net.cpp:150] Setting up conv4
I0428 01:32:09.369359  4771 net.cpp:157] Top shape: 2 384 39 64 (1916928)
I0428 01:32:09.369361  4771 net.cpp:165] Memory required for data: 476058072
I0428 01:32:09.369367  4771 layer_factory.hpp:77] Creating layer relu4
I0428 01:32:09.369375  4771 net.cpp:106] Creating Layer relu4
I0428 01:32:09.369379  4771 net.cpp:454] relu4 <- conv4
I0428 01:32:09.369384  4771 net.cpp:397] relu4 -> conv4 (in-place)
I0428 01:32:09.369509  4771 net.cpp:150] Setting up relu4
I0428 01:32:09.369514  4771 net.cpp:157] Top shape: 2 384 39 64 (1916928)
I0428 01:32:09.369516  4771 net.cpp:165] Memory required for data: 483725784
I0428 01:32:09.369519  4771 layer_factory.hpp:77] Creating layer conv5
I0428 01:32:09.369527  4771 net.cpp:106] Creating Layer conv5
I0428 01:32:09.369529  4771 net.cpp:454] conv5 <- conv4
I0428 01:32:09.369534  4771 net.cpp:411] conv5 -> conv5
I0428 01:32:09.371852  4771 net.cpp:150] Setting up conv5
I0428 01:32:09.371865  4771 net.cpp:157] Top shape: 2 256 39 64 (1277952)
I0428 01:32:09.371866  4771 net.cpp:165] Memory required for data: 488837592
I0428 01:32:09.371876  4771 layer_factory.hpp:77] Creating layer relu5
I0428 01:32:09.371881  4771 net.cpp:106] Creating Layer relu5
I0428 01:32:09.371884  4771 net.cpp:454] relu5 <- conv5
I0428 01:32:09.371888  4771 net.cpp:397] relu5 -> conv5 (in-place)
I0428 01:32:09.372014  4771 net.cpp:150] Setting up relu5
I0428 01:32:09.372020  4771 net.cpp:157] Top shape: 2 256 39 64 (1277952)
I0428 01:32:09.372021  4771 net.cpp:165] Memory required for data: 493949400
I0428 01:32:09.372023  4771 layer_factory.hpp:77] Creating layer conv5_relu5_0_split
I0428 01:32:09.372028  4771 net.cpp:106] Creating Layer conv5_relu5_0_split
I0428 01:32:09.372030  4771 net.cpp:454] conv5_relu5_0_split <- conv5
I0428 01:32:09.372035  4771 net.cpp:411] conv5_relu5_0_split -> conv5_relu5_0_split_0
I0428 01:32:09.372038  4771 net.cpp:411] conv5_relu5_0_split -> conv5_relu5_0_split_1
I0428 01:32:09.372069  4771 net.cpp:150] Setting up conv5_relu5_0_split
I0428 01:32:09.372073  4771 net.cpp:157] Top shape: 2 256 39 64 (1277952)
I0428 01:32:09.372076  4771 net.cpp:157] Top shape: 2 256 39 64 (1277952)
I0428 01:32:09.372078  4771 net.cpp:165] Memory required for data: 504173016
I0428 01:32:09.372079  4771 layer_factory.hpp:77] Creating layer roi_pool_conv5
I0428 01:32:09.372087  4771 net.cpp:106] Creating Layer roi_pool_conv5
I0428 01:32:09.372088  4771 net.cpp:454] roi_pool_conv5 <- conv5_relu5_0_split_0
I0428 01:32:09.372092  4771 net.cpp:454] roi_pool_conv5 <- rois
I0428 01:32:09.372095  4771 net.cpp:411] roi_pool_conv5 -> roi_pool_conv5
I0428 01:32:09.372105  4771 roi_pooling_layer.cpp:30] Spatial scale: 0.0625
I0428 01:32:09.372133  4771 net.cpp:150] Setting up roi_pool_conv5
I0428 01:32:09.372138  4771 net.cpp:157] Top shape: 1 256 6 6 (9216)
I0428 01:32:09.372139  4771 net.cpp:165] Memory required for data: 504209880
I0428 01:32:09.372141  4771 layer_factory.hpp:77] Creating layer fc6
I0428 01:32:09.372146  4771 net.cpp:106] Creating Layer fc6
I0428 01:32:09.372156  4771 net.cpp:454] fc6 <- roi_pool_conv5
I0428 01:32:09.372160  4771 net.cpp:411] fc6 -> fc6
I0428 01:32:09.421097  4771 net.cpp:150] Setting up fc6
I0428 01:32:09.421119  4771 net.cpp:157] Top shape: 1 4096 (4096)
I0428 01:32:09.421121  4771 net.cpp:165] Memory required for data: 504226264
I0428 01:32:09.421128  4771 layer_factory.hpp:77] Creating layer relu6
I0428 01:32:09.421136  4771 net.cpp:106] Creating Layer relu6
I0428 01:32:09.421140  4771 net.cpp:454] relu6 <- fc6
I0428 01:32:09.421145  4771 net.cpp:397] relu6 -> fc6 (in-place)
I0428 01:32:09.421325  4771 net.cpp:150] Setting up relu6
I0428 01:32:09.421330  4771 net.cpp:157] Top shape: 1 4096 (4096)
I0428 01:32:09.421332  4771 net.cpp:165] Memory required for data: 504242648
I0428 01:32:09.421334  4771 layer_factory.hpp:77] Creating layer drop6
I0428 01:32:09.421563  4771 net.cpp:106] Creating Layer drop6
I0428 01:32:09.421571  4771 net.cpp:454] drop6 <- fc6
I0428 01:32:09.421576  4771 net.cpp:397] drop6 -> fc6 (in-place)
I0428 01:32:09.421608  4771 net.cpp:150] Setting up drop6
I0428 01:32:09.421612  4771 net.cpp:157] Top shape: 1 4096 (4096)
I0428 01:32:09.421614  4771 net.cpp:165] Memory required for data: 504259032
I0428 01:32:09.421617  4771 layer_factory.hpp:77] Creating layer fc7
I0428 01:32:09.421622  4771 net.cpp:106] Creating Layer fc7
I0428 01:32:09.421624  4771 net.cpp:454] fc7 <- fc6
I0428 01:32:09.421628  4771 net.cpp:411] fc7 -> fc7
I0428 01:32:09.442802  4771 net.cpp:150] Setting up fc7
I0428 01:32:09.442826  4771 net.cpp:157] Top shape: 1 4096 (4096)
I0428 01:32:09.442827  4771 net.cpp:165] Memory required for data: 504275416
I0428 01:32:09.442834  4771 layer_factory.hpp:77] Creating layer relu7
I0428 01:32:09.442842  4771 net.cpp:106] Creating Layer relu7
I0428 01:32:09.442845  4771 net.cpp:454] relu7 <- fc7
I0428 01:32:09.442850  4771 net.cpp:397] relu7 -> fc7 (in-place)
I0428 01:32:09.443359  4771 net.cpp:150] Setting up relu7
I0428 01:32:09.443367  4771 net.cpp:157] Top shape: 1 4096 (4096)
I0428 01:32:09.443369  4771 net.cpp:165] Memory required for data: 504291800
I0428 01:32:09.443372  4771 layer_factory.hpp:77] Creating layer drop7
I0428 01:32:09.443378  4771 net.cpp:106] Creating Layer drop7
I0428 01:32:09.443380  4771 net.cpp:454] drop7 <- fc7
I0428 01:32:09.443384  4771 net.cpp:397] drop7 -> fc7 (in-place)
I0428 01:32:09.443408  4771 net.cpp:150] Setting up drop7
I0428 01:32:09.443413  4771 net.cpp:157] Top shape: 1 4096 (4096)
I0428 01:32:09.443414  4771 net.cpp:165] Memory required for data: 504308184
I0428 01:32:09.443416  4771 layer_factory.hpp:77] Creating layer fc7_drop7_0_split
I0428 01:32:09.443420  4771 net.cpp:106] Creating Layer fc7_drop7_0_split
I0428 01:32:09.443423  4771 net.cpp:454] fc7_drop7_0_split <- fc7
I0428 01:32:09.443425  4771 net.cpp:411] fc7_drop7_0_split -> fc7_drop7_0_split_0
I0428 01:32:09.443429  4771 net.cpp:411] fc7_drop7_0_split -> fc7_drop7_0_split_1
I0428 01:32:09.443457  4771 net.cpp:150] Setting up fc7_drop7_0_split
I0428 01:32:09.443461  4771 net.cpp:157] Top shape: 1 4096 (4096)
I0428 01:32:09.443464  4771 net.cpp:157] Top shape: 1 4096 (4096)
I0428 01:32:09.443470  4771 net.cpp:165] Memory required for data: 504340952
I0428 01:32:09.443472  4771 layer_factory.hpp:77] Creating layer cls_score
I0428 01:32:09.443478  4771 net.cpp:106] Creating Layer cls_score
I0428 01:32:09.443481  4771 net.cpp:454] cls_score <- fc7_drop7_0_split_0
I0428 01:32:09.443485  4771 net.cpp:411] cls_score -> cls_score
I0428 01:32:09.443807  4771 net.cpp:150] Setting up cls_score
I0428 01:32:09.443814  4771 net.cpp:157] Top shape: 1 4 (4)
I0428 01:32:09.443815  4771 net.cpp:165] Memory required for data: 504340968
I0428 01:32:09.443820  4771 layer_factory.hpp:77] Creating layer bbox_pred
I0428 01:32:09.443825  4771 net.cpp:106] Creating Layer bbox_pred
I0428 01:32:09.443827  4771 net.cpp:454] bbox_pred <- fc7_drop7_0_split_1
I0428 01:32:09.443831  4771 net.cpp:411] bbox_pred -> bbox_pred
I0428 01:32:09.444967  4771 net.cpp:150] Setting up bbox_pred
I0428 01:32:09.444974  4771 net.cpp:157] Top shape: 1 16 (16)
I0428 01:32:09.444977  4771 net.cpp:165] Memory required for data: 504341032
I0428 01:32:09.444984  4771 layer_factory.hpp:77] Creating layer loss_cls
I0428 01:32:09.444991  4771 net.cpp:106] Creating Layer loss_cls
I0428 01:32:09.444994  4771 net.cpp:454] loss_cls <- cls_score
I0428 01:32:09.444998  4771 net.cpp:454] loss_cls <- labels
I0428 01:32:09.445003  4771 net.cpp:411] loss_cls -> cls_loss
…
I0428 01:32:09.445294  4771 net.cpp:150] Setting up loss_bbox
I0428 01:32:09.445298  4771 net.cpp:157] Top shape: (1)
I0428 01:32:09.445300  4771 net.cpp:160]     with loss weight 1
I0428 01:32:09.445302  4771 net.cpp:165] Memory required for data: 504341040
I0428 01:32:09.445304  4771 layer_factory.hpp:77] Creating layer rpn_conv1
I0428 01:32:09.445312  4771 net.cpp:106] Creating Layer rpn_conv1
I0428 01:32:09.445315  4771 net.cpp:454] rpn_conv1 <- conv5_relu5_0_split_1
I0428 01:32:09.445319  4771 net.cpp:411] rpn_conv1 -> rpn_conv1
I0428 01:32:09.451022  4771 net.cpp:150] Setting up rpn_conv1
I0428 01:32:09.451033  4771 net.cpp:157] Top shape: 2 256 39 64 (1277952)
I0428 01:32:09.451035  4771 net.cpp:165] Memory required for data: 509452848
I0428 01:32:09.451041  4771 layer_factory.hpp:77] Creating layer rpn_relu1
I0428 01:32:09.451047  4771 net.cpp:106] Creating Layer rpn_relu1
I0428 01:32:09.451050  4771 net.cpp:454] rpn_relu1 <- rpn_conv1
I0428 01:32:09.451053  4771 net.cpp:397] rpn_relu1 -> rpn_conv1 (in-place)
I0428 01:32:09.451184  4771 net.cpp:150] Setting up rpn_relu1
I0428 01:32:09.451189  4771 net.cpp:157] Top shape: 2 256 39 64 (1277952)
I0428 01:32:09.451194  4771 net.cpp:165] Memory required for data: 514564656
I0428 01:32:09.451196  4771 layer_factory.hpp:77] Creating layer rpn_conv1_rpn_relu1_0_split
I0428 01:32:09.451200  4771 net.cpp:106] Creating Layer rpn_conv1_rpn_relu1_0_split
I0428 01:32:09.451202  4771 net.cpp:454] rpn_conv1_rpn_relu1_0_split <- rpn_conv1
I0428 01:32:09.451205  4771 net.cpp:411] rpn_conv1_rpn_relu1_0_split -> rpn_conv1_rpn_relu1_0_split_0
I0428 01:32:09.451210  4771 net.cpp:411] rpn_conv1_rpn_relu1_0_split -> rpn_conv1_rpn_relu1_0_split_1
I0428 01:32:09.451238  4771 net.cpp:150] Setting up rpn_conv1_rpn_relu1_0_split
I0428 01:32:09.451241  4771 net.cpp:157] Top shape: 2 256 39 64 (1277952)
I0428 01:32:09.451244  4771 net.cpp:157] Top shape: 2 256 39 64 (1277952)
I0428 01:32:09.451246  4771 net.cpp:165] Memory required for data: 524788272
I0428 01:32:09.451247  4771 layer_factory.hpp:77] Creating layer rpn_cls_score
I0428 01:32:09.451256  4771 net.cpp:106] Creating Layer rpn_cls_score
I0428 01:32:09.451257  4771 net.cpp:454] rpn_cls_score <- rpn_conv1_rpn_relu1_0_split_0
I0428 01:32:09.451261  4771 net.cpp:411] rpn_cls_score -> rpn_cls_score
I0428 01:32:09.452093  4771 net.cpp:150] Setting up rpn_cls_score
I0428 01:32:09.452101  4771 net.cpp:157] Top shape: 2 18 39 64 (89856)
I0428 01:32:09.452103  4771 net.cpp:165] Memory required for data: 525147696
I0428 01:32:09.452107  4771 layer_factory.hpp:77] Creating layer rpn_bbox_pred
I0428 01:32:09.452118  4771 net.cpp:106] Creating Layer rpn_bbox_pred
I0428 01:32:09.452121  4771 net.cpp:454] rpn_bbox_pred <- rpn_conv1_rpn_relu1_0_split_1
I0428 01:32:09.452126  4771 net.cpp:411] rpn_bbox_pred -> rpn_bbox_pred
I0428 01:32:09.452991  4771 net.cpp:150] Setting up rpn_bbox_pred
I0428 01:32:09.452999  4771 net.cpp:157] Top shape: 2 36 39 64 (179712)
I0428 01:32:09.453001  4771 net.cpp:165] Memory required for data: 525866544
I0428 01:32:09.453006  4771 layer_factory.hpp:77] Creating layer silence_rpn_cls_score
I0428 01:32:09.453044  4771 net.cpp:106] Creating Layer silence_rpn_cls_score
I0428 01:32:09.453047  4771 net.cpp:454] silence_rpn_cls_score <- rpn_cls_score
I0428 01:32:09.453052  4771 net.cpp:150] Setting up silence_rpn_cls_score
…
