WARNING: Logging before InitGoogleLogging() is written to STDERR
I0428 07:40:18.723999  7445 net.cpp:49] Initializing net from parameters: 
name: "ZF"
input: "data"
input: "im_info"
state {
  phase: TEST
}
input_shape {
  dim: 1
  dim: 3
  dim: 224
  dim: 224
}
input_shape {
  dim: 1
  dim: 3
}
layer {
  name: "conv1"
  type: "Convolution"
  bottom: "data"
  top: "conv1"
  convolution_param {
    num_output: 96
    pad: 3
    kernel_size: 7
    stride: 2
  }
}
layer {
  name: "relu1"
  type: "ReLU"
  bottom: "conv1"
  top: "conv1"
}
layer {
  name: "norm1"
  type: "LRN"
  bottom: "conv1"
  top: "norm1"
  lrn_param {
    local_size: 3
    alpha: 5e-05
    beta: 0.75
    norm_region: WITHIN_CHANNEL
    engine: CAFFE
  }
}
layer {
  name: "pool1"
  type: "Pooling"
  bottom: "norm1"
  top: "pool1"
  pooling_param {
    pool: MAX
    kernel_size: 3
    stride: 2
    pad: 1
  }
}
layer {
  name: "conv2"
  type: "Convolution"
  bottom: "pool1"
  top: "conv2"
  convolution_param {
    num_output: 256
    pad: 2
    kernel_size: 5
    stride: 2
  }
}
layer {
  name: "relu2"
  type: "ReLU"
  bottom: "conv2"
  top: "conv2"
}
layer {
  name: "norm2"
  type: "LRN"
  bottom: "conv2"
  top: "norm2"
  lrn_param {
    local_size: 3
    alpha: 5e-05
    beta: 0.75
    norm_region: WITHIN_CHANNEL
    engine: CAFFE
  }
}
layer {
  name: "pool2"
  type: "Pooling"
  bottom: "norm2"
  top: "pool2"
  pooling_param {
    pool: MAX
    kernel_size: 3
    stride: 2
    pad: 1
  }
}
layer {
  name: "conv3"
  type: "Convolution"
  bottom: "pool2"
  top: "conv3"
  convolution_param {
    num_output: 384
    pad: 1
    kernel_size: 3
    stride: 1
  }
}
layer {
  name: "relu3"
  type: "ReLU"
  bottom: "conv3"
  top: "conv3"
}
layer {
  name: "conv4"
  type: "Convolution"
  bottom: "conv3"
  top: "conv4"
  convolution_param {
    num_output: 384
    pad: 1
    kernel_size: 3
    stride: 1
  }
}
layer {
  name: "relu4"
  type: "ReLU"
  bottom: "conv4"
  top: "conv4"
}
layer {
  name: "conv5"
  type: "Convolution"
  bottom: "conv4"
  top: "conv5"
  convolution_param {
    num_output: 256
    pad: 1
    kernel_size: 3
    stride: 1
  }
}
layer {
  name: "relu5"
  type: "ReLU"
  bottom: "conv5"
  top: "conv5"
}
layer {
  name: "rpn_conv1"
  type: "Convolution"
  bottom: "conv5"
  top: "rpn_conv1"
  convolution_param {
    num_output: 256
    pad: 1
    kernel_size: 3
    stride: 1
  }
}
layer {
  name: "rpn_relu1"
  type: "ReLU"
  bottom: "rpn_conv1"
  top: "rpn_conv1"
}
layer {
  name: "rpn_cls_score"
  type: "Convolution"
  bottom: "rpn_conv1"
  top: "rpn_cls_score"
  convolution_param {
    num_output: 18
    pad: 0
    kernel_size: 1
    stride: 1
  }
}
layer {
  name: "rpn_bbox_pred"
  type: "Convolution"
  bottom: "rpn_conv1"
  top: "rpn_bbox_pred"
  convolution_param {
    num_output: 36
    pad: 0
    kernel_size: 1
    stride: 1
  }
}
layer {
  name: "rpn_cls_score_reshape"
  type: "Reshape"
  bottom: "rpn_cls_score"
  top: "rpn_cls_score_reshape"
  reshape_param {
    shape {
      dim: 0
      dim: 2
      dim: -1
      dim: 0
    }
  }
}
layer {
  name: "rpn_cls_prob"
  type: "Softmax"
  bottom: "rpn_cls_score_reshape"
  top: "rpn_cls_prob"
}
layer {
  name: "rpn_cls_prob_reshape"
  type: "Reshape"
  bottom: "rpn_cls_prob"
  top: "rpn_cls_prob_reshape"
  reshape_param {
    shape {
      dim: 0
      dim: 18
      dim: -1
      dim: 0
    }
  }
}
layer {
  name: "proposal"
  type: "Python"
  bottom: "rpn_cls_prob_reshape"
  bottom: "rpn_bbox_pred"
  bottom: "im_info"
  top: "rois"
  python_param {
    module: "rpn.proposal_layer"
    layer: "ProposalLayer"
    param_str: "\'feat_stride\': 16"
  }
}
layer {
  name: "roi_pool_conv5"
  type: "ROIPooling"
  bottom: "conv5"
  bottom: "rois"
  top: "roi_pool_conv5"
  roi_pooling_param {
    pooled_h: 6
    pooled_w: 6
    spatial_scale: 0.0625
  }
}
layer {
  name: "fc6"
  type: "InnerProduct"
  bottom: "roi_pool_conv5"
  top: "fc6"
  inner_product_param {
    num_output: 4096
  }
}
layer {
  name: "relu6"
  type: "ReLU"
  bottom: "fc6"
  top: "fc6"
}
layer {
  name: "drop6"
  type: "Dropout"
  bottom: "fc6"
  top: "fc6"
  dropout_param {
    dropout_ratio: 0.5
    scale_train: false
  }
}
layer {
  name: "fc7"
  type: "InnerProduct"
  bottom: "fc6"
  top: "fc7"
  inner_product_param {
    num_output: 4096
  }
}
layer {
  name: "relu7"
  type: "ReLU"
  bottom: "fc7"
  top: "fc7"
}
layer {
  name: "drop7"
  type: "Dropout"
  bottom: "fc7"
  top: "fc7"
  dropout_param {
    dropout_ratio: 0.5
    scale_train: false
  }
}
layer {
  name: "cls_score"
  type: "InnerProduct"
  bottom: "fc7"
  top: "cls_score"
  inner_product_param {
    num_output: 4
  }
}
layer {
  name: "bbox_pred"
  type: "InnerProduct"
  bottom: "fc7"
  top: "bbox_pred"
  inner_product_param {
    num_output: 16
  }
}
layer {
  name: "cls_prob"
  type: "Softmax"
  bottom: "cls_score"
  top: "cls_prob"
  loss_param {
    ignore_label: -1
    normalize: true
  }
}
I0428 07:40:18.724129  7445 net.cpp:413] Input 0 -> data
I0428 07:40:19.353633  7445 net.cpp:413] Input 1 -> im_info
I0428 07:40:19.353673  7445 layer_factory.hpp:77] Creating layer conv1
I0428 07:40:19.353691  7445 net.cpp:106] Creating Layer conv1
I0428 07:40:19.353695  7445 net.cpp:454] conv1 <- data
I0428 07:40:19.353700  7445 net.cpp:411] conv1 -> conv1
I0428 07:40:19.508329  7445 net.cpp:150] Setting up conv1
I0428 07:40:19.508352  7445 net.cpp:157] Top shape: 1 96 112 112 (1204224)
I0428 07:40:19.508357  7445 net.cpp:165] Memory required for data: 4816896
I0428 07:40:19.508366  7445 layer_factory.hpp:77] Creating layer relu1
I0428 07:40:19.508376  7445 net.cpp:106] Creating Layer relu1
I0428 07:40:19.508379  7445 net.cpp:454] relu1 <- conv1
I0428 07:40:19.508384  7445 net.cpp:397] relu1 -> conv1 (in-place)
I0428 07:40:19.508505  7445 net.cpp:150] Setting up relu1
I0428 07:40:19.508512  7445 net.cpp:157] Top shape: 1 96 112 112 (1204224)
I0428 07:40:19.508514  7445 net.cpp:165] Memory required for data: 9633792
I0428 07:40:19.508517  7445 layer_factory.hpp:77] Creating layer norm1
I0428 07:40:19.508522  7445 net.cpp:106] Creating Layer norm1
I0428 07:40:19.508525  7445 net.cpp:454] norm1 <- conv1
I0428 07:40:19.508529  7445 net.cpp:411] norm1 -> norm1
I0428 07:40:19.508602  7445 net.cpp:150] Setting up norm1
I0428 07:40:19.508608  7445 net.cpp:157] Top shape: 1 96 112 112 (1204224)
I0428 07:40:19.508610  7445 net.cpp:165] Memory required for data: 14450688
I0428 07:40:19.508613  7445 layer_factory.hpp:77] Creating layer pool1
I0428 07:40:19.508618  7445 net.cpp:106] Creating Layer pool1
I0428 07:40:19.508621  7445 net.cpp:454] pool1 <- norm1
I0428 07:40:19.508625  7445 net.cpp:411] pool1 -> pool1
I0428 07:40:19.508649  7445 net.cpp:150] Setting up pool1
I0428 07:40:19.508653  7445 net.cpp:157] Top shape: 1 96 57 57 (311904)
I0428 07:40:19.508656  7445 net.cpp:165] Memory required for data: 15698304
I0428 07:40:19.508658  7445 layer_factory.hpp:77] Creating layer conv2
I0428 07:40:19.508666  7445 net.cpp:106] Creating Layer conv2
I0428 07:40:19.508668  7445 net.cpp:454] conv2 <- pool1
I0428 07:40:19.508671  7445 net.cpp:411] conv2 -> conv2
I0428 07:40:19.510891  7445 net.cpp:150] Setting up conv2
I0428 07:40:19.510910  7445 net.cpp:157] Top shape: 1 256 29 29 (215296)
I0428 07:40:19.510912  7445 net.cpp:165] Memory required for data: 16559488
I0428 07:40:19.510921  7445 layer_factory.hpp:77] Creating layer relu2
I0428 07:40:19.510928  7445 net.cpp:106] Creating Layer relu2
I0428 07:40:19.510931  7445 net.cpp:454] relu2 <- conv2
I0428 07:40:19.510937  7445 net.cpp:397] relu2 -> conv2 (in-place)
I0428 07:40:19.511303  7445 net.cpp:150] Setting up relu2
I0428 07:40:19.511313  7445 net.cpp:157] Top shape: 1 256 29 29 (215296)
I0428 07:40:19.511315  7445 net.cpp:165] Memory required for data: 17420672
I0428 07:40:19.511318  7445 layer_factory.hpp:77] Creating layer norm2
I0428 07:40:19.511323  7445 net.cpp:106] Creating Layer norm2
I0428 07:40:19.511327  7445 net.cpp:454] norm2 <- conv2
I0428 07:40:19.511330  7445 net.cpp:411] norm2 -> norm2
I0428 07:40:19.511411  7445 net.cpp:150] Setting up norm2
I0428 07:40:19.511417  7445 net.cpp:157] Top shape: 1 256 29 29 (215296)
I0428 07:40:19.511420  7445 net.cpp:165] Memory required for data: 18281856
I0428 07:40:19.511428  7445 layer_factory.hpp:77] Creating layer pool2
I0428 07:40:19.511435  7445 net.cpp:106] Creating Layer pool2
I0428 07:40:19.511436  7445 net.cpp:454] pool2 <- norm2
I0428 07:40:19.511440  7445 net.cpp:411] pool2 -> pool2
I0428 07:40:19.511466  7445 net.cpp:150] Setting up pool2
I0428 07:40:19.511471  7445 net.cpp:157] Top shape: 1 256 15 15 (57600)
I0428 07:40:19.511472  7445 net.cpp:165] Memory required for data: 18512256
I0428 07:40:19.511474  7445 layer_factory.hpp:77] Creating layer conv3
I0428 07:40:19.511482  7445 net.cpp:106] Creating Layer conv3
I0428 07:40:19.511485  7445 net.cpp:454] conv3 <- pool2
I0428 07:40:19.511488  7445 net.cpp:411] conv3 -> conv3
I0428 07:40:19.513757  7445 net.cpp:150] Setting up conv3
I0428 07:40:19.513773  7445 net.cpp:157] Top shape: 1 384 15 15 (86400)
I0428 07:40:19.513777  7445 net.cpp:165] Memory required for data: 18857856
I0428 07:40:19.513784  7445 layer_factory.hpp:77] Creating layer relu3
I0428 07:40:19.513792  7445 net.cpp:106] Creating Layer relu3
I0428 07:40:19.513794  7445 net.cpp:454] relu3 <- conv3
I0428 07:40:19.513798  7445 net.cpp:397] relu3 -> conv3 (in-place)
I0428 07:40:19.513929  7445 net.cpp:150] Setting up relu3
I0428 07:40:19.513936  7445 net.cpp:157] Top shape: 1 384 15 15 (86400)
I0428 07:40:19.513938  7445 net.cpp:165] Memory required for data: 19203456
I0428 07:40:19.513941  7445 layer_factory.hpp:77] Creating layer conv4
I0428 07:40:19.513947  7445 net.cpp:106] Creating Layer conv4
I0428 07:40:19.513949  7445 net.cpp:454] conv4 <- conv3
I0428 07:40:19.513953  7445 net.cpp:411] conv4 -> conv4
I0428 07:40:19.516654  7445 net.cpp:150] Setting up conv4
I0428 07:40:19.516676  7445 net.cpp:157] Top shape: 1 384 15 15 (86400)
I0428 07:40:19.516680  7445 net.cpp:165] Memory required for data: 19549056
I0428 07:40:19.516685  7445 layer_factory.hpp:77] Creating layer relu4
I0428 07:40:19.516695  7445 net.cpp:106] Creating Layer relu4
I0428 07:40:19.516698  7445 net.cpp:454] relu4 <- conv4
I0428 07:40:19.516702  7445 net.cpp:397] relu4 -> conv4 (in-place)
I0428 07:40:19.516831  7445 net.cpp:150] Setting up relu4
I0428 07:40:19.516839  7445 net.cpp:157] Top shape: 1 384 15 15 (86400)
I0428 07:40:19.516841  7445 net.cpp:165] Memory required for data: 19894656
I0428 07:40:19.516844  7445 layer_factory.hpp:77] Creating layer conv5
I0428 07:40:19.516850  7445 net.cpp:106] Creating Layer conv5
I0428 07:40:19.516854  7445 net.cpp:454] conv5 <- conv4
I0428 07:40:19.516857  7445 net.cpp:411] conv5 -> conv5
I0428 07:40:19.519142  7445 net.cpp:150] Setting up conv5
I0428 07:40:19.519156  7445 net.cpp:157] Top shape: 1 256 15 15 (57600)
I0428 07:40:19.519160  7445 net.cpp:165] Memory required for data: 20125056
I0428 07:40:19.519168  7445 layer_factory.hpp:77] Creating layer relu5
I0428 07:40:19.519174  7445 net.cpp:106] Creating Layer relu5
I0428 07:40:19.519177  7445 net.cpp:454] relu5 <- conv5
I0428 07:40:19.519182  7445 net.cpp:397] relu5 -> conv5 (in-place)
I0428 07:40:19.519315  7445 net.cpp:150] Setting up relu5
I0428 07:40:19.519321  7445 net.cpp:157] Top shape: 1 256 15 15 (57600)
I0428 07:40:19.519323  7445 net.cpp:165] Memory required for data: 20355456
I0428 07:40:19.519326  7445 layer_factory.hpp:77] Creating layer conv5_relu5_0_split
I0428 07:40:19.519330  7445 net.cpp:106] Creating Layer conv5_relu5_0_split
I0428 07:40:19.519333  7445 net.cpp:454] conv5_relu5_0_split <- conv5
I0428 07:40:19.519337  7445 net.cpp:411] conv5_relu5_0_split -> conv5_relu5_0_split_0
I0428 07:40:19.519342  7445 net.cpp:411] conv5_relu5_0_split -> conv5_relu5_0_split_1
I0428 07:40:19.519373  7445 net.cpp:150] Setting up conv5_relu5_0_split
I0428 07:40:19.519378  7445 net.cpp:157] Top shape: 1 256 15 15 (57600)
I0428 07:40:19.519381  7445 net.cpp:157] Top shape: 1 256 15 15 (57600)
I0428 07:40:19.519384  7445 net.cpp:165] Memory required for data: 20816256
I0428 07:40:19.519387  7445 layer_factory.hpp:77] Creating layer rpn_conv1
I0428 07:40:19.519392  7445 net.cpp:106] Creating Layer rpn_conv1
I0428 07:40:19.519395  7445 net.cpp:454] rpn_conv1 <- conv5_relu5_0_split_0
I0428 07:40:19.519405  7445 net.cpp:411] rpn_conv1 -> rpn_conv1
I0428 07:40:19.521345  7445 net.cpp:150] Setting up rpn_conv1
I0428 07:40:19.521360  7445 net.cpp:157] Top shape: 1 256 15 15 (57600)
I0428 07:40:19.521363  7445 net.cpp:165] Memory required for data: 21046656
I0428 07:40:19.521368  7445 layer_factory.hpp:77] Creating layer rpn_relu1
I0428 07:40:19.521376  7445 net.cpp:106] Creating Layer rpn_relu1
I0428 07:40:19.521379  7445 net.cpp:454] rpn_relu1 <- rpn_conv1
I0428 07:40:19.521384  7445 net.cpp:397] rpn_relu1 -> rpn_conv1 (in-place)
I0428 07:40:19.521513  7445 net.cpp:150] Setting up rpn_relu1
I0428 07:40:19.521520  7445 net.cpp:157] Top shape: 1 256 15 15 (57600)
I0428 07:40:19.521522  7445 net.cpp:165] Memory required for data: 21277056
I0428 07:40:19.521525  7445 layer_factory.hpp:77] Creating layer rpn_conv1_rpn_relu1_0_split
I0428 07:40:19.521529  7445 net.cpp:106] Creating Layer rpn_conv1_rpn_relu1_0_split
I0428 07:40:19.521531  7445 net.cpp:454] rpn_conv1_rpn_relu1_0_split <- rpn_conv1
I0428 07:40:19.521536  7445 net.cpp:411] rpn_conv1_rpn_relu1_0_split -> rpn_conv1_rpn_relu1_0_split_0
I0428 07:40:19.521540  7445 net.cpp:411] rpn_conv1_rpn_relu1_0_split -> rpn_conv1_rpn_relu1_0_split_1
I0428 07:40:19.521572  7445 net.cpp:150] Setting up rpn_conv1_rpn_relu1_0_split
I0428 07:40:19.521579  7445 net.cpp:157] Top shape: 1 256 15 15 (57600)
I0428 07:40:19.521581  7445 net.cpp:157] Top shape: 1 256 15 15 (57600)
I0428 07:40:19.521584  7445 net.cpp:165] Memory required for data: 21737856
I0428 07:40:19.521585  7445 layer_factory.hpp:77] Creating layer rpn_cls_score
I0428 07:40:19.521591  7445 net.cpp:106] Creating Layer rpn_cls_score
I0428 07:40:19.521595  7445 net.cpp:454] rpn_cls_score <- rpn_conv1_rpn_relu1_0_split_0
I0428 07:40:19.521598  7445 net.cpp:411] rpn_cls_score -> rpn_cls_score
I0428 07:40:19.522617  7445 net.cpp:150] Setting up rpn_cls_score
I0428 07:40:19.522627  7445 net.cpp:157] Top shape: 1 18 15 15 (4050)
I0428 07:40:19.522630  7445 net.cpp:165] Memory required for data: 21754056
I0428 07:40:19.522635  7445 layer_factory.hpp:77] Creating layer rpn_bbox_pred
I0428 07:40:19.522641  7445 net.cpp:106] Creating Layer rpn_bbox_pred
I0428 07:40:19.522644  7445 net.cpp:454] rpn_bbox_pred <- rpn_conv1_rpn_relu1_0_split_1
I0428 07:40:19.522650  7445 net.cpp:411] rpn_bbox_pred -> rpn_bbox_pred
I0428 07:40:19.523461  7445 net.cpp:150] Setting up rpn_bbox_pred
I0428 07:40:19.523470  7445 net.cpp:157] Top shape: 1 36 15 15 (8100)
I0428 07:40:19.523473  7445 net.cpp:165] Memory required for data: 21786456
I0428 07:40:19.523478  7445 layer_factory.hpp:77] Creating layer rpn_cls_score_reshape
I0428 07:40:19.523484  7445 net.cpp:106] Creating Layer rpn_cls_score_reshape
I0428 07:40:19.523488  7445 net.cpp:454] rpn_cls_score_reshape <- rpn_cls_score
I0428 07:40:19.523493  7445 net.cpp:411] rpn_cls_score_reshape -> rpn_cls_score_reshape
I0428 07:40:19.523512  7445 net.cpp:150] Setting up rpn_cls_score_reshape
I0428 07:40:19.523519  7445 net.cpp:157] Top shape: 1 2 135 15 (4050)
I0428 07:40:19.523521  7445 net.cpp:165] Memory required for data: 21802656
I0428 07:40:19.523524  7445 layer_factory.hpp:77] Creating layer rpn_cls_prob
I0428 07:40:19.523528  7445 net.cpp:106] Creating Layer rpn_cls_prob
I0428 07:40:19.523530  7445 net.cpp:454] rpn_cls_prob <- rpn_cls_score_reshape
I0428 07:40:19.523535  7445 net.cpp:411] rpn_cls_prob -> rpn_cls_prob
I0428 07:40:19.523702  7445 net.cpp:150] Setting up rpn_cls_prob
I0428 07:40:19.523708  7445 net.cpp:157] Top shape: 1 2 135 15 (4050)
I0428 07:40:19.523711  7445 net.cpp:165] Memory required for data: 21818856
I0428 07:40:19.523713  7445 layer_factory.hpp:77] Creating layer rpn_cls_prob_reshape
I0428 07:40:19.523718  7445 net.cpp:106] Creating Layer rpn_cls_prob_reshape
I0428 07:40:19.523721  7445 net.cpp:454] rpn_cls_prob_reshape <- rpn_cls_prob
I0428 07:40:19.523725  7445 net.cpp:411] rpn_cls_prob_reshape -> rpn_cls_prob_reshape
I0428 07:40:19.523742  7445 net.cpp:150] Setting up rpn_cls_prob_reshape
I0428 07:40:19.523746  7445 net.cpp:157] Top shape: 1 18 15 15 (4050)
I0428 07:40:19.523753  7445 net.cpp:165] Memory required for data: 21835056
I0428 07:40:19.523756  7445 layer_factory.hpp:77] Creating layer proposal
I0428 07:40:19.524034  7445 net.cpp:106] Creating Layer proposal
I0428 07:40:19.524042  7445 net.cpp:454] proposal <- rpn_cls_prob_reshape
I0428 07:40:19.524046  7445 net.cpp:454] proposal <- rpn_bbox_pred
I0428 07:40:19.524049  7445 net.cpp:454] proposal <- im_info
I0428 07:40:19.524054  7445 net.cpp:411] proposal -> rois
I0428 07:40:19.524581  7445 net.cpp:150] Setting up proposal
I0428 07:40:19.524592  7445 net.cpp:157] Top shape: 1 5 (5)
I0428 07:40:19.524595  7445 net.cpp:165] Memory required for data: 21835076
I0428 07:40:19.524598  7445 layer_factory.hpp:77] Creating layer roi_pool_conv5
I0428 07:40:19.524603  7445 net.cpp:106] Creating Layer roi_pool_conv5
I0428 07:40:19.524607  7445 net.cpp:454] roi_pool_conv5 <- conv5_relu5_0_split_1
I0428 07:40:19.524610  7445 net.cpp:454] roi_pool_conv5 <- rois
I0428 07:40:19.524615  7445 net.cpp:411] roi_pool_conv5 -> roi_pool_conv5
I0428 07:40:19.524621  7445 roi_pooling_layer.cpp:30] Spatial scale: 0.0625
I0428 07:40:19.524654  7445 net.cpp:150] Setting up roi_pool_conv5
I0428 07:40:19.524658  7445 net.cpp:157] Top shape: 1 256 6 6 (9216)
I0428 07:40:19.524662  7445 net.cpp:165] Memory required for data: 21871940
I0428 07:40:19.524663  7445 layer_factory.hpp:77] Creating layer fc6
I0428 07:40:19.524668  7445 net.cpp:106] Creating Layer fc6
I0428 07:40:19.524672  7445 net.cpp:454] fc6 <- roi_pool_conv5
I0428 07:40:19.524674  7445 net.cpp:411] fc6 -> fc6
I0428 07:40:19.571589  7445 net.cpp:150] Setting up fc6
I0428 07:40:19.571611  7445 net.cpp:157] Top shape: 1 4096 (4096)
I0428 07:40:19.571614  7445 net.cpp:165] Memory required for data: 21888324
I0428 07:40:19.571626  7445 layer_factory.hpp:77] Creating layer relu6
I0428 07:40:19.571635  7445 net.cpp:106] Creating Layer relu6
I0428 07:40:19.571637  7445 net.cpp:454] relu6 <- fc6
I0428 07:40:19.571642  7445 net.cpp:397] relu6 -> fc6 (in-place)
I0428 07:40:19.572073  7445 net.cpp:150] Setting up relu6
I0428 07:40:19.572083  7445 net.cpp:157] Top shape: 1 4096 (4096)
I0428 07:40:19.572087  7445 net.cpp:165] Memory required for data: 21904708
I0428 07:40:19.572089  7445 layer_factory.hpp:77] Creating layer drop6
I0428 07:40:19.572094  7445 net.cpp:106] Creating Layer drop6
I0428 07:40:19.572098  7445 net.cpp:454] drop6 <- fc6
I0428 07:40:19.572101  7445 net.cpp:397] drop6 -> fc6 (in-place)
I0428 07:40:19.572124  7445 net.cpp:150] Setting up drop6
I0428 07:40:19.572129  7445 net.cpp:157] Top shape: 1 4096 (4096)
I0428 07:40:19.572130  7445 net.cpp:165] Memory required for data: 21921092
I0428 07:40:19.572134  7445 layer_factory.hpp:77] Creating layer fc7
I0428 07:40:19.572137  7445 net.cpp:106] Creating Layer fc7
I0428 07:40:19.572140  7445 net.cpp:454] fc7 <- fc6
I0428 07:40:19.572144  7445 net.cpp:411] fc7 -> fc7
I0428 07:40:19.592955  7445 net.cpp:150] Setting up fc7
I0428 07:40:19.592984  7445 net.cpp:157] Top shape: 1 4096 (4096)
I0428 07:40:19.592988  7445 net.cpp:165] Memory required for data: 21937476
I0428 07:40:19.592994  7445 layer_factory.hpp:77] Creating layer relu7
I0428 07:40:19.593001  7445 net.cpp:106] Creating Layer relu7
I0428 07:40:19.593005  7445 net.cpp:454] relu7 <- fc7
I0428 07:40:19.593009  7445 net.cpp:397] relu7 -> fc7 (in-place)
I0428 07:40:19.593183  7445 net.cpp:150] Setting up relu7
I0428 07:40:19.593190  7445 net.cpp:157] Top shape: 1 4096 (4096)
I0428 07:40:19.593194  7445 net.cpp:165] Memory required for data: 21953860
I0428 07:40:19.593195  7445 layer_factory.hpp:77] Creating layer drop7
I0428 07:40:19.593200  7445 net.cpp:106] Creating Layer drop7
I0428 07:40:19.593204  7445 net.cpp:454] drop7 <- fc7
I0428 07:40:19.593207  7445 net.cpp:397] drop7 -> fc7 (in-place)
I0428 07:40:19.593230  7445 net.cpp:150] Setting up drop7
I0428 07:40:19.593235  7445 net.cpp:157] Top shape: 1 4096 (4096)
I0428 07:40:19.593236  7445 net.cpp:165] Memory required for data: 21970244
I0428 07:40:19.593240  7445 layer_factory.hpp:77] Creating layer fc7_drop7_0_split
I0428 07:40:19.593250  7445 net.cpp:106] Creating Layer fc7_drop7_0_split
I0428 07:40:19.593251  7445 net.cpp:454] fc7_drop7_0_split <- fc7
I0428 07:40:19.593255  7445 net.cpp:411] fc7_drop7_0_split -> fc7_drop7_0_split_0
I0428 07:40:19.593260  7445 net.cpp:411] fc7_drop7_0_split -> fc7_drop7_0_split_1
I0428 07:40:19.593288  7445 net.cpp:150] Setting up fc7_drop7_0_split
I0428 07:40:19.593292  7445 net.cpp:157] Top shape: 1 4096 (4096)
I0428 07:40:19.593296  7445 net.cpp:157] Top shape: 1 4096 (4096)
I0428 07:40:19.593298  7445 net.cpp:165] Memory required for data: 22003012
I0428 07:40:19.593300  7445 layer_factory.hpp:77] Creating layer cls_score
I0428 07:40:19.593308  7445 net.cpp:106] Creating Layer cls_score
I0428 07:40:19.593312  7445 net.cpp:454] cls_score <- fc7_drop7_0_split_0
I0428 07:40:19.593315  7445 net.cpp:411] cls_score -> cls_score
I0428 07:40:19.593399  7445 net.cpp:150] Setting up cls_score
I0428 07:40:19.593403  7445 net.cpp:157] Top shape: 1 4 (4)
I0428 07:40:19.593406  7445 net.cpp:165] Memory required for data: 22003028
I0428 07:40:19.593410  7445 layer_factory.hpp:77] Creating layer bbox_pred
I0428 07:40:19.593413  7445 net.cpp:106] Creating Layer bbox_pred
I0428 07:40:19.593416  7445 net.cpp:454] bbox_pred <- fc7_drop7_0_split_1
I0428 07:40:19.593420  7445 net.cpp:411] bbox_pred -> bbox_pred
I0428 07:40:19.594152  7445 net.cpp:150] Setting up bbox_pred
I0428 07:40:19.594161  7445 net.cpp:157] Top shape: 1 16 (16)
I0428 07:40:19.594163  7445 net.cpp:165] Memory required for data: 22003092
I0428 07:40:19.594168  7445 layer_factory.hpp:77] Creating layer cls_prob
I0428 07:40:19.594174  7445 net.cpp:106] Creating Layer cls_prob
I0428 07:40:19.594177  7445 net.cpp:454] cls_prob <- cls_score
I0428 07:40:19.594180  7445 net.cpp:411] cls_prob -> cls_prob
I0428 07:40:19.594362  7445 net.cpp:150] Setting up cls_prob
I0428 07:40:19.594368  7445 net.cpp:157] Top shape: 1 4 (4)
I0428 07:40:19.594372  7445 net.cpp:165] Memory required for data: 22003108
I0428 07:40:19.594374  7445 net.cpp:228] cls_prob does not need backward computation.
I0428 07:40:19.594377  7445 net.cpp:228] bbox_pred does not need backward computation.
I0428 07:40:19.594379  7445 net.cpp:228] cls_score does not need backward computation.
I0428 07:40:19.594383  7445 net.cpp:228] fc7_drop7_0_split does not need backward computation.
…
