…
I0216 00:35:52.296643  1839 solver.cpp:81] Creating training net from train_net file: models/pascal_voc/VGG16/faster_rcnn_alt_opt/stage1_fast_rcnn_train.pt
I0216 00:35:52.297572  1839 net.cpp:49] Initializing net from parameters: 
name: "VGG_ILSVRC_16_layers"
state {
  phase: TRAIN
}
layer {
  name: "data"
  type: "Python"
  top: "data"
  top: "rois"
  top: "labels"
  top: "bbox_targets"
  top: "bbox_inside_weights"
  top: "bbox_outside_weights"
  python_param {
    module: "roi_data_layer.layer"
    layer: "RoIDataLayer"
    param_str: "\'num_classes\': 4"
  }
}
layer {
  name: "conv1_1"
  type: "Convolution"
  bottom: "data"
  top: "conv1_1"
  param {
    lr_mult: 0
    decay_mult: 0
  }
  param {
    lr_mult: 0
    decay_mult: 0
  }
  convolution_param {
    num_output: 64
    pad: 1
    kernel_size: 3
  }
}
layer {
  name: "relu1_1"
  type: "ReLU"
  bottom: "conv1_1"
  top: "conv1_1"
}
layer {
  name: "conv1_2"
  type: "Convolution"
  bottom: "conv1_1"
  top: "conv1_2"
  param {
    lr_mult: 0
    decay_mult: 0
  }
  param {
    lr_mult: 0
    decay_mult: 0
  }
  convolution_param {
    num_output: 64
    pad: 1
    kernel_size: 3
  }
}
layer {
  name: "relu1_2"
  type: "ReLU"
  bottom: "conv1_2"
  top: "conv1_2"
}
layer {
  name: "pool1"
  type: "Pooling"
  bottom: "conv1_2"
  top: "pool1"
  pooling_param {
    pool: MAX
    kernel_size: 2
    stride: 2
  }
}
layer {
  name: "conv2_1"
  type: "Convolution"
  bottom: "pool1"
  top: "conv2_1"
  param {
    lr_mult: 0
    decay_mult: 0
  }
  param {
    lr_mult: 0
    decay_mult: 0
  }
  convolution_param {
    num_output: 128
    pad: 1
    kernel_size: 3
  }
}
layer {
  name: "relu2_1"
  type: "ReLU"
  bottom: "conv2_1"
  top: "conv2_1"
}
layer {
  name: "conv2_2"
  type: "Convolution"
  bottom: "conv2_1"
  top: "conv2_2"
  param {
    lr_mult: 0
    decay_mult: 0
  }
  param {
    lr_mult: 0
    decay_mult: 0
  }
  convolution_param {
    num_output: 128
    pad: 1
    kernel_size: 3
  }
}
layer {
  name: "relu2_2"
  type: "ReLU"
  bottom: "conv2_2"
  top: "conv2_2"
}
layer {
  name: "pool2"
  type: "Pooling"
  bottom: "conv2_2"
  top: "pool2"
  pooling_param {
    pool: MAX
    kernel_size: 2
    stride: 2
  }
}
layer {
  name: "conv3_1"
  type: "Convolution"
  bottom: "pool2"
  top: "conv3_1"
  param {
    lr_mult: 1
  }
  param {
    lr_mult: 2
  }
  convolution_param {
    num_output: 256
    pad: 1
    kernel_size: 3
  }
}
layer {
  name: "relu3_1"
  type: "ReLU"
  bottom: "conv3_1"
  top: "conv3_1"
}
layer {
  name: "conv3_2"
  type: "Convolution"
  bottom: "conv3_1"
  top: "conv3_2"
  param {
    lr_mult: 1
  }
  param {
    lr_mult: 2
  }
  convolution_param {
    num_output: 256
    pad: 1
    kernel_size: 3
  }
}
layer {
  name: "relu3_2"
  type: "ReLU"
  bottom: "conv3_2"
  top: "conv3_2"
}
layer {
  name: "conv3_3"
  type: "Convolution"
  bottom: "conv3_2"
  top: "conv3_3"
  param {
    lr_mult: 1
  }
  param {
    lr_mult: 2
  }
  convolution_param {
    num_output: 256
    pad: 1
    kernel_size: 3
  }
}
layer {
  name: "relu3_3"
  type: "ReLU"
  bottom: "conv3_3"
  top: "conv3_3"
}
layer {
  name: "pool3"
  type: "Pooling"
  bottom: "conv3_3"
  top: "pool3"
  pooling_param {
    pool: MAX
    kernel_size: 2
    stride: 2
  }
}
layer {
  name: "conv4_1"
  type: "Convolution"
  bottom: "pool3"
  top: "conv4_1"
  param {
    lr_mult: 1
  }
  param {
    lr_mult: 2
  }
  convolution_param {
    num_output: 512
    pad: 1
    kernel_size: 3
  }
}
layer {
  name: "relu4_1"
  type: "ReLU"
  bottom: "conv4_1"
  top: "conv4_1"
}
layer {
  name: "conv4_2"
  type: "Convolution"
  bottom: "conv4_1"
  top: "conv4_2"
  param {
    lr_mult: 1
  }
  param {
    lr_mult: 2
  }
  convolution_param {
    num_output: 512
    pad: 1
    kernel_size: 3
  }
}
layer {
  name: "relu4_2"
  type: "ReLU"
  bottom: "conv4_2"
  top: "conv4_2"
}
layer {
  name: "conv4_3"
  type: "Convolution"
  bottom: "conv4_2"
  top: "conv4_3"
  param {
    lr_mult: 1
  }
  param {
    lr_mult: 2
  }
  convolution_param {
    num_output: 512
    pad: 1
    kernel_size: 3
  }
}
layer {
  name: "relu4_3"
  type: "ReLU"
  bottom: "conv4_3"
  top: "conv4_3"
}
layer {
  name: "pool4"
  type: "Pooling"
  bottom: "conv4_3"
  top: "pool4"
  pooling_param {
    pool: MAX
    kernel_size: 2
    stride: 2
  }
}
layer {
  name: "conv5_1"
  type: "Convolution"
  bottom: "pool4"
  top: "conv5_1"
  param {
    lr_mult: 1
  }
  param {
    lr_mult: 2
  }
  convolution_param {
    num_output: 512
    pad: 1
    kernel_size: 3
  }
}
layer {
  name: "relu5_1"
  type: "ReLU"
  bottom: "conv5_1"
  top: "conv5_1"
}
layer {
  name: "conv5_2"
  type: "Convolution"
  bottom: "conv5_1"
  top: "conv5_2"
  param {
    lr_mult: 1
  }
  param {
    lr_mult: 2
  }
  convolution_param {
    num_output: 512
    pad: 1
    kernel_size: 3
  }
}
layer {
  name: "relu5_2"
  type: "ReLU"
  bottom: "conv5_2"
  top: "conv5_2"
}
layer {
  name: "conv5_3"
  type: "Convolution"
  bottom: "conv5_2"
  top: "conv5_3"
  param {
    lr_mult: 1
  }
  param {
    lr_mult: 2
  }
  convolution_param {
    num_output: 512
    pad: 1
    kernel_size: 3
  }
}
layer {
  name: "relu5_3"
  type: "ReLU"
  bottom: "conv5_3"
  top: "conv5_3"
}
layer {
  name: "roi_pool5"
  type: "ROIPooling"
  bottom: "conv5_3"
  bottom: "rois"
  top: "pool5"
  roi_pooling_param {
    pooled_h: 7
    pooled_w: 7
    spatial_scale: 0.0625
  }
}
layer {
  name: "fc6"
  type: "InnerProduct"
  bottom: "pool5"
  top: "fc6"
  param {
    lr_mult: 1
  }
  param {
    lr_mult: 2
  }
  inner_product_param {
    num_output: 4096
  }
}
layer {
  name: "relu6"
  type: "ReLU"
  bottom: "fc6"
  top: "fc6"
}
layer {
  name: "drop6"
  type: "Dropout"
  bottom: "fc6"
  top: "fc6"
  dropout_param {
    dropout_ratio: 0.5
  }
}
layer {
  name: "fc7"
  type: "InnerProduct"
  bottom: "fc6"
  top: "fc7"
  param {
    lr_mult: 1
  }
  param {
    lr_mult: 2
  }
  inner_product_param {
    num_output: 4096
  }
}
layer {
  name: "relu7"
  type: "ReLU"
  bottom: "fc7"
  top: "fc7"
}
layer {
  name: "drop7"
  type: "Dropout"
  bottom: "fc7"
  top: "fc7"
  dropout_param {
    dropout_ratio: 0.5
  }
}
layer {
  name: "cls_score"
  type: "InnerProduct"
  bottom: "fc7"
  top: "cls_score"
  param {
    lr_mult: 1
  }
  param {
    lr_mult: 2
  }
  inner_product_param {
    num_output: 4
    weight_filler {
      type: "gaussian"
      std: 0.01
    }
    bias_filler {
      type: "constant"
      value: 0
    }
  }
}
layer {
  name: "bbox_pred"
  type: "InnerProduct"
  bottom: "fc7"
  top: "bbox_pred"
  param {
    lr_mult: 1
  }
  param {
    lr_mult: 2
  }
  inner_product_param {
    num_output: 16
    weight_filler {
      type: "gaussian"
      std: 0.001
    }
    bias_filler {
      type: "constant"
      value: 0
    }
  }
}
layer {
  name: "loss_cls"
  type: "SoftmaxWithLoss"
  bottom: "cls_score"
  bottom: "labels"
  top: "loss_cls"
  loss_weight: 1
}
layer {
  name: "loss_bbox"
  type: "SmoothL1Loss"
  bottom: "bbox_pred"
  bottom: "bbox_targets"
  bottom: "bbox_inside_weights"
  bottom: "bbox_outside_weights"
  top: "loss_bbox"
  loss_weight: 1
}
layer {
  name: "rpn_conv/3x3"
  type: "Convolution"
  bottom: "conv5_3"
  top: "rpn/output"
  param {
    lr_mult: 0
    decay_mult: 0
  }
  param {
    lr_mult: 0
    decay_mult: 0
  }
  convolution_param {
    num_output: 512
    pad: 1
    kernel_size: 3
    stride: 1
    weight_filler {
      type: "gaussian"
      std: 0.01
    }
    bias_filler {
      type: "constant"
      value: 0
    }
  }
}
layer {
  name: "rpn_relu/3x3"
  type: "ReLU"
  bottom: "rpn/output"
  top: "rpn/output"
}
layer {
  name: "rpn_cls_score"
  type: "Convolution"
  bottom: "rpn/output"
  top: "rpn_cls_score"
  param {
    lr_mult: 0
    decay_mult: 0
  }
  param {
    lr_mult: 0
    decay_mult: 0
  }
  convolution_param {
    num_output: 18
    pad: 0
    kernel_size: 1
    stride: 1
    weight_filler {
      type: "gaussian"
      std: 0.01
    }
    bias_filler {
      type: "constant"
      value: 0
    }
  }
}
layer {
  name: "rpn_bbox_pred"
  type: "Convolution"
  bottom: "rpn/output"
  top: "rpn_bbox_pred"
  param {
    lr_mult: 0
    decay_mult: 0
  }
  param {
    lr_mult: 0
    decay_mult: 0
  }
  convolution_param {
    num_output: 36
    pad: 0
    kernel_size: 1
    stride: 1
    weight_filler {
      type: "gaussian"
      std: 0.01
    }
    bias_filler {
      type: "constant"
      value: 0
    }
  }
}
layer {
  name: "silence_rpn_cls_score"
  type: "Silence"
  bottom: "rpn_cls_score"
}
layer {
  name: "silence_rpn_bbox_pred"
  type: "Silence"
  bottom: "rpn_bbox_pred"
}
I0216 00:35:52.297804  1839 layer_factory.hpp:77] Creating layer data
I0216 00:35:52.298468  1839 net.cpp:106] Creating Layer data
I0216 00:35:52.298480  1839 net.cpp:411] data -> data
I0216 00:35:52.298490  1839 net.cpp:411] data -> rois
I0216 00:35:52.298496  1839 net.cpp:411] data -> labels
I0216 00:35:52.298503  1839 net.cpp:411] data -> bbox_targets
I0216 00:35:52.298508  1839 net.cpp:411] data -> bbox_inside_weights
I0216 00:35:52.298516  1839 net.cpp:411] data -> bbox_outside_weights
RoiDataLayer: name_to_top: {'bbox_inside_weights': 4, 'labels': 2, 'rois': 1, 'bbox_targets': 3, 'bbox_outside_weights': 5, 'data': 0}
I0216 00:35:52.308962  1839 net.cpp:150] Setting up data
I0216 00:35:52.308986  1839 net.cpp:157] Top shape: 2 3 600 1000 (3600000)
I0216 00:35:52.308995  1839 net.cpp:157] Top shape: 1 5 (5)
I0216 00:35:52.308998  1839 net.cpp:157] Top shape: 1 (1)
I0216 00:35:52.309002  1839 net.cpp:157] Top shape: 1 16 (16)
I0216 00:35:52.309006  1839 net.cpp:157] Top shape: 1 16 (16)
I0216 00:35:52.309010  1839 net.cpp:157] Top shape: 1 16 (16)
I0216 00:35:52.309013  1839 net.cpp:165] Memory required for data: 14400216
I0216 00:35:52.309018  1839 layer_factory.hpp:77] Creating layer conv1_1
I0216 00:35:52.309029  1839 net.cpp:106] Creating Layer conv1_1
I0216 00:35:52.309034  1839 net.cpp:454] conv1_1 <- data
I0216 00:35:52.309041  1839 net.cpp:411] conv1_1 -> conv1_1
I0216 00:35:52.445406  1839 net.cpp:150] Setting up conv1_1
I0216 00:35:52.445441  1839 net.cpp:157] Top shape: 2 64 600 1000 (76800000)
I0216 00:35:52.445446  1839 net.cpp:165] Memory required for data: 321600216
I0216 00:35:52.445479  1839 layer_factory.hpp:77] Creating layer relu1_1
I0216 00:35:52.445497  1839 net.cpp:106] Creating Layer relu1_1
I0216 00:35:52.445504  1839 net.cpp:454] relu1_1 <- conv1_1
I0216 00:35:52.445519  1839 net.cpp:397] relu1_1 -> conv1_1 (in-place)
I0216 00:35:52.445796  1839 net.cpp:150] Setting up relu1_1
I0216 00:35:52.445822  1839 net.cpp:157] Top shape: 2 64 600 1000 (76800000)
I0216 00:35:52.445827  1839 net.cpp:165] Memory required for data: 628800216
I0216 00:35:52.445830  1839 layer_factory.hpp:77] Creating layer conv1_2
I0216 00:35:52.445843  1839 net.cpp:106] Creating Layer conv1_2
I0216 00:35:52.445847  1839 net.cpp:454] conv1_2 <- conv1_1
I0216 00:35:52.445855  1839 net.cpp:411] conv1_2 -> conv1_2
I0216 00:35:52.448438  1839 net.cpp:150] Setting up conv1_2
I0216 00:35:52.448453  1839 net.cpp:157] Top shape: 2 64 600 1000 (76800000)
I0216 00:35:52.448457  1839 net.cpp:165] Memory required for data: 936000216
I0216 00:35:52.448465  1839 layer_factory.hpp:77] Creating layer relu1_2
I0216 00:35:52.448473  1839 net.cpp:106] Creating Layer relu1_2
I0216 00:35:52.448477  1839 net.cpp:454] relu1_2 <- conv1_2
I0216 00:35:52.448483  1839 net.cpp:397] relu1_2 -> conv1_2 (in-place)
I0216 00:35:52.448626  1839 net.cpp:150] Setting up relu1_2
I0216 00:35:52.448635  1839 net.cpp:157] Top shape: 2 64 600 1000 (76800000)
I0216 00:35:52.448639  1839 net.cpp:165] Memory required for data: 1243200216
I0216 00:35:52.448643  1839 layer_factory.hpp:77] Creating layer pool1
I0216 00:35:52.448650  1839 net.cpp:106] Creating Layer pool1
I0216 00:35:52.448654  1839 net.cpp:454] pool1 <- conv1_2
I0216 00:35:52.448659  1839 net.cpp:411] pool1 -> pool1
I0216 00:35:52.448706  1839 net.cpp:150] Setting up pool1
I0216 00:35:52.448714  1839 net.cpp:157] Top shape: 2 64 300 500 (19200000)
I0216 00:35:52.448717  1839 net.cpp:165] Memory required for data: 1320000216
I0216 00:35:52.448721  1839 layer_factory.hpp:77] Creating layer conv2_1
I0216 00:35:52.448729  1839 net.cpp:106] Creating Layer conv2_1
I0216 00:35:52.448734  1839 net.cpp:454] conv2_1 <- pool1
I0216 00:35:52.448740  1839 net.cpp:411] conv2_1 -> conv2_1
I0216 00:35:52.450150  1839 net.cpp:150] Setting up conv2_1
I0216 00:35:52.450163  1839 net.cpp:157] Top shape: 2 128 300 500 (38400000)
I0216 00:35:52.450167  1839 net.cpp:165] Memory required for data: 1473600216
I0216 00:35:52.450176  1839 layer_factory.hpp:77] Creating layer relu2_1
I0216 00:35:52.450183  1839 net.cpp:106] Creating Layer relu2_1
I0216 00:35:52.450187  1839 net.cpp:454] relu2_1 <- conv2_1
I0216 00:35:52.450193  1839 net.cpp:397] relu2_1 -> conv2_1 (in-place)
I0216 00:35:52.450335  1839 net.cpp:150] Setting up relu2_1
I0216 00:35:52.450345  1839 net.cpp:157] Top shape: 2 128 300 500 (38400000)
I0216 00:35:52.450348  1839 net.cpp:165] Memory required for data: 1627200216
I0216 00:35:52.450352  1839 layer_factory.hpp:77] Creating layer conv2_2
I0216 00:35:52.450362  1839 net.cpp:106] Creating Layer conv2_2
I0216 00:35:52.450366  1839 net.cpp:454] conv2_2 <- conv2_1
I0216 00:35:52.450372  1839 net.cpp:411] conv2_2 -> conv2_2
I0216 00:35:52.452301  1839 net.cpp:150] Setting up conv2_2
I0216 00:35:52.452316  1839 net.cpp:157] Top shape: 2 128 300 500 (38400000)
I0216 00:35:52.452319  1839 net.cpp:165] Memory required for data: 1780800216
I0216 00:35:52.452327  1839 layer_factory.hpp:77] Creating layer relu2_2
I0216 00:35:52.452333  1839 net.cpp:106] Creating Layer relu2_2
I0216 00:35:52.452337  1839 net.cpp:454] relu2_2 <- conv2_2
I0216 00:35:52.452342  1839 net.cpp:397] relu2_2 -> conv2_2 (in-place)
I0216 00:35:52.452587  1839 net.cpp:150] Setting up relu2_2
I0216 00:35:52.452600  1839 net.cpp:157] Top shape: 2 128 300 500 (38400000)
I0216 00:35:52.452603  1839 net.cpp:165] Memory required for data: 1934400216
I0216 00:35:52.452607  1839 layer_factory.hpp:77] Creating layer pool2
I0216 00:35:52.452615  1839 net.cpp:106] Creating Layer pool2
I0216 00:35:52.452617  1839 net.cpp:454] pool2 <- conv2_2
I0216 00:35:52.452622  1839 net.cpp:411] pool2 -> pool2
I0216 00:35:52.452661  1839 net.cpp:150] Setting up pool2
I0216 00:35:52.452668  1839 net.cpp:157] Top shape: 2 128 150 250 (9600000)
I0216 00:35:52.452672  1839 net.cpp:165] Memory required for data: 1972800216
I0216 00:35:52.452675  1839 layer_factory.hpp:77] Creating layer conv3_1
I0216 00:35:52.452683  1839 net.cpp:106] Creating Layer conv3_1
I0216 00:35:52.452687  1839 net.cpp:454] conv3_1 <- pool2
I0216 00:35:52.452692  1839 net.cpp:411] conv3_1 -> conv3_1
I0216 00:35:52.454259  1839 net.cpp:150] Setting up conv3_1
I0216 00:35:52.454273  1839 net.cpp:157] Top shape: 2 256 150 250 (19200000)
I0216 00:35:52.454277  1839 net.cpp:165] Memory required for data: 2049600216
I0216 00:35:52.454288  1839 layer_factory.hpp:77] Creating layer relu3_1
I0216 00:35:52.454294  1839 net.cpp:106] Creating Layer relu3_1
I0216 00:35:52.454298  1839 net.cpp:454] relu3_1 <- conv3_1
I0216 00:35:52.454303  1839 net.cpp:397] relu3_1 -> conv3_1 (in-place)
I0216 00:35:52.454474  1839 net.cpp:150] Setting up relu3_1
I0216 00:35:52.454484  1839 net.cpp:157] Top shape: 2 256 150 250 (19200000)
I0216 00:35:52.454488  1839 net.cpp:165] Memory required for data: 2126400216
I0216 00:35:52.454493  1839 layer_factory.hpp:77] Creating layer conv3_2
I0216 00:35:52.454501  1839 net.cpp:106] Creating Layer conv3_2
I0216 00:35:52.454505  1839 net.cpp:454] conv3_2 <- conv3_1
I0216 00:35:52.454512  1839 net.cpp:411] conv3_2 -> conv3_2
I0216 00:35:52.456643  1839 net.cpp:150] Setting up conv3_2
I0216 00:35:52.456656  1839 net.cpp:157] Top shape: 2 256 150 250 (19200000)
I0216 00:35:52.456660  1839 net.cpp:165] Memory required for data: 2203200216
I0216 00:35:52.456667  1839 layer_factory.hpp:77] Creating layer relu3_2
I0216 00:35:52.456674  1839 net.cpp:106] Creating Layer relu3_2
I0216 00:35:52.456678  1839 net.cpp:454] relu3_2 <- conv3_2
I0216 00:35:52.456683  1839 net.cpp:397] relu3_2 -> conv3_2 (in-place)
I0216 00:35:52.456832  1839 net.cpp:150] Setting up relu3_2
I0216 00:35:52.456841  1839 net.cpp:157] Top shape: 2 256 150 250 (19200000)
I0216 00:35:52.456845  1839 net.cpp:165] Memory required for data: 2280000216
I0216 00:35:52.456848  1839 layer_factory.hpp:77] Creating layer conv3_3
I0216 00:35:52.456857  1839 net.cpp:106] Creating Layer conv3_3
I0216 00:35:52.456861  1839 net.cpp:454] conv3_3 <- conv3_2
I0216 00:35:52.456867  1839 net.cpp:411] conv3_3 -> conv3_3
I0216 00:35:52.458956  1839 net.cpp:150] Setting up conv3_3
I0216 00:35:52.458971  1839 net.cpp:157] Top shape: 2 256 150 250 (19200000)
I0216 00:35:52.458974  1839 net.cpp:165] Memory required for data: 2356800216
I0216 00:35:52.458981  1839 layer_factory.hpp:77] Creating layer relu3_3
I0216 00:35:52.458989  1839 net.cpp:106] Creating Layer relu3_3
I0216 00:35:52.458993  1839 net.cpp:454] relu3_3 <- conv3_3
I0216 00:35:52.458999  1839 net.cpp:397] relu3_3 -> conv3_3 (in-place)
I0216 00:35:52.459235  1839 net.cpp:150] Setting up relu3_3
I0216 00:35:52.459247  1839 net.cpp:157] Top shape: 2 256 150 250 (19200000)
I0216 00:35:52.459250  1839 net.cpp:165] Memory required for data: 2433600216
I0216 00:35:52.459254  1839 layer_factory.hpp:77] Creating layer pool3
I0216 00:35:52.459261  1839 net.cpp:106] Creating Layer pool3
I0216 00:35:52.459265  1839 net.cpp:454] pool3 <- conv3_3
I0216 00:35:52.459271  1839 net.cpp:411] pool3 -> pool3
I0216 00:35:52.459337  1839 net.cpp:150] Setting up pool3
I0216 00:35:52.459347  1839 net.cpp:157] Top shape: 2 256 75 125 (4800000)
I0216 00:35:52.459350  1839 net.cpp:165] Memory required for data: 2452800216
I0216 00:35:52.459353  1839 layer_factory.hpp:77] Creating layer conv4_1
I0216 00:35:52.459363  1839 net.cpp:106] Creating Layer conv4_1
I0216 00:35:52.459367  1839 net.cpp:454] conv4_1 <- pool3
I0216 00:35:52.459372  1839 net.cpp:411] conv4_1 -> conv4_1
I0216 00:35:52.463490  1839 net.cpp:150] Setting up conv4_1
I0216 00:35:52.463510  1839 net.cpp:157] Top shape: 2 512 75 125 (9600000)
I0216 00:35:52.463513  1839 net.cpp:165] Memory required for data: 2491200216
I0216 00:35:52.463521  1839 layer_factory.hpp:77] Creating layer relu4_1
I0216 00:35:52.463529  1839 net.cpp:106] Creating Layer relu4_1
I0216 00:35:52.463533  1839 net.cpp:454] relu4_1 <- conv4_1
I0216 00:35:52.463538  1839 net.cpp:397] relu4_1 -> conv4_1 (in-place)
I0216 00:35:52.463771  1839 net.cpp:150] Setting up relu4_1
I0216 00:35:52.463783  1839 net.cpp:157] Top shape: 2 512 75 125 (9600000)
I0216 00:35:52.463788  1839 net.cpp:165] Memory required for data: 2529600216
I0216 00:35:52.463791  1839 layer_factory.hpp:77] Creating layer conv4_2
I0216 00:35:52.463801  1839 net.cpp:106] Creating Layer conv4_2
I0216 00:35:52.463805  1839 net.cpp:454] conv4_2 <- conv4_1
I0216 00:35:52.463811  1839 net.cpp:411] conv4_2 -> conv4_2
I0216 00:35:52.469213  1839 net.cpp:150] Setting up conv4_2
I0216 00:35:52.469233  1839 net.cpp:157] Top shape: 2 512 75 125 (9600000)
I0216 00:35:52.469236  1839 net.cpp:165] Memory required for data: 2568000216
I0216 00:35:52.469249  1839 layer_factory.hpp:77] Creating layer relu4_2
I0216 00:35:52.469259  1839 net.cpp:106] Creating Layer relu4_2
I0216 00:35:52.469262  1839 net.cpp:454] relu4_2 <- conv4_2
I0216 00:35:52.469269  1839 net.cpp:397] relu4_2 -> conv4_2 (in-place)
I0216 00:35:52.469410  1839 net.cpp:150] Setting up relu4_2
I0216 00:35:52.469419  1839 net.cpp:157] Top shape: 2 512 75 125 (9600000)
I0216 00:35:52.469424  1839 net.cpp:165] Memory required for data: 2606400216
I0216 00:35:52.469427  1839 layer_factory.hpp:77] Creating layer conv4_3
I0216 00:35:52.469436  1839 net.cpp:106] Creating Layer conv4_3
I0216 00:35:52.469440  1839 net.cpp:454] conv4_3 <- conv4_2
I0216 00:35:52.469446  1839 net.cpp:411] conv4_3 -> conv4_3
I0216 00:35:52.475055  1839 net.cpp:150] Setting up conv4_3
I0216 00:35:52.475077  1839 net.cpp:157] Top shape: 2 512 75 125 (9600000)
I0216 00:35:52.475081  1839 net.cpp:165] Memory required for data: 2644800216
I0216 00:35:52.475088  1839 layer_factory.hpp:77] Creating layer relu4_3
I0216 00:35:52.475096  1839 net.cpp:106] Creating Layer relu4_3
I0216 00:35:52.475101  1839 net.cpp:454] relu4_3 <- conv4_3
I0216 00:35:52.475107  1839 net.cpp:397] relu4_3 -> conv4_3 (in-place)
I0216 00:35:52.475349  1839 net.cpp:150] Setting up relu4_3
I0216 00:35:52.475360  1839 net.cpp:157] Top shape: 2 512 75 125 (9600000)
I0216 00:35:52.475365  1839 net.cpp:165] Memory required for data: 2683200216
I0216 00:35:52.475369  1839 layer_factory.hpp:77] Creating layer pool4
I0216 00:35:52.475378  1839 net.cpp:106] Creating Layer pool4
I0216 00:35:52.475383  1839 net.cpp:454] pool4 <- conv4_3
I0216 00:35:52.475389  1839 net.cpp:411] pool4 -> pool4
I0216 00:35:52.475430  1839 net.cpp:150] Setting up pool4
I0216 00:35:52.475438  1839 net.cpp:157] Top shape: 2 512 38 63 (2451456)
I0216 00:35:52.475441  1839 net.cpp:165] Memory required for data: 2693006040
I0216 00:35:52.475445  1839 layer_factory.hpp:77] Creating layer conv5_1
I0216 00:35:52.475455  1839 net.cpp:106] Creating Layer conv5_1
I0216 00:35:52.475459  1839 net.cpp:454] conv5_1 <- pool4
I0216 00:35:52.475466  1839 net.cpp:411] conv5_1 -> conv5_1
I0216 00:35:52.481050  1839 net.cpp:150] Setting up conv5_1
I0216 00:35:52.481072  1839 net.cpp:157] Top shape: 2 512 38 63 (2451456)
I0216 00:35:52.481077  1839 net.cpp:165] Memory required for data: 2702811864
I0216 00:35:52.481084  1839 layer_factory.hpp:77] Creating layer relu5_1
I0216 00:35:52.481092  1839 net.cpp:106] Creating Layer relu5_1
I0216 00:35:52.481097  1839 net.cpp:454] relu5_1 <- conv5_1
I0216 00:35:52.481103  1839 net.cpp:397] relu5_1 -> conv5_1 (in-place)
I0216 00:35:52.481248  1839 net.cpp:150] Setting up relu5_1
I0216 00:35:52.481258  1839 net.cpp:157] Top shape: 2 512 38 63 (2451456)
I0216 00:35:52.481262  1839 net.cpp:165] Memory required for data: 2712617688
I0216 00:35:52.481266  1839 layer_factory.hpp:77] Creating layer conv5_2
I0216 00:35:52.481276  1839 net.cpp:106] Creating Layer conv5_2
I0216 00:35:52.481279  1839 net.cpp:454] conv5_2 <- conv5_1
I0216 00:35:52.481286  1839 net.cpp:411] conv5_2 -> conv5_2
I0216 00:35:52.486953  1839 net.cpp:150] Setting up conv5_2
I0216 00:35:52.486976  1839 net.cpp:157] Top shape: 2 512 38 63 (2451456)
I0216 00:35:52.486980  1839 net.cpp:165] Memory required for data: 2722423512
I0216 00:35:52.486989  1839 layer_factory.hpp:77] Creating layer relu5_2
I0216 00:35:52.486996  1839 net.cpp:106] Creating Layer relu5_2
I0216 00:35:52.487001  1839 net.cpp:454] relu5_2 <- conv5_2
I0216 00:35:52.487007  1839 net.cpp:397] relu5_2 -> conv5_2 (in-place)
I0216 00:35:52.487154  1839 net.cpp:150] Setting up relu5_2
I0216 00:35:52.487162  1839 net.cpp:157] Top shape: 2 512 38 63 (2451456)
I0216 00:35:52.487166  1839 net.cpp:165] Memory required for data: 2732229336
I0216 00:35:52.487170  1839 layer_factory.hpp:77] Creating layer conv5_3
I0216 00:35:52.487180  1839 net.cpp:106] Creating Layer conv5_3
I0216 00:35:52.487185  1839 net.cpp:454] conv5_3 <- conv5_2
I0216 00:35:52.487191  1839 net.cpp:411] conv5_3 -> conv5_3
I0216 00:35:52.492835  1839 net.cpp:150] Setting up conv5_3
I0216 00:35:52.492856  1839 net.cpp:157] Top shape: 2 512 38 63 (2451456)
I0216 00:35:52.492861  1839 net.cpp:165] Memory required for data: 2742035160
I0216 00:35:52.492868  1839 layer_factory.hpp:77] Creating layer relu5_3
I0216 00:35:52.492877  1839 net.cpp:106] Creating Layer relu5_3
I0216 00:35:52.492882  1839 net.cpp:454] relu5_3 <- conv5_3
I0216 00:35:52.492888  1839 net.cpp:397] relu5_3 -> conv5_3 (in-place)
I0216 00:35:52.493134  1839 net.cpp:150] Setting up relu5_3
I0216 00:35:52.493145  1839 net.cpp:157] Top shape: 2 512 38 63 (2451456)
I0216 00:35:52.493149  1839 net.cpp:165] Memory required for data: 2751840984
I0216 00:35:52.493154  1839 layer_factory.hpp:77] Creating layer conv5_3_relu5_3_0_split
I0216 00:35:52.493173  1839 net.cpp:106] Creating Layer conv5_3_relu5_3_0_split
I0216 00:35:52.493180  1839 net.cpp:454] conv5_3_relu5_3_0_split <- conv5_3
I0216 00:35:52.493185  1839 net.cpp:411] conv5_3_relu5_3_0_split -> conv5_3_relu5_3_0_split_0
I0216 00:35:52.493192  1839 net.cpp:411] conv5_3_relu5_3_0_split -> conv5_3_relu5_3_0_split_1
I0216 00:35:52.493232  1839 net.cpp:150] Setting up conv5_3_relu5_3_0_split
I0216 00:35:52.493239  1839 net.cpp:157] Top shape: 2 512 38 63 (2451456)
I0216 00:35:52.493243  1839 net.cpp:157] Top shape: 2 512 38 63 (2451456)
I0216 00:35:52.493247  1839 net.cpp:165] Memory required for data: 2771452632
I0216 00:35:52.493250  1839 layer_factory.hpp:77] Creating layer roi_pool5
I0216 00:35:52.493271  1839 net.cpp:106] Creating Layer roi_pool5
I0216 00:35:52.493275  1839 net.cpp:454] roi_pool5 <- conv5_3_relu5_3_0_split_0
I0216 00:35:52.493280  1839 net.cpp:454] roi_pool5 <- rois
I0216 00:35:52.493285  1839 net.cpp:411] roi_pool5 -> pool5
I0216 00:35:52.493293  1839 roi_pooling_layer.cpp:30] Spatial scale: 0.0625
I0216 00:35:52.493336  1839 net.cpp:150] Setting up roi_pool5
I0216 00:35:52.493343  1839 net.cpp:157] Top shape: 1 512 7 7 (25088)
I0216 00:35:52.493347  1839 net.cpp:165] Memory required for data: 2771552984
I0216 00:35:52.493351  1839 layer_factory.hpp:77] Creating layer fc6
I0216 00:35:52.493358  1839 net.cpp:106] Creating Layer fc6
I0216 00:35:52.493362  1839 net.cpp:454] fc6 <- pool5
I0216 00:35:52.493367  1839 net.cpp:411] fc6 -> fc6
I0216 00:35:52.715765  1839 net.cpp:150] Setting up fc6
I0216 00:35:52.715801  1839 net.cpp:157] Top shape: 1 4096 (4096)
I0216 00:35:52.715806  1839 net.cpp:165] Memory required for data: 2771569368
I0216 00:35:52.715817  1839 layer_factory.hpp:77] Creating layer relu6
I0216 00:35:52.715831  1839 net.cpp:106] Creating Layer relu6
I0216 00:35:52.715837  1839 net.cpp:454] relu6 <- fc6
I0216 00:35:52.715855  1839 net.cpp:397] relu6 -> fc6 (in-place)
I0216 00:35:52.716099  1839 net.cpp:150] Setting up relu6
I0216 00:35:52.716109  1839 net.cpp:157] Top shape: 1 4096 (4096)
I0216 00:35:52.716112  1839 net.cpp:165] Memory required for data: 2771585752
I0216 00:35:52.716117  1839 layer_factory.hpp:77] Creating layer drop6
I0216 00:35:52.716127  1839 net.cpp:106] Creating Layer drop6
I0216 00:35:52.716133  1839 net.cpp:454] drop6 <- fc6
I0216 00:35:52.716140  1839 net.cpp:397] drop6 -> fc6 (in-place)
I0216 00:35:52.716167  1839 net.cpp:150] Setting up drop6
I0216 00:35:52.716174  1839 net.cpp:157] Top shape: 1 4096 (4096)
I0216 00:35:52.716178  1839 net.cpp:165] Memory required for data: 2771602136
I0216 00:35:52.716182  1839 layer_factory.hpp:77] Creating layer fc7
I0216 00:35:52.716190  1839 net.cpp:106] Creating Layer fc7
I0216 00:35:52.716194  1839 net.cpp:454] fc7 <- fc6
I0216 00:35:52.716202  1839 net.cpp:411] fc7 -> fc7
I0216 00:35:52.753218  1839 net.cpp:150] Setting up fc7
I0216 00:35:52.753254  1839 net.cpp:157] Top shape: 1 4096 (4096)
I0216 00:35:52.753258  1839 net.cpp:165] Memory required for data: 2771618520
I0216 00:35:52.753270  1839 layer_factory.hpp:77] Creating layer relu7
I0216 00:35:52.753284  1839 net.cpp:106] Creating Layer relu7
I0216 00:35:52.753290  1839 net.cpp:454] relu7 <- fc7
I0216 00:35:52.753310  1839 net.cpp:397] relu7 -> fc7 (in-place)
I0216 00:35:52.753731  1839 net.cpp:150] Setting up relu7
I0216 00:35:52.753744  1839 net.cpp:157] Top shape: 1 4096 (4096)
I0216 00:35:52.753747  1839 net.cpp:165] Memory required for data: 2771634904
I0216 00:35:52.753751  1839 layer_factory.hpp:77] Creating layer drop7
I0216 00:35:52.753762  1839 net.cpp:106] Creating Layer drop7
I0216 00:35:52.753765  1839 net.cpp:454] drop7 <- fc7
I0216 00:35:52.753770  1839 net.cpp:397] drop7 -> fc7 (in-place)
I0216 00:35:52.753814  1839 net.cpp:150] Setting up drop7
I0216 00:35:52.753823  1839 net.cpp:157] Top shape: 1 4096 (4096)
I0216 00:35:52.753826  1839 net.cpp:165] Memory required for data: 2771651288
I0216 00:35:52.753829  1839 layer_factory.hpp:77] Creating layer fc7_drop7_0_split
I0216 00:35:52.753837  1839 net.cpp:106] Creating Layer fc7_drop7_0_split
I0216 00:35:52.753840  1839 net.cpp:454] fc7_drop7_0_split <- fc7
I0216 00:35:52.753847  1839 net.cpp:411] fc7_drop7_0_split -> fc7_drop7_0_split_0
I0216 00:35:52.753854  1839 net.cpp:411] fc7_drop7_0_split -> fc7_drop7_0_split_1
I0216 00:35:52.753893  1839 net.cpp:150] Setting up fc7_drop7_0_split
I0216 00:35:52.753901  1839 net.cpp:157] Top shape: 1 4096 (4096)
I0216 00:35:52.753906  1839 net.cpp:157] Top shape: 1 4096 (4096)
I0216 00:35:52.753909  1839 net.cpp:165] Memory required for data: 2771684056
I0216 00:35:52.753913  1839 layer_factory.hpp:77] Creating layer cls_score
I0216 00:35:52.753924  1839 net.cpp:106] Creating Layer cls_score
I0216 00:35:52.753929  1839 net.cpp:454] cls_score <- fc7_drop7_0_split_0
I0216 00:35:52.753935  1839 net.cpp:411] cls_score -> cls_score
I0216 00:35:52.754524  1839 net.cpp:150] Setting up cls_score
I0216 00:35:52.754532  1839 net.cpp:157] Top shape: 1 4 (4)
I0216 00:35:52.754535  1839 net.cpp:165] Memory required for data: 2771684072
I0216 00:35:52.754541  1839 layer_factory.hpp:77] Creating layer bbox_pred
I0216 00:35:52.754549  1839 net.cpp:106] Creating Layer bbox_pred
I0216 00:35:52.754552  1839 net.cpp:454] bbox_pred <- fc7_drop7_0_split_1
I0216 00:35:52.754559  1839 net.cpp:411] bbox_pred -> bbox_pred
I0216 00:35:52.756463  1839 net.cpp:150] Setting up bbox_pred
I0216 00:35:52.756470  1839 net.cpp:157] Top shape: 1 16 (16)
I0216 00:35:52.756474  1839 net.cpp:165] Memory required for data: 2771684136
I0216 00:35:52.756487  1839 layer_factory.hpp:77] Creating layer loss_cls
I0216 00:35:52.756497  1839 net.cpp:106] Creating Layer loss_cls
I0216 00:35:52.756512  1839 net.cpp:454] loss_cls <- cls_score
I0216 00:35:52.756518  1839 net.cpp:454] loss_cls <- labels
I0216 00:35:52.756525  1839 net.cpp:411] loss_cls -> loss_cls
…
I0216 00:35:52.756970  1839 net.cpp:157] Top shape: (1)
I0216 00:35:52.756974  1839 net.cpp:160]     with loss weight 1
I0216 00:35:52.756979  1839 net.cpp:165] Memory required for data: 2771684144
I0216 00:35:52.756983  1839 layer_factory.hpp:77] Creating layer rpn_conv/3x3
I0216 00:35:52.756995  1839 net.cpp:106] Creating Layer rpn_conv/3x3
I0216 00:35:52.757001  1839 net.cpp:454] rpn_conv/3x3 <- conv5_3_relu5_3_0_split_1
I0216 00:35:52.757007  1839 net.cpp:411] rpn_conv/3x3 -> rpn/output
I0216 00:35:52.823577  1839 net.cpp:150] Setting up rpn_conv/3x3
I0216 00:35:52.823596  1839 net.cpp:157] Top shape: 2 512 38 63 (2451456)
I0216 00:35:52.823599  1839 net.cpp:165] Memory required for data: 2781489968
I0216 00:35:52.823606  1839 layer_factory.hpp:77] Creating layer rpn_relu/3x3
I0216 00:35:52.823616  1839 net.cpp:106] Creating Layer rpn_relu/3x3
I0216 00:35:52.823621  1839 net.cpp:454] rpn_relu/3x3 <- rpn/output
I0216 00:35:52.823638  1839 net.cpp:397] rpn_relu/3x3 -> rpn/output (in-place)
I0216 00:35:52.823915  1839 net.cpp:150] Setting up rpn_relu/3x3
I0216 00:35:52.823956  1839 net.cpp:157] Top shape: 2 512 38 63 (2451456)
I0216 00:35:52.823961  1839 net.cpp:165] Memory required for data: 2791295792
I0216 00:35:52.823977  1839 layer_factory.hpp:77] Creating layer rpn/output_rpn_relu/3x3_0_split
I0216 00:35:52.823995  1839 net.cpp:106] Creating Layer rpn/output_rpn_relu/3x3_0_split
I0216 00:35:52.824000  1839 net.cpp:454] rpn/output_rpn_relu/3x3_0_split <- rpn/output
I0216 00:35:52.824007  1839 net.cpp:411] rpn/output_rpn_relu/3x3_0_split -> rpn/output_rpn_relu/3x3_0_split_0
I0216 00:35:52.824013  1839 net.cpp:411] rpn/output_rpn_relu/3x3_0_split -> rpn/output_rpn_relu/3x3_0_split_1
I0216 00:35:52.824056  1839 net.cpp:150] Setting up rpn/output_rpn_relu/3x3_0_split
I0216 00:35:52.824064  1839 net.cpp:157] Top shape: 2 512 38 63 (2451456)
I0216 00:35:52.824069  1839 net.cpp:157] Top shape: 2 512 38 63 (2451456)
I0216 00:35:52.824072  1839 net.cpp:165] Memory required for data: 2810907440
I0216 00:35:52.824076  1839 layer_factory.hpp:77] Creating layer rpn_cls_score
I0216 00:35:52.824090  1839 net.cpp:106] Creating Layer rpn_cls_score
I0216 00:35:52.824093  1839 net.cpp:454] rpn_cls_score <- rpn/output_rpn_relu/3x3_0_split_0
I0216 00:35:52.824100  1839 net.cpp:411] rpn_cls_score -> rpn_cls_score
I0216 00:35:52.825129  1839 net.cpp:150] Setting up rpn_cls_score
I0216 00:35:52.825141  1839 net.cpp:157] Top shape: 2 18 38 63 (86184)
I0216 00:35:52.825145  1839 net.cpp:165] Memory required for data: 2811252176
I0216 00:35:52.825151  1839 layer_factory.hpp:77] Creating layer rpn_bbox_pred
I0216 00:35:52.825162  1839 net.cpp:106] Creating Layer rpn_bbox_pred
I0216 00:35:52.825166  1839 net.cpp:454] rpn_bbox_pred <- rpn/output_rpn_relu/3x3_0_split_1
I0216 00:35:52.825186  1839 net.cpp:411] rpn_bbox_pred -> rpn_bbox_pred
I0216 00:35:52.826592  1839 net.cpp:150] Setting up rpn_bbox_pred
I0216 00:35:52.826606  1839 net.cpp:157] Top shape: 2 36 38 63 (172368)
I0216 00:35:52.826611  1839 net.cpp:165] Memory required for data: 2811941648
I0216 00:35:52.826617  1839 layer_factory.hpp:77] Creating layer silence_rpn_cls_score
I0216 00:35:52.826623  1839 net.cpp:106] Creating Layer silence_rpn_cls_score
I0216 00:35:52.826627  1839 net.cpp:454] silence_rpn_cls_score <- rpn_cls_score
I0216 00:35:52.826644  1839 net.cpp:150] Setting up silence_rpn_cls_score
…
