…
I0216 20:37:49.295742 20970 solver.cpp:81] Creating training net from train_net file: models/pascal_voc/VGG16/faster_rcnn_alt_opt/stage2_fast_rcnn_train.pt
I0216 20:37:49.296720 20970 net.cpp:49] Initializing net from parameters: 
name: "VGG_ILSVRC_16_layers"
state {
  phase: TRAIN
}
layer {
  name: "data"
  type: "Python"
  top: "data"
  top: "rois"
  top: "labels"
  top: "bbox_targets"
  top: "bbox_inside_weights"
  top: "bbox_outside_weights"
  python_param {
    module: "roi_data_layer.layer"
    layer: "RoIDataLayer"
    param_str: "\'num_classes\': 4"
  }
}
layer {
  name: "conv1_1"
  type: "Convolution"
  bottom: "data"
  top: "conv1_1"
  param {
    lr_mult: 0
    decay_mult: 0
  }
  param {
    lr_mult: 0
    decay_mult: 0
  }
  convolution_param {
    num_output: 64
    pad: 1
    kernel_size: 3
  }
}
layer {
  name: "relu1_1"
  type: "ReLU"
  bottom: "conv1_1"
  top: "conv1_1"
}
layer {
  name: "conv1_2"
  type: "Convolution"
  bottom: "conv1_1"
  top: "conv1_2"
  param {
    lr_mult: 0
    decay_mult: 0
  }
  param {
    lr_mult: 0
    decay_mult: 0
  }
  convolution_param {
    num_output: 64
    pad: 1
    kernel_size: 3
  }
}
layer {
  name: "relu1_2"
  type: "ReLU"
  bottom: "conv1_2"
  top: "conv1_2"
}
layer {
  name: "pool1"
  type: "Pooling"
  bottom: "conv1_2"
  top: "pool1"
  pooling_param {
    pool: MAX
    kernel_size: 2
    stride: 2
  }
}
layer {
  name: "conv2_1"
  type: "Convolution"
  bottom: "pool1"
  top: "conv2_1"
  param {
    lr_mult: 0
    decay_mult: 0
  }
  param {
    lr_mult: 0
    decay_mult: 0
  }
  convolution_param {
    num_output: 128
    pad: 1
    kernel_size: 3
  }
}
layer {
  name: "relu2_1"
  type: "ReLU"
  bottom: "conv2_1"
  top: "conv2_1"
}
layer {
  name: "conv2_2"
  type: "Convolution"
  bottom: "conv2_1"
  top: "conv2_2"
  param {
    lr_mult: 0
    decay_mult: 0
  }
  param {
    lr_mult: 0
    decay_mult: 0
  }
  convolution_param {
    num_output: 128
    pad: 1
    kernel_size: 3
  }
}
layer {
  name: "relu2_2"
  type: "ReLU"
  bottom: "conv2_2"
  top: "conv2_2"
}
layer {
  name: "pool2"
  type: "Pooling"
  bottom: "conv2_2"
  top: "pool2"
  pooling_param {
    pool: MAX
    kernel_size: 2
    stride: 2
  }
}
layer {
  name: "conv3_1"
  type: "Convolution"
  bottom: "pool2"
  top: "conv3_1"
  param {
    lr_mult: 0
    decay_mult: 0
  }
  param {
    lr_mult: 0
    decay_mult: 0
  }
  convolution_param {
    num_output: 256
    pad: 1
    kernel_size: 3
  }
}
layer {
  name: "relu3_1"
  type: "ReLU"
  bottom: "conv3_1"
  top: "conv3_1"
}
layer {
  name: "conv3_2"
  type: "Convolution"
  bottom: "conv3_1"
  top: "conv3_2"
  param {
    lr_mult: 0
    decay_mult: 0
  }
  param {
    lr_mult: 0
    decay_mult: 0
  }
  convolution_param {
    num_output: 256
    pad: 1
    kernel_size: 3
  }
}
layer {
  name: "relu3_2"
  type: "ReLU"
  bottom: "conv3_2"
  top: "conv3_2"
}
layer {
  name: "conv3_3"
  type: "Convolution"
  bottom: "conv3_2"
  top: "conv3_3"
  param {
    lr_mult: 0
    decay_mult: 0
  }
  param {
    lr_mult: 0
    decay_mult: 0
  }
  convolution_param {
    num_output: 256
    pad: 1
    kernel_size: 3
  }
}
layer {
  name: "relu3_3"
  type: "ReLU"
  bottom: "conv3_3"
  top: "conv3_3"
}
layer {
  name: "pool3"
  type: "Pooling"
  bottom: "conv3_3"
  top: "pool3"
  pooling_param {
    pool: MAX
    kernel_size: 2
    stride: 2
  }
}
layer {
  name: "conv4_1"
  type: "Convolution"
  bottom: "pool3"
  top: "conv4_1"
  param {
    lr_mult: 0
    decay_mult: 0
  }
  param {
    lr_mult: 0
    decay_mult: 0
  }
  convolution_param {
    num_output: 512
    pad: 1
    kernel_size: 3
  }
}
layer {
  name: "relu4_1"
  type: "ReLU"
  bottom: "conv4_1"
  top: "conv4_1"
}
layer {
  name: "conv4_2"
  type: "Convolution"
  bottom: "conv4_1"
  top: "conv4_2"
  param {
    lr_mult: 0
    decay_mult: 0
  }
  param {
    lr_mult: 0
    decay_mult: 0
  }
  convolution_param {
    num_output: 512
    pad: 1
    kernel_size: 3
  }
}
layer {
  name: "relu4_2"
  type: "ReLU"
  bottom: "conv4_2"
  top: "conv4_2"
}
layer {
  name: "conv4_3"
  type: "Convolution"
  bottom: "conv4_2"
  top: "conv4_3"
  param {
    lr_mult: 0
    decay_mult: 0
  }
  param {
    lr_mult: 0
    decay_mult: 0
  }
  convolution_param {
    num_output: 512
    pad: 1
    kernel_size: 3
  }
}
layer {
  name: "relu4_3"
  type: "ReLU"
  bottom: "conv4_3"
  top: "conv4_3"
}
layer {
  name: "pool4"
  type: "Pooling"
  bottom: "conv4_3"
  top: "pool4"
  pooling_param {
    pool: MAX
    kernel_size: 2
    stride: 2
  }
}
layer {
  name: "conv5_1"
  type: "Convolution"
  bottom: "pool4"
  top: "conv5_1"
  param {
    lr_mult: 0
    decay_mult: 0
  }
  param {
    lr_mult: 0
    decay_mult: 0
  }
  convolution_param {
    num_output: 512
    pad: 1
    kernel_size: 3
  }
}
layer {
  name: "relu5_1"
  type: "ReLU"
  bottom: "conv5_1"
  top: "conv5_1"
}
layer {
  name: "conv5_2"
  type: "Convolution"
  bottom: "conv5_1"
  top: "conv5_2"
  param {
    lr_mult: 0
    decay_mult: 0
  }
  param {
    lr_mult: 0
    decay_mult: 0
  }
  convolution_param {
    num_output: 512
    pad: 1
    kernel_size: 3
  }
}
layer {
  name: "relu5_2"
  type: "ReLU"
  bottom: "conv5_2"
  top: "conv5_2"
}
layer {
  name: "conv5_3"
  type: "Convolution"
  bottom: "conv5_2"
  top: "conv5_3"
  param {
    lr_mult: 0
    decay_mult: 0
  }
  param {
    lr_mult: 0
    decay_mult: 0
  }
  convolution_param {
    num_output: 512
    pad: 1
    kernel_size: 3
  }
}
layer {
  name: "relu5_3"
  type: "ReLU"
  bottom: "conv5_3"
  top: "conv5_3"
}
layer {
  name: "roi_pool5"
  type: "ROIPooling"
  bottom: "conv5_3"
  bottom: "rois"
  top: "pool5"
  roi_pooling_param {
    pooled_h: 7
    pooled_w: 7
    spatial_scale: 0.0625
  }
}
layer {
  name: "fc6"
  type: "InnerProduct"
  bottom: "pool5"
  top: "fc6"
  param {
    lr_mult: 1
  }
  param {
    lr_mult: 2
  }
  inner_product_param {
    num_output: 4096
  }
}
layer {
  name: "relu6"
  type: "ReLU"
  bottom: "fc6"
  top: "fc6"
}
layer {
  name: "drop6"
  type: "Dropout"
  bottom: "fc6"
  top: "fc6"
  dropout_param {
    dropout_ratio: 0.5
  }
}
layer {
  name: "fc7"
  type: "InnerProduct"
  bottom: "fc6"
  top: "fc7"
  param {
    lr_mult: 1
  }
  param {
    lr_mult: 2
  }
  inner_product_param {
    num_output: 4096
  }
}
layer {
  name: "relu7"
  type: "ReLU"
  bottom: "fc7"
  top: "fc7"
}
layer {
  name: "drop7"
  type: "Dropout"
  bottom: "fc7"
  top: "fc7"
  dropout_param {
    dropout_ratio: 0.5
  }
}
layer {
  name: "cls_score"
  type: "InnerProduct"
  bottom: "fc7"
  top: "cls_score"
  param {
    lr_mult: 1
  }
  param {
    lr_mult: 2
  }
  inner_product_param {
    num_output: 4
    weight_filler {
      type: "gaussian"
      std: 0.01
    }
    bias_filler {
      type: "constant"
      value: 0
    }
  }
}
layer {
  name: "bbox_pred"
  type: "InnerProduct"
  bottom: "fc7"
  top: "bbox_pred"
  param {
    lr_mult: 1
  }
  param {
    lr_mult: 2
  }
  inner_product_param {
    num_output: 16
    weight_filler {
      type: "gaussian"
      std: 0.001
    }
    bias_filler {
      type: "constant"
      value: 0
    }
  }
}
layer {
  name: "loss_cls"
  type: "SoftmaxWithLoss"
  bottom: "cls_score"
  bottom: "labels"
  top: "loss_cls"
  loss_weight: 1
}
layer {
  name: "loss_bbox"
  type: "SmoothL1Loss"
  bottom: "bbox_pred"
  bottom: "bbox_targets"
  bottom: "bbox_inside_weights"
  bottom: "bbox_outside_weights"
  top: "loss_bbox"
  loss_weight: 1
}
layer {
  name: "rpn_conv/3x3"
  type: "Convolution"
  bottom: "conv5_3"
  top: "rpn/output"
  param {
    lr_mult: 0
    decay_mult: 0
  }
  param {
    lr_mult: 0
    decay_mult: 0
  }
  convolution_param {
    num_output: 512
    pad: 1
    kernel_size: 3
    stride: 1
    weight_filler {
      type: "gaussian"
      std: 0.01
    }
    bias_filler {
      type: "constant"
      value: 0
    }
  }
}
layer {
  name: "rpn_relu/3x3"
  type: "ReLU"
  bottom: "rpn/output"
  top: "rpn/output"
}
layer {
  name: "rpn_cls_score"
  type: "Convolution"
  bottom: "rpn/output"
  top: "rpn_cls_score"
  param {
    lr_mult: 0
    decay_mult: 0
  }
  param {
    lr_mult: 0
    decay_mult: 0
  }
  convolution_param {
    num_output: 18
    pad: 0
    kernel_size: 1
    stride: 1
    weight_filler {
      type: "gaussian"
      std: 0.01
    }
    bias_filler {
      type: "constant"
      value: 0
    }
  }
}
layer {
  name: "rpn_bbox_pred"
  type: "Convolution"
  bottom: "rpn/output"
  top: "rpn_bbox_pred"
  param {
    lr_mult: 0
    decay_mult: 0
  }
  param {
    lr_mult: 0
    decay_mult: 0
  }
  convolution_param {
    num_output: 36
    pad: 0
    kernel_size: 1
    stride: 1
    weight_filler {
      type: "gaussian"
      std: 0.01
    }
    bias_filler {
      type: "constant"
      value: 0
    }
  }
}
layer {
  name: "silence_rpn_cls_score"
  type: "Silence"
  bottom: "rpn_cls_score"
}
layer {
  name: "silence_rpn_bbox_pred"
  type: "Silence"
  bottom: "rpn_bbox_pred"
}
I0216 20:37:49.297032 20970 layer_factory.hpp:77] Creating layer data
I0216 20:37:49.297783 20970 net.cpp:106] Creating Layer data
I0216 20:37:49.297796 20970 net.cpp:411] data -> data
I0216 20:37:49.297807 20970 net.cpp:411] data -> rois
I0216 20:37:49.297814 20970 net.cpp:411] data -> labels
I0216 20:37:49.297821 20970 net.cpp:411] data -> bbox_targets
I0216 20:37:49.297826 20970 net.cpp:411] data -> bbox_inside_weights
I0216 20:37:49.297832 20970 net.cpp:411] data -> bbox_outside_weights
RoiDataLayer: name_to_top: {'bbox_inside_weights': 4, 'labels': 2, 'rois': 1, 'bbox_targets': 3, 'bbox_outside_weights': 5, 'data': 0}
I0216 20:37:49.311432 20970 net.cpp:150] Setting up data
I0216 20:37:49.311461 20970 net.cpp:157] Top shape: 2 3 600 1000 (3600000)
I0216 20:37:49.311470 20970 net.cpp:157] Top shape: 1 5 (5)
I0216 20:37:49.311475 20970 net.cpp:157] Top shape: 1 (1)
I0216 20:37:49.311478 20970 net.cpp:157] Top shape: 1 16 (16)
I0216 20:37:49.311482 20970 net.cpp:157] Top shape: 1 16 (16)
I0216 20:37:49.311486 20970 net.cpp:157] Top shape: 1 16 (16)
I0216 20:37:49.311491 20970 net.cpp:165] Memory required for data: 14400216
I0216 20:37:49.311496 20970 layer_factory.hpp:77] Creating layer conv1_1
I0216 20:37:49.311512 20970 net.cpp:106] Creating Layer conv1_1
I0216 20:37:49.311518 20970 net.cpp:454] conv1_1 <- data
I0216 20:37:49.311544 20970 net.cpp:411] conv1_1 -> conv1_1
I0216 20:37:49.498219 20970 net.cpp:150] Setting up conv1_1
I0216 20:37:49.498252 20970 net.cpp:157] Top shape: 2 64 600 1000 (76800000)
I0216 20:37:49.498257 20970 net.cpp:165] Memory required for data: 321600216
I0216 20:37:49.498275 20970 layer_factory.hpp:77] Creating layer relu1_1
I0216 20:37:49.498303 20970 net.cpp:106] Creating Layer relu1_1
I0216 20:37:49.498309 20970 net.cpp:454] relu1_1 <- conv1_1
I0216 20:37:49.498316 20970 net.cpp:397] relu1_1 -> conv1_1 (in-place)
I0216 20:37:49.498750 20970 net.cpp:150] Setting up relu1_1
I0216 20:37:49.498777 20970 net.cpp:157] Top shape: 2 64 600 1000 (76800000)
I0216 20:37:49.498801 20970 net.cpp:165] Memory required for data: 628800216
I0216 20:37:49.498819 20970 layer_factory.hpp:77] Creating layer conv1_2
I0216 20:37:49.498847 20970 net.cpp:106] Creating Layer conv1_2
I0216 20:37:49.498857 20970 net.cpp:454] conv1_2 <- conv1_1
I0216 20:37:49.498867 20970 net.cpp:411] conv1_2 -> conv1_2
I0216 20:37:49.503882 20970 net.cpp:150] Setting up conv1_2
I0216 20:37:49.503896 20970 net.cpp:157] Top shape: 2 64 600 1000 (76800000)
I0216 20:37:49.503901 20970 net.cpp:165] Memory required for data: 936000216
I0216 20:37:49.503909 20970 layer_factory.hpp:77] Creating layer relu1_2
I0216 20:37:49.503917 20970 net.cpp:106] Creating Layer relu1_2
I0216 20:37:49.503921 20970 net.cpp:454] relu1_2 <- conv1_2
I0216 20:37:49.503938 20970 net.cpp:397] relu1_2 -> conv1_2 (in-place)
I0216 20:37:49.504096 20970 net.cpp:150] Setting up relu1_2
I0216 20:37:49.504106 20970 net.cpp:157] Top shape: 2 64 600 1000 (76800000)
I0216 20:37:49.504109 20970 net.cpp:165] Memory required for data: 1243200216
I0216 20:37:49.504113 20970 layer_factory.hpp:77] Creating layer pool1
I0216 20:37:49.504124 20970 net.cpp:106] Creating Layer pool1
I0216 20:37:49.504140 20970 net.cpp:454] pool1 <- conv1_2
I0216 20:37:49.504149 20970 net.cpp:411] pool1 -> pool1
I0216 20:37:49.504204 20970 net.cpp:150] Setting up pool1
I0216 20:37:49.504214 20970 net.cpp:157] Top shape: 2 64 300 500 (19200000)
I0216 20:37:49.504217 20970 net.cpp:165] Memory required for data: 1320000216
I0216 20:37:49.504221 20970 layer_factory.hpp:77] Creating layer conv2_1
I0216 20:37:49.504230 20970 net.cpp:106] Creating Layer conv2_1
I0216 20:37:49.504237 20970 net.cpp:454] conv2_1 <- pool1
I0216 20:37:49.504245 20970 net.cpp:411] conv2_1 -> conv2_1
I0216 20:37:49.508397 20970 net.cpp:150] Setting up conv2_1
I0216 20:37:49.508411 20970 net.cpp:157] Top shape: 2 128 300 500 (38400000)
I0216 20:37:49.508415 20970 net.cpp:165] Memory required for data: 1473600216
I0216 20:37:49.508424 20970 layer_factory.hpp:77] Creating layer relu2_1
I0216 20:37:49.508432 20970 net.cpp:106] Creating Layer relu2_1
I0216 20:37:49.508435 20970 net.cpp:454] relu2_1 <- conv2_1
I0216 20:37:49.508453 20970 net.cpp:397] relu2_1 -> conv2_1 (in-place)
I0216 20:37:49.508611 20970 net.cpp:150] Setting up relu2_1
I0216 20:37:49.508621 20970 net.cpp:157] Top shape: 2 128 300 500 (38400000)
I0216 20:37:49.508625 20970 net.cpp:165] Memory required for data: 1627200216
I0216 20:37:49.508630 20970 layer_factory.hpp:77] Creating layer conv2_2
I0216 20:37:49.508641 20970 net.cpp:106] Creating Layer conv2_2
I0216 20:37:49.508646 20970 net.cpp:454] conv2_2 <- conv2_1
I0216 20:37:49.508652 20970 net.cpp:411] conv2_2 -> conv2_2
I0216 20:37:49.522208 20970 net.cpp:150] Setting up conv2_2
I0216 20:37:49.522223 20970 net.cpp:157] Top shape: 2 128 300 500 (38400000)
I0216 20:37:49.522243 20970 net.cpp:165] Memory required for data: 1780800216
I0216 20:37:49.522250 20970 layer_factory.hpp:77] Creating layer relu2_2
I0216 20:37:49.522270 20970 net.cpp:106] Creating Layer relu2_2
I0216 20:37:49.522276 20970 net.cpp:454] relu2_2 <- conv2_2
I0216 20:37:49.522282 20970 net.cpp:397] relu2_2 -> conv2_2 (in-place)
I0216 20:37:49.522769 20970 net.cpp:150] Setting up relu2_2
I0216 20:37:49.522781 20970 net.cpp:157] Top shape: 2 128 300 500 (38400000)
I0216 20:37:49.522785 20970 net.cpp:165] Memory required for data: 1934400216
I0216 20:37:49.522789 20970 layer_factory.hpp:77] Creating layer pool2
I0216 20:37:49.522797 20970 net.cpp:106] Creating Layer pool2
I0216 20:37:49.522801 20970 net.cpp:454] pool2 <- conv2_2
I0216 20:37:49.522806 20970 net.cpp:411] pool2 -> pool2
I0216 20:37:49.522871 20970 net.cpp:150] Setting up pool2
I0216 20:37:49.522879 20970 net.cpp:157] Top shape: 2 128 150 250 (9600000)
I0216 20:37:49.522883 20970 net.cpp:165] Memory required for data: 1972800216
I0216 20:37:49.522887 20970 layer_factory.hpp:77] Creating layer conv3_1
I0216 20:37:49.522897 20970 net.cpp:106] Creating Layer conv3_1
I0216 20:37:49.522900 20970 net.cpp:454] conv3_1 <- pool2
I0216 20:37:49.522907 20970 net.cpp:411] conv3_1 -> conv3_1
I0216 20:37:49.524708 20970 net.cpp:150] Setting up conv3_1
I0216 20:37:49.524721 20970 net.cpp:157] Top shape: 2 256 150 250 (19200000)
I0216 20:37:49.524729 20970 net.cpp:165] Memory required for data: 2049600216
I0216 20:37:49.524739 20970 layer_factory.hpp:77] Creating layer relu3_1
I0216 20:37:49.524746 20970 net.cpp:106] Creating Layer relu3_1
I0216 20:37:49.524762 20970 net.cpp:454] relu3_1 <- conv3_1
I0216 20:37:49.524767 20970 net.cpp:397] relu3_1 -> conv3_1 (in-place)
I0216 20:37:49.524986 20970 net.cpp:150] Setting up relu3_1
I0216 20:37:49.524997 20970 net.cpp:157] Top shape: 2 256 150 250 (19200000)
I0216 20:37:49.525005 20970 net.cpp:165] Memory required for data: 2126400216
I0216 20:37:49.525012 20970 layer_factory.hpp:77] Creating layer conv3_2
I0216 20:37:49.525027 20970 net.cpp:106] Creating Layer conv3_2
I0216 20:37:49.525032 20970 net.cpp:454] conv3_2 <- conv3_1
I0216 20:37:49.525046 20970 net.cpp:411] conv3_2 -> conv3_2
I0216 20:37:49.527320 20970 net.cpp:150] Setting up conv3_2
I0216 20:37:49.527334 20970 net.cpp:157] Top shape: 2 256 150 250 (19200000)
I0216 20:37:49.527338 20970 net.cpp:165] Memory required for data: 2203200216
I0216 20:37:49.527345 20970 layer_factory.hpp:77] Creating layer relu3_2
I0216 20:37:49.527354 20970 net.cpp:106] Creating Layer relu3_2
I0216 20:37:49.527357 20970 net.cpp:454] relu3_2 <- conv3_2
I0216 20:37:49.527374 20970 net.cpp:397] relu3_2 -> conv3_2 (in-place)
I0216 20:37:49.527539 20970 net.cpp:150] Setting up relu3_2
I0216 20:37:49.527549 20970 net.cpp:157] Top shape: 2 256 150 250 (19200000)
I0216 20:37:49.527552 20970 net.cpp:165] Memory required for data: 2280000216
I0216 20:37:49.527556 20970 layer_factory.hpp:77] Creating layer conv3_3
I0216 20:37:49.527567 20970 net.cpp:106] Creating Layer conv3_3
I0216 20:37:49.527575 20970 net.cpp:454] conv3_3 <- conv3_2
I0216 20:37:49.527582 20970 net.cpp:411] conv3_3 -> conv3_3
I0216 20:37:49.529815 20970 net.cpp:150] Setting up conv3_3
I0216 20:37:49.529829 20970 net.cpp:157] Top shape: 2 256 150 250 (19200000)
I0216 20:37:49.529832 20970 net.cpp:165] Memory required for data: 2356800216
I0216 20:37:49.529839 20970 layer_factory.hpp:77] Creating layer relu3_3
I0216 20:37:49.529848 20970 net.cpp:106] Creating Layer relu3_3
I0216 20:37:49.529852 20970 net.cpp:454] relu3_3 <- conv3_3
I0216 20:37:49.529870 20970 net.cpp:397] relu3_3 -> conv3_3 (in-place)
I0216 20:37:49.530128 20970 net.cpp:150] Setting up relu3_3
I0216 20:37:49.530139 20970 net.cpp:157] Top shape: 2 256 150 250 (19200000)
I0216 20:37:49.530143 20970 net.cpp:165] Memory required for data: 2433600216
I0216 20:37:49.530148 20970 layer_factory.hpp:77] Creating layer pool3
I0216 20:37:49.530155 20970 net.cpp:106] Creating Layer pool3
I0216 20:37:49.530159 20970 net.cpp:454] pool3 <- conv3_3
I0216 20:37:49.530166 20970 net.cpp:411] pool3 -> pool3
I0216 20:37:49.530208 20970 net.cpp:150] Setting up pool3
I0216 20:37:49.530215 20970 net.cpp:157] Top shape: 2 256 75 125 (4800000)
I0216 20:37:49.530220 20970 net.cpp:165] Memory required for data: 2452800216
I0216 20:37:49.530223 20970 layer_factory.hpp:77] Creating layer conv4_1
I0216 20:37:49.530232 20970 net.cpp:106] Creating Layer conv4_1
I0216 20:37:49.530239 20970 net.cpp:454] conv4_1 <- pool3
I0216 20:37:49.530246 20970 net.cpp:411] conv4_1 -> conv4_1
I0216 20:37:49.534859 20970 net.cpp:150] Setting up conv4_1
I0216 20:37:49.534878 20970 net.cpp:157] Top shape: 2 512 75 125 (9600000)
I0216 20:37:49.534888 20970 net.cpp:165] Memory required for data: 2491200216
I0216 20:37:49.534898 20970 layer_factory.hpp:77] Creating layer relu4_1
I0216 20:37:49.534905 20970 net.cpp:106] Creating Layer relu4_1
I0216 20:37:49.534922 20970 net.cpp:454] relu4_1 <- conv4_1
I0216 20:37:49.534929 20970 net.cpp:397] relu4_1 -> conv4_1 (in-place)
I0216 20:37:49.535269 20970 net.cpp:150] Setting up relu4_1
I0216 20:37:49.535280 20970 net.cpp:157] Top shape: 2 512 75 125 (9600000)
I0216 20:37:49.535284 20970 net.cpp:165] Memory required for data: 2529600216
I0216 20:37:49.535287 20970 layer_factory.hpp:77] Creating layer conv4_2
I0216 20:37:49.535301 20970 net.cpp:106] Creating Layer conv4_2
I0216 20:37:49.535305 20970 net.cpp:454] conv4_2 <- conv4_1
I0216 20:37:49.535323 20970 net.cpp:411] conv4_2 -> conv4_2
I0216 20:37:49.541528 20970 net.cpp:150] Setting up conv4_2
I0216 20:37:49.541549 20970 net.cpp:157] Top shape: 2 512 75 125 (9600000)
I0216 20:37:49.541553 20970 net.cpp:165] Memory required for data: 2568000216
I0216 20:37:49.541568 20970 layer_factory.hpp:77] Creating layer relu4_2
I0216 20:37:49.541576 20970 net.cpp:106] Creating Layer relu4_2
I0216 20:37:49.541581 20970 net.cpp:454] relu4_2 <- conv4_2
I0216 20:37:49.541599 20970 net.cpp:397] relu4_2 -> conv4_2 (in-place)
I0216 20:37:49.541833 20970 net.cpp:150] Setting up relu4_2
I0216 20:37:49.541853 20970 net.cpp:157] Top shape: 2 512 75 125 (9600000)
I0216 20:37:49.541869 20970 net.cpp:165] Memory required for data: 2606400216
I0216 20:37:49.541883 20970 layer_factory.hpp:77] Creating layer conv4_3
I0216 20:37:49.541906 20970 net.cpp:106] Creating Layer conv4_3
I0216 20:37:49.541913 20970 net.cpp:454] conv4_3 <- conv4_2
I0216 20:37:49.541918 20970 net.cpp:411] conv4_3 -> conv4_3
I0216 20:37:49.547894 20970 net.cpp:150] Setting up conv4_3
I0216 20:37:49.547916 20970 net.cpp:157] Top shape: 2 512 75 125 (9600000)
I0216 20:37:49.547920 20970 net.cpp:165] Memory required for data: 2644800216
I0216 20:37:49.547929 20970 layer_factory.hpp:77] Creating layer relu4_3
I0216 20:37:49.547938 20970 net.cpp:106] Creating Layer relu4_3
I0216 20:37:49.547942 20970 net.cpp:454] relu4_3 <- conv4_3
I0216 20:37:49.547960 20970 net.cpp:397] relu4_3 -> conv4_3 (in-place)
I0216 20:37:49.548214 20970 net.cpp:150] Setting up relu4_3
I0216 20:37:49.548228 20970 net.cpp:157] Top shape: 2 512 75 125 (9600000)
I0216 20:37:49.548231 20970 net.cpp:165] Memory required for data: 2683200216
I0216 20:37:49.548235 20970 layer_factory.hpp:77] Creating layer pool4
I0216 20:37:49.548244 20970 net.cpp:106] Creating Layer pool4
I0216 20:37:49.548251 20970 net.cpp:454] pool4 <- conv4_3
I0216 20:37:49.548259 20970 net.cpp:411] pool4 -> pool4
I0216 20:37:49.548305 20970 net.cpp:150] Setting up pool4
I0216 20:37:49.548312 20970 net.cpp:157] Top shape: 2 512 38 63 (2451456)
I0216 20:37:49.548316 20970 net.cpp:165] Memory required for data: 2693006040
I0216 20:37:49.548319 20970 layer_factory.hpp:77] Creating layer conv5_1
I0216 20:37:49.548331 20970 net.cpp:106] Creating Layer conv5_1
I0216 20:37:49.548336 20970 net.cpp:454] conv5_1 <- pool4
I0216 20:37:49.548342 20970 net.cpp:411] conv5_1 -> conv5_1
I0216 20:37:49.554275 20970 net.cpp:150] Setting up conv5_1
I0216 20:37:49.554298 20970 net.cpp:157] Top shape: 2 512 38 63 (2451456)
I0216 20:37:49.554302 20970 net.cpp:165] Memory required for data: 2702811864
I0216 20:37:49.554311 20970 layer_factory.hpp:77] Creating layer relu5_1
I0216 20:37:49.554321 20970 net.cpp:106] Creating Layer relu5_1
I0216 20:37:49.554324 20970 net.cpp:454] relu5_1 <- conv5_1
I0216 20:37:49.554342 20970 net.cpp:397] relu5_1 -> conv5_1 (in-place)
I0216 20:37:49.554559 20970 net.cpp:150] Setting up relu5_1
I0216 20:37:49.554569 20970 net.cpp:157] Top shape: 2 512 38 63 (2451456)
I0216 20:37:49.554574 20970 net.cpp:165] Memory required for data: 2712617688
I0216 20:37:49.554577 20970 layer_factory.hpp:77] Creating layer conv5_2
I0216 20:37:49.554601 20970 net.cpp:106] Creating Layer conv5_2
I0216 20:37:49.554607 20970 net.cpp:454] conv5_2 <- conv5_1
I0216 20:37:49.554615 20970 net.cpp:411] conv5_2 -> conv5_2
I0216 20:37:49.560806 20970 net.cpp:150] Setting up conv5_2
I0216 20:37:49.560827 20970 net.cpp:157] Top shape: 2 512 38 63 (2451456)
I0216 20:37:49.560832 20970 net.cpp:165] Memory required for data: 2722423512
I0216 20:37:49.560839 20970 layer_factory.hpp:77] Creating layer relu5_2
I0216 20:37:49.560850 20970 net.cpp:106] Creating Layer relu5_2
I0216 20:37:49.560856 20970 net.cpp:454] relu5_2 <- conv5_2
I0216 20:37:49.560874 20970 net.cpp:397] relu5_2 -> conv5_2 (in-place)
I0216 20:37:49.561091 20970 net.cpp:150] Setting up relu5_2
I0216 20:37:49.561102 20970 net.cpp:157] Top shape: 2 512 38 63 (2451456)
I0216 20:37:49.561105 20970 net.cpp:165] Memory required for data: 2732229336
I0216 20:37:49.561110 20970 layer_factory.hpp:77] Creating layer conv5_3
I0216 20:37:49.561125 20970 net.cpp:106] Creating Layer conv5_3
I0216 20:37:49.561131 20970 net.cpp:454] conv5_3 <- conv5_2
I0216 20:37:49.561137 20970 net.cpp:411] conv5_3 -> conv5_3
I0216 20:37:49.567121 20970 net.cpp:150] Setting up conv5_3
I0216 20:37:49.567142 20970 net.cpp:157] Top shape: 2 512 38 63 (2451456)
I0216 20:37:49.567147 20970 net.cpp:165] Memory required for data: 2742035160
I0216 20:37:49.567154 20970 layer_factory.hpp:77] Creating layer relu5_3
I0216 20:37:49.567163 20970 net.cpp:106] Creating Layer relu5_3
I0216 20:37:49.567168 20970 net.cpp:454] relu5_3 <- conv5_3
I0216 20:37:49.567174 20970 net.cpp:397] relu5_3 -> conv5_3 (in-place)
I0216 20:37:49.567451 20970 net.cpp:150] Setting up relu5_3
I0216 20:37:49.567463 20970 net.cpp:157] Top shape: 2 512 38 63 (2451456)
I0216 20:37:49.567467 20970 net.cpp:165] Memory required for data: 2751840984
I0216 20:37:49.567472 20970 layer_factory.hpp:77] Creating layer conv5_3_relu5_3_0_split
I0216 20:37:49.567494 20970 net.cpp:106] Creating Layer conv5_3_relu5_3_0_split
I0216 20:37:49.567500 20970 net.cpp:454] conv5_3_relu5_3_0_split <- conv5_3
I0216 20:37:49.567507 20970 net.cpp:411] conv5_3_relu5_3_0_split -> conv5_3_relu5_3_0_split_0
I0216 20:37:49.567517 20970 net.cpp:411] conv5_3_relu5_3_0_split -> conv5_3_relu5_3_0_split_1
I0216 20:37:49.567560 20970 net.cpp:150] Setting up conv5_3_relu5_3_0_split
I0216 20:37:49.567579 20970 net.cpp:157] Top shape: 2 512 38 63 (2451456)
I0216 20:37:49.567584 20970 net.cpp:157] Top shape: 2 512 38 63 (2451456)
I0216 20:37:49.567589 20970 net.cpp:165] Memory required for data: 2771452632
I0216 20:37:49.567594 20970 layer_factory.hpp:77] Creating layer roi_pool5
I0216 20:37:49.567618 20970 net.cpp:106] Creating Layer roi_pool5
I0216 20:37:49.567625 20970 net.cpp:454] roi_pool5 <- conv5_3_relu5_3_0_split_0
I0216 20:37:49.567631 20970 net.cpp:454] roi_pool5 <- rois
I0216 20:37:49.567636 20970 net.cpp:411] roi_pool5 -> pool5
I0216 20:37:49.567644 20970 roi_pooling_layer.cpp:30] Spatial scale: 0.0625
I0216 20:37:49.567692 20970 net.cpp:150] Setting up roi_pool5
I0216 20:37:49.567699 20970 net.cpp:157] Top shape: 1 512 7 7 (25088)
I0216 20:37:49.567703 20970 net.cpp:165] Memory required for data: 2771552984
I0216 20:37:49.567706 20970 layer_factory.hpp:77] Creating layer fc6
I0216 20:37:49.567716 20970 net.cpp:106] Creating Layer fc6
I0216 20:37:49.567721 20970 net.cpp:454] fc6 <- pool5
I0216 20:37:49.567728 20970 net.cpp:411] fc6 -> fc6
I0216 20:37:49.821388 20970 net.cpp:150] Setting up fc6
I0216 20:37:49.821441 20970 net.cpp:157] Top shape: 1 4096 (4096)
I0216 20:37:49.821446 20970 net.cpp:165] Memory required for data: 2771569368
I0216 20:37:49.821477 20970 layer_factory.hpp:77] Creating layer relu6
I0216 20:37:49.821492 20970 net.cpp:106] Creating Layer relu6
I0216 20:37:49.821499 20970 net.cpp:454] relu6 <- fc6
I0216 20:37:49.821508 20970 net.cpp:397] relu6 -> fc6 (in-place)
I0216 20:37:49.821780 20970 net.cpp:150] Setting up relu6
I0216 20:37:49.821791 20970 net.cpp:157] Top shape: 1 4096 (4096)
I0216 20:37:49.821795 20970 net.cpp:165] Memory required for data: 2771585752
I0216 20:37:49.821799 20970 layer_factory.hpp:77] Creating layer drop6
I0216 20:37:49.821821 20970 net.cpp:106] Creating Layer drop6
I0216 20:37:49.821827 20970 net.cpp:454] drop6 <- fc6
I0216 20:37:49.821833 20970 net.cpp:397] drop6 -> fc6 (in-place)
I0216 20:37:49.821874 20970 net.cpp:150] Setting up drop6
I0216 20:37:49.821893 20970 net.cpp:157] Top shape: 1 4096 (4096)
I0216 20:37:49.821907 20970 net.cpp:165] Memory required for data: 2771602136
I0216 20:37:49.821928 20970 layer_factory.hpp:77] Creating layer fc7
I0216 20:37:49.821951 20970 net.cpp:106] Creating Layer fc7
I0216 20:37:49.821957 20970 net.cpp:454] fc7 <- fc6
I0216 20:37:49.821964 20970 net.cpp:411] fc7 -> fc7
I0216 20:37:49.861651 20970 net.cpp:150] Setting up fc7
I0216 20:37:49.861701 20970 net.cpp:157] Top shape: 1 4096 (4096)
I0216 20:37:49.861706 20970 net.cpp:165] Memory required for data: 2771618520
I0216 20:37:49.861718 20970 layer_factory.hpp:77] Creating layer relu7
I0216 20:37:49.861732 20970 net.cpp:106] Creating Layer relu7
I0216 20:37:49.861739 20970 net.cpp:454] relu7 <- fc7
I0216 20:37:49.861747 20970 net.cpp:397] relu7 -> fc7 (in-place)
I0216 20:37:49.862260 20970 net.cpp:150] Setting up relu7
I0216 20:37:49.862273 20970 net.cpp:157] Top shape: 1 4096 (4096)
I0216 20:37:49.862293 20970 net.cpp:165] Memory required for data: 2771634904
I0216 20:37:49.862298 20970 layer_factory.hpp:77] Creating layer drop7
I0216 20:37:49.862308 20970 net.cpp:106] Creating Layer drop7
I0216 20:37:49.862313 20970 net.cpp:454] drop7 <- fc7
I0216 20:37:49.862329 20970 net.cpp:397] drop7 -> fc7 (in-place)
I0216 20:37:49.862363 20970 net.cpp:150] Setting up drop7
I0216 20:37:49.862370 20970 net.cpp:157] Top shape: 1 4096 (4096)
I0216 20:37:49.862375 20970 net.cpp:165] Memory required for data: 2771651288
I0216 20:37:49.862377 20970 layer_factory.hpp:77] Creating layer fc7_drop7_0_split
I0216 20:37:49.862385 20970 net.cpp:106] Creating Layer fc7_drop7_0_split
I0216 20:37:49.862388 20970 net.cpp:454] fc7_drop7_0_split <- fc7
I0216 20:37:49.862395 20970 net.cpp:411] fc7_drop7_0_split -> fc7_drop7_0_split_0
I0216 20:37:49.862401 20970 net.cpp:411] fc7_drop7_0_split -> fc7_drop7_0_split_1
I0216 20:37:49.862452 20970 net.cpp:150] Setting up fc7_drop7_0_split
I0216 20:37:49.862464 20970 net.cpp:157] Top shape: 1 4096 (4096)
I0216 20:37:49.862470 20970 net.cpp:157] Top shape: 1 4096 (4096)
I0216 20:37:49.862474 20970 net.cpp:165] Memory required for data: 2771684056
I0216 20:37:49.862489 20970 layer_factory.hpp:77] Creating layer cls_score
I0216 20:37:49.862511 20970 net.cpp:106] Creating Layer cls_score
I0216 20:37:49.862516 20970 net.cpp:454] cls_score <- fc7_drop7_0_split_0
I0216 20:37:49.862524 20970 net.cpp:411] cls_score -> cls_score
I0216 20:37:49.863157 20970 net.cpp:150] Setting up cls_score
I0216 20:37:49.863167 20970 net.cpp:157] Top shape: 1 4 (4)
I0216 20:37:49.863170 20970 net.cpp:165] Memory required for data: 2771684072
I0216 20:37:49.863176 20970 layer_factory.hpp:77] Creating layer bbox_pred
I0216 20:37:49.863185 20970 net.cpp:106] Creating Layer bbox_pred
I0216 20:37:49.863190 20970 net.cpp:454] bbox_pred <- fc7_drop7_0_split_1
I0216 20:37:49.863196 20970 net.cpp:411] bbox_pred -> bbox_pred
I0216 20:37:49.865254 20970 net.cpp:150] Setting up bbox_pred
I0216 20:37:49.865263 20970 net.cpp:157] Top shape: 1 16 (16)
I0216 20:37:49.865267 20970 net.cpp:165] Memory required for data: 2771684136
I0216 20:37:49.865281 20970 layer_factory.hpp:77] Creating layer loss_cls
I0216 20:37:49.865304 20970 net.cpp:106] Creating Layer loss_cls
I0216 20:37:49.865310 20970 net.cpp:454] loss_cls <- cls_score
I0216 20:37:49.865315 20970 net.cpp:454] loss_cls <- labels
I0216 20:37:49.865321 20970 net.cpp:411] loss_cls -> loss_cls
…
I0216 20:37:49.865839 20970 net.cpp:157] Top shape: (1)
I0216 20:37:49.865841 20970 net.cpp:160]     with loss weight 1
I0216 20:37:49.865846 20970 net.cpp:165] Memory required for data: 2771684144
I0216 20:37:49.865850 20970 layer_factory.hpp:77] Creating layer rpn_conv/3x3
I0216 20:37:49.865870 20970 net.cpp:106] Creating Layer rpn_conv/3x3
I0216 20:37:49.865876 20970 net.cpp:454] rpn_conv/3x3 <- conv5_3_relu5_3_0_split_1
I0216 20:37:49.865887 20970 net.cpp:411] rpn_conv/3x3 -> rpn/output
I0216 20:37:49.933883 20970 net.cpp:150] Setting up rpn_conv/3x3
I0216 20:37:49.933920 20970 net.cpp:157] Top shape: 2 512 38 63 (2451456)
I0216 20:37:49.933925 20970 net.cpp:165] Memory required for data: 2781489968
I0216 20:37:49.933935 20970 layer_factory.hpp:77] Creating layer rpn_relu/3x3
I0216 20:37:49.933946 20970 net.cpp:106] Creating Layer rpn_relu/3x3
I0216 20:37:49.933953 20970 net.cpp:454] rpn_relu/3x3 <- rpn/output
I0216 20:37:49.933959 20970 net.cpp:397] rpn_relu/3x3 -> rpn/output (in-place)
I0216 20:37:49.934303 20970 net.cpp:150] Setting up rpn_relu/3x3
I0216 20:37:49.934315 20970 net.cpp:157] Top shape: 2 512 38 63 (2451456)
I0216 20:37:49.934319 20970 net.cpp:165] Memory required for data: 2791295792
I0216 20:37:49.934322 20970 layer_factory.hpp:77] Creating layer rpn/output_rpn_relu/3x3_0_split
I0216 20:37:49.934336 20970 net.cpp:106] Creating Layer rpn/output_rpn_relu/3x3_0_split
I0216 20:37:49.934340 20970 net.cpp:454] rpn/output_rpn_relu/3x3_0_split <- rpn/output
I0216 20:37:49.934358 20970 net.cpp:411] rpn/output_rpn_relu/3x3_0_split -> rpn/output_rpn_relu/3x3_0_split_0
I0216 20:37:49.934370 20970 net.cpp:411] rpn/output_rpn_relu/3x3_0_split -> rpn/output_rpn_relu/3x3_0_split_1
I0216 20:37:49.934412 20970 net.cpp:150] Setting up rpn/output_rpn_relu/3x3_0_split
I0216 20:37:49.934420 20970 net.cpp:157] Top shape: 2 512 38 63 (2451456)
I0216 20:37:49.934424 20970 net.cpp:157] Top shape: 2 512 38 63 (2451456)
I0216 20:37:49.934428 20970 net.cpp:165] Memory required for data: 2810907440
I0216 20:37:49.934432 20970 layer_factory.hpp:77] Creating layer rpn_cls_score
I0216 20:37:49.934447 20970 net.cpp:106] Creating Layer rpn_cls_score
I0216 20:37:49.934451 20970 net.cpp:454] rpn_cls_score <- rpn/output_rpn_relu/3x3_0_split_0
I0216 20:37:49.934458 20970 net.cpp:411] rpn_cls_score -> rpn_cls_score
I0216 20:37:49.935534 20970 net.cpp:150] Setting up rpn_cls_score
I0216 20:37:49.935546 20970 net.cpp:157] Top shape: 2 18 38 63 (86184)
I0216 20:37:49.935550 20970 net.cpp:165] Memory required for data: 2811252176
I0216 20:37:49.935556 20970 layer_factory.hpp:77] Creating layer rpn_bbox_pred
I0216 20:37:49.935586 20970 net.cpp:106] Creating Layer rpn_bbox_pred
I0216 20:37:49.935591 20970 net.cpp:454] rpn_bbox_pred <- rpn/output_rpn_relu/3x3_0_split_1
I0216 20:37:49.935600 20970 net.cpp:411] rpn_bbox_pred -> rpn_bbox_pred
I0216 20:37:49.936980 20970 net.cpp:150] Setting up rpn_bbox_pred
I0216 20:37:49.936992 20970 net.cpp:157] Top shape: 2 36 38 63 (172368)
I0216 20:37:49.936995 20970 net.cpp:165] Memory required for data: 2811941648
I0216 20:37:49.937002 20970 layer_factory.hpp:77] Creating layer silence_rpn_cls_score
I0216 20:37:49.937010 20970 net.cpp:106] Creating Layer silence_rpn_cls_score
I0216 20:37:49.937013 20970 net.cpp:454] silence_rpn_cls_score <- rpn_cls_score
I0216 20:37:49.937019 20970 net.cpp:150] Setting up silence_rpn_cls_score
…
