…
I0227 04:20:13.964985 23162 solver.cpp:81] Creating training net from train_net file: models/pascal_voc/VGG16/faster_rcnn_alt_opt/stage1_fast_rcnn_train.pt
I0227 04:20:13.966090 23162 net.cpp:49] Initializing net from parameters: 
name: "VGG_ILSVRC_16_layers"
state {
  phase: TRAIN
}
layer {
  name: "data"
  type: "Python"
  top: "data"
  top: "rois"
  top: "labels"
  top: "bbox_targets"
  top: "bbox_inside_weights"
  top: "bbox_outside_weights"
  python_param {
    module: "roi_data_layer.layer"
    layer: "RoIDataLayer"
    param_str: "\'num_classes\': 4"
  }
}
layer {
  name: "conv1_1"
  type: "Convolution"
  bottom: "data"
  top: "conv1_1"
  param {
    lr_mult: 0
    decay_mult: 0
  }
  param {
    lr_mult: 0
    decay_mult: 0
  }
  convolution_param {
    num_output: 64
    pad: 1
    kernel_size: 3
  }
}
layer {
  name: "relu1_1"
  type: "ReLU"
  bottom: "conv1_1"
  top: "conv1_1"
}
layer {
  name: "conv1_2"
  type: "Convolution"
  bottom: "conv1_1"
  top: "conv1_2"
  param {
    lr_mult: 0
    decay_mult: 0
  }
  param {
    lr_mult: 0
    decay_mult: 0
  }
  convolution_param {
    num_output: 64
    pad: 1
    kernel_size: 3
  }
}
layer {
  name: "relu1_2"
  type: "ReLU"
  bottom: "conv1_2"
  top: "conv1_2"
}
layer {
  name: "pool1"
  type: "Pooling"
  bottom: "conv1_2"
  top: "pool1"
  pooling_param {
    pool: MAX
    kernel_size: 2
    stride: 2
  }
}
layer {
  name: "conv2_1"
  type: "Convolution"
  bottom: "pool1"
  top: "conv2_1"
  param {
    lr_mult: 0
    decay_mult: 0
  }
  param {
    lr_mult: 0
    decay_mult: 0
  }
  convolution_param {
    num_output: 128
    pad: 1
    kernel_size: 3
  }
}
layer {
  name: "relu2_1"
  type: "ReLU"
  bottom: "conv2_1"
  top: "conv2_1"
}
layer {
  name: "conv2_2"
  type: "Convolution"
  bottom: "conv2_1"
  top: "conv2_2"
  param {
    lr_mult: 0
    decay_mult: 0
  }
  param {
    lr_mult: 0
    decay_mult: 0
  }
  convolution_param {
    num_output: 128
    pad: 1
    kernel_size: 3
  }
}
layer {
  name: "relu2_2"
  type: "ReLU"
  bottom: "conv2_2"
  top: "conv2_2"
}
layer {
  name: "pool2"
  type: "Pooling"
  bottom: "conv2_2"
  top: "pool2"
  pooling_param {
    pool: MAX
    kernel_size: 2
    stride: 2
  }
}
layer {
  name: "conv3_1"
  type: "Convolution"
  bottom: "pool2"
  top: "conv3_1"
  param {
    lr_mult: 1
  }
  param {
    lr_mult: 2
  }
  convolution_param {
    num_output: 256
    pad: 1
    kernel_size: 3
  }
}
layer {
  name: "relu3_1"
  type: "ReLU"
  bottom: "conv3_1"
  top: "conv3_1"
}
layer {
  name: "conv3_2"
  type: "Convolution"
  bottom: "conv3_1"
  top: "conv3_2"
  param {
    lr_mult: 1
  }
  param {
    lr_mult: 2
  }
  convolution_param {
    num_output: 256
    pad: 1
    kernel_size: 3
  }
}
layer {
  name: "relu3_2"
  type: "ReLU"
  bottom: "conv3_2"
  top: "conv3_2"
}
layer {
  name: "conv3_3"
  type: "Convolution"
  bottom: "conv3_2"
  top: "conv3_3"
  param {
    lr_mult: 1
  }
  param {
    lr_mult: 2
  }
  convolution_param {
    num_output: 256
    pad: 1
    kernel_size: 3
  }
}
layer {
  name: "relu3_3"
  type: "ReLU"
  bottom: "conv3_3"
  top: "conv3_3"
}
layer {
  name: "pool3"
  type: "Pooling"
  bottom: "conv3_3"
  top: "pool3"
  pooling_param {
    pool: MAX
    kernel_size: 2
    stride: 2
  }
}
layer {
  name: "conv4_1"
  type: "Convolution"
  bottom: "pool3"
  top: "conv4_1"
  param {
    lr_mult: 1
  }
  param {
    lr_mult: 2
  }
  convolution_param {
    num_output: 512
    pad: 1
    kernel_size: 3
  }
}
layer {
  name: "relu4_1"
  type: "ReLU"
  bottom: "conv4_1"
  top: "conv4_1"
}
layer {
  name: "conv4_2"
  type: "Convolution"
  bottom: "conv4_1"
  top: "conv4_2"
  param {
    lr_mult: 1
  }
  param {
    lr_mult: 2
  }
  convolution_param {
    num_output: 512
    pad: 1
    kernel_size: 3
  }
}
layer {
  name: "relu4_2"
  type: "ReLU"
  bottom: "conv4_2"
  top: "conv4_2"
}
layer {
  name: "conv4_3"
  type: "Convolution"
  bottom: "conv4_2"
  top: "conv4_3"
  param {
    lr_mult: 1
  }
  param {
    lr_mult: 2
  }
  convolution_param {
    num_output: 512
    pad: 1
    kernel_size: 3
  }
}
layer {
  name: "relu4_3"
  type: "ReLU"
  bottom: "conv4_3"
  top: "conv4_3"
}
layer {
  name: "pool4"
  type: "Pooling"
  bottom: "conv4_3"
  top: "pool4"
  pooling_param {
    pool: MAX
    kernel_size: 2
    stride: 2
  }
}
layer {
  name: "conv5_1"
  type: "Convolution"
  bottom: "pool4"
  top: "conv5_1"
  param {
    lr_mult: 1
  }
  param {
    lr_mult: 2
  }
  convolution_param {
    num_output: 512
    pad: 1
    kernel_size: 3
  }
}
layer {
  name: "relu5_1"
  type: "ReLU"
  bottom: "conv5_1"
  top: "conv5_1"
}
layer {
  name: "conv5_2"
  type: "Convolution"
  bottom: "conv5_1"
  top: "conv5_2"
  param {
    lr_mult: 1
  }
  param {
    lr_mult: 2
  }
  convolution_param {
    num_output: 512
    pad: 1
    kernel_size: 3
  }
}
layer {
  name: "relu5_2"
  type: "ReLU"
  bottom: "conv5_2"
  top: "conv5_2"
}
layer {
  name: "conv5_3"
  type: "Convolution"
  bottom: "conv5_2"
  top: "conv5_3"
  param {
    lr_mult: 1
  }
  param {
    lr_mult: 2
  }
  convolution_param {
    num_output: 512
    pad: 1
    kernel_size: 3
  }
}
layer {
  name: "relu5_3"
  type: "ReLU"
  bottom: "conv5_3"
  top: "conv5_3"
}
layer {
  name: "roi_pool5"
  type: "ROIPooling"
  bottom: "conv5_3"
  bottom: "rois"
  top: "pool5"
  roi_pooling_param {
    pooled_h: 7
    pooled_w: 7
    spatial_scale: 0.0625
  }
}
layer {
  name: "fc6"
  type: "InnerProduct"
  bottom: "pool5"
  top: "fc6"
  param {
    lr_mult: 1
  }
  param {
    lr_mult: 2
  }
  inner_product_param {
    num_output: 4096
  }
}
layer {
  name: "relu6"
  type: "ReLU"
  bottom: "fc6"
  top: "fc6"
}
layer {
  name: "drop6"
  type: "Dropout"
  bottom: "fc6"
  top: "fc6"
  dropout_param {
    dropout_ratio: 0.5
  }
}
layer {
  name: "fc7"
  type: "InnerProduct"
  bottom: "fc6"
  top: "fc7"
  param {
    lr_mult: 1
  }
  param {
    lr_mult: 2
  }
  inner_product_param {
    num_output: 4096
  }
}
layer {
  name: "relu7"
  type: "ReLU"
  bottom: "fc7"
  top: "fc7"
}
layer {
  name: "drop7"
  type: "Dropout"
  bottom: "fc7"
  top: "fc7"
  dropout_param {
    dropout_ratio: 0.5
  }
}
layer {
  name: "cls_score"
  type: "InnerProduct"
  bottom: "fc7"
  top: "cls_score"
  param {
    lr_mult: 1
  }
  param {
    lr_mult: 2
  }
  inner_product_param {
    num_output: 4
    weight_filler {
      type: "gaussian"
      std: 0.01
    }
    bias_filler {
      type: "constant"
      value: 0
    }
  }
}
layer {
  name: "bbox_pred"
  type: "InnerProduct"
  bottom: "fc7"
  top: "bbox_pred"
  param {
    lr_mult: 1
  }
  param {
    lr_mult: 2
  }
  inner_product_param {
    num_output: 16
    weight_filler {
      type: "gaussian"
      std: 0.001
    }
    bias_filler {
      type: "constant"
      value: 0
    }
  }
}
layer {
  name: "loss_cls"
  type: "SoftmaxWithLoss"
  bottom: "cls_score"
  bottom: "labels"
  top: "loss_cls"
  loss_weight: 1
}
layer {
  name: "loss_bbox"
  type: "SmoothL1Loss"
  bottom: "bbox_pred"
  bottom: "bbox_targets"
  bottom: "bbox_inside_weights"
  bottom: "bbox_outside_weights"
  top: "loss_bbox"
  loss_weight: 1
}
layer {
  name: "rpn_conv/3x3"
  type: "Convolution"
  bottom: "conv5_3"
  top: "rpn/output"
  param {
    lr_mult: 0
    decay_mult: 0
  }
  param {
    lr_mult: 0
    decay_mult: 0
  }
  convolution_param {
    num_output: 512
    pad: 1
    kernel_size: 3
    stride: 1
    weight_filler {
      type: "gaussian"
      std: 0.01
    }
    bias_filler {
      type: "constant"
      value: 0
    }
  }
}
layer {
  name: "rpn_relu/3x3"
  type: "ReLU"
  bottom: "rpn/output"
  top: "rpn/output"
}
layer {
  name: "rpn_cls_score"
  type: "Convolution"
  bottom: "rpn/output"
  top: "rpn_cls_score"
  param {
    lr_mult: 0
    decay_mult: 0
  }
  param {
    lr_mult: 0
    decay_mult: 0
  }
  convolution_param {
    num_output: 18
    pad: 0
    kernel_size: 1
    stride: 1
    weight_filler {
      type: "gaussian"
      std: 0.01
    }
    bias_filler {
      type: "constant"
      value: 0
    }
  }
}
layer {
  name: "rpn_bbox_pred"
  type: "Convolution"
  bottom: "rpn/output"
  top: "rpn_bbox_pred"
  param {
    lr_mult: 0
    decay_mult: 0
  }
  param {
    lr_mult: 0
    decay_mult: 0
  }
  convolution_param {
    num_output: 36
    pad: 0
    kernel_size: 1
    stride: 1
    weight_filler {
      type: "gaussian"
      std: 0.01
    }
    bias_filler {
      type: "constant"
      value: 0
    }
  }
}
layer {
  name: "silence_rpn_cls_score"
  type: "Silence"
  bottom: "rpn_cls_score"
}
layer {
  name: "silence_rpn_bbox_pred"
  type: "Silence"
  bottom: "rpn_bbox_pred"
}
I0227 04:20:13.966315 23162 layer_factory.hpp:77] Creating layer data
I0227 04:20:13.967103 23162 net.cpp:106] Creating Layer data
I0227 04:20:13.967115 23162 net.cpp:411] data -> data
I0227 04:20:13.967135 23162 net.cpp:411] data -> rois
I0227 04:20:13.967142 23162 net.cpp:411] data -> labels
I0227 04:20:13.967149 23162 net.cpp:411] data -> bbox_targets
I0227 04:20:13.967155 23162 net.cpp:411] data -> bbox_inside_weights
I0227 04:20:13.967173 23162 net.cpp:411] data -> bbox_outside_weights
RoiDataLayer: name_to_top: {'bbox_inside_weights': 4, 'labels': 2, 'rois': 1, 'bbox_targets': 3, 'bbox_outside_weights': 5, 'data': 0}
I0227 04:20:14.026504 23162 net.cpp:150] Setting up data
I0227 04:20:14.026526 23162 net.cpp:157] Top shape: 2 3 600 1000 (3600000)
I0227 04:20:14.026532 23162 net.cpp:157] Top shape: 1 5 (5)
I0227 04:20:14.026540 23162 net.cpp:157] Top shape: 1 (1)
I0227 04:20:14.026542 23162 net.cpp:157] Top shape: 1 16 (16)
I0227 04:20:14.026558 23162 net.cpp:157] Top shape: 1 16 (16)
I0227 04:20:14.026562 23162 net.cpp:157] Top shape: 1 16 (16)
I0227 04:20:14.026566 23162 net.cpp:165] Memory required for data: 14400216
I0227 04:20:14.026571 23162 layer_factory.hpp:77] Creating layer conv1_1
I0227 04:20:14.026582 23162 net.cpp:106] Creating Layer conv1_1
I0227 04:20:14.026588 23162 net.cpp:454] conv1_1 <- data
I0227 04:20:14.026594 23162 net.cpp:411] conv1_1 -> conv1_1
I0227 04:20:14.847932 23162 net.cpp:150] Setting up conv1_1
I0227 04:20:14.847982 23162 net.cpp:157] Top shape: 2 64 600 1000 (76800000)
I0227 04:20:14.847990 23162 net.cpp:165] Memory required for data: 321600216
I0227 04:20:14.848008 23162 layer_factory.hpp:77] Creating layer relu1_1
I0227 04:20:14.848022 23162 net.cpp:106] Creating Layer relu1_1
I0227 04:20:14.848042 23162 net.cpp:454] relu1_1 <- conv1_1
I0227 04:20:14.848062 23162 net.cpp:397] relu1_1 -> conv1_1 (in-place)
I0227 04:20:14.848408 23162 net.cpp:150] Setting up relu1_1
I0227 04:20:14.848420 23162 net.cpp:157] Top shape: 2 64 600 1000 (76800000)
I0227 04:20:14.848435 23162 net.cpp:165] Memory required for data: 628800216
I0227 04:20:14.848439 23162 layer_factory.hpp:77] Creating layer conv1_2
I0227 04:20:14.848453 23162 net.cpp:106] Creating Layer conv1_2
I0227 04:20:14.848461 23162 net.cpp:454] conv1_2 <- conv1_1
I0227 04:20:14.848481 23162 net.cpp:411] conv1_2 -> conv1_2
I0227 04:20:14.853739 23162 net.cpp:150] Setting up conv1_2
I0227 04:20:14.853768 23162 net.cpp:157] Top shape: 2 64 600 1000 (76800000)
I0227 04:20:14.853783 23162 net.cpp:165] Memory required for data: 936000216
I0227 04:20:14.853793 23162 layer_factory.hpp:77] Creating layer relu1_2
I0227 04:20:14.853803 23162 net.cpp:106] Creating Layer relu1_2
I0227 04:20:14.853807 23162 net.cpp:454] relu1_2 <- conv1_2
I0227 04:20:14.853816 23162 net.cpp:397] relu1_2 -> conv1_2 (in-place)
I0227 04:20:14.854018 23162 net.cpp:150] Setting up relu1_2
I0227 04:20:14.854028 23162 net.cpp:157] Top shape: 2 64 600 1000 (76800000)
I0227 04:20:14.854033 23162 net.cpp:165] Memory required for data: 1243200216
I0227 04:20:14.854038 23162 layer_factory.hpp:77] Creating layer pool1
I0227 04:20:14.854046 23162 net.cpp:106] Creating Layer pool1
I0227 04:20:14.854051 23162 net.cpp:454] pool1 <- conv1_2
I0227 04:20:14.854059 23162 net.cpp:411] pool1 -> pool1
I0227 04:20:14.854135 23162 net.cpp:150] Setting up pool1
I0227 04:20:14.854146 23162 net.cpp:157] Top shape: 2 64 300 500 (19200000)
I0227 04:20:14.854149 23162 net.cpp:165] Memory required for data: 1320000216
I0227 04:20:14.854153 23162 layer_factory.hpp:77] Creating layer conv2_1
I0227 04:20:14.854164 23162 net.cpp:106] Creating Layer conv2_1
I0227 04:20:14.854171 23162 net.cpp:454] conv2_1 <- pool1
I0227 04:20:14.854181 23162 net.cpp:411] conv2_1 -> conv2_1
I0227 04:20:14.858000 23162 net.cpp:150] Setting up conv2_1
I0227 04:20:14.858027 23162 net.cpp:157] Top shape: 2 128 300 500 (38400000)
I0227 04:20:14.858031 23162 net.cpp:165] Memory required for data: 1473600216
I0227 04:20:14.858042 23162 layer_factory.hpp:77] Creating layer relu2_1
I0227 04:20:14.858049 23162 net.cpp:106] Creating Layer relu2_1
I0227 04:20:14.858054 23162 net.cpp:454] relu2_1 <- conv2_1
I0227 04:20:14.858072 23162 net.cpp:397] relu2_1 -> conv2_1 (in-place)
I0227 04:20:14.858829 23162 net.cpp:150] Setting up relu2_1
I0227 04:20:14.858837 23162 net.cpp:157] Top shape: 2 128 300 500 (38400000)
I0227 04:20:14.858852 23162 net.cpp:165] Memory required for data: 1627200216
I0227 04:20:14.858856 23162 layer_factory.hpp:77] Creating layer conv2_2
I0227 04:20:14.858866 23162 net.cpp:106] Creating Layer conv2_2
I0227 04:20:14.858870 23162 net.cpp:454] conv2_2 <- conv2_1
I0227 04:20:14.858876 23162 net.cpp:411] conv2_2 -> conv2_2
I0227 04:20:14.863370 23162 net.cpp:150] Setting up conv2_2
I0227 04:20:14.863384 23162 net.cpp:157] Top shape: 2 128 300 500 (38400000)
I0227 04:20:14.863400 23162 net.cpp:165] Memory required for data: 1780800216
I0227 04:20:14.863407 23162 layer_factory.hpp:77] Creating layer relu2_2
I0227 04:20:14.863415 23162 net.cpp:106] Creating Layer relu2_2
I0227 04:20:14.863420 23162 net.cpp:454] relu2_2 <- conv2_2
I0227 04:20:14.863426 23162 net.cpp:397] relu2_2 -> conv2_2 (in-place)
I0227 04:20:14.863787 23162 net.cpp:150] Setting up relu2_2
I0227 04:20:14.863814 23162 net.cpp:157] Top shape: 2 128 300 500 (38400000)
I0227 04:20:14.863819 23162 net.cpp:165] Memory required for data: 1934400216
I0227 04:20:14.863826 23162 layer_factory.hpp:77] Creating layer pool2
I0227 04:20:14.863836 23162 net.cpp:106] Creating Layer pool2
I0227 04:20:14.863840 23162 net.cpp:454] pool2 <- conv2_2
I0227 04:20:14.863859 23162 net.cpp:411] pool2 -> pool2
I0227 04:20:14.863939 23162 net.cpp:150] Setting up pool2
I0227 04:20:14.863946 23162 net.cpp:157] Top shape: 2 128 150 250 (9600000)
I0227 04:20:14.863950 23162 net.cpp:165] Memory required for data: 1972800216
I0227 04:20:14.863955 23162 layer_factory.hpp:77] Creating layer conv3_1
I0227 04:20:14.863965 23162 net.cpp:106] Creating Layer conv3_1
I0227 04:20:14.863970 23162 net.cpp:454] conv3_1 <- pool2
I0227 04:20:14.863976 23162 net.cpp:411] conv3_1 -> conv3_1
I0227 04:20:14.867364 23162 net.cpp:150] Setting up conv3_1
I0227 04:20:14.867377 23162 net.cpp:157] Top shape: 2 256 150 250 (19200000)
I0227 04:20:14.867393 23162 net.cpp:165] Memory required for data: 2049600216
I0227 04:20:14.867403 23162 layer_factory.hpp:77] Creating layer relu3_1
I0227 04:20:14.867410 23162 net.cpp:106] Creating Layer relu3_1
I0227 04:20:14.867416 23162 net.cpp:454] relu3_1 <- conv3_1
I0227 04:20:14.867432 23162 net.cpp:397] relu3_1 -> conv3_1 (in-place)
I0227 04:20:14.868261 23162 net.cpp:150] Setting up relu3_1
I0227 04:20:14.868270 23162 net.cpp:157] Top shape: 2 256 150 250 (19200000)
I0227 04:20:14.868285 23162 net.cpp:165] Memory required for data: 2126400216
I0227 04:20:14.868288 23162 layer_factory.hpp:77] Creating layer conv3_2
I0227 04:20:14.868297 23162 net.cpp:106] Creating Layer conv3_2
I0227 04:20:14.868301 23162 net.cpp:454] conv3_2 <- conv3_1
I0227 04:20:14.868306 23162 net.cpp:411] conv3_2 -> conv3_2
I0227 04:20:14.872079 23162 net.cpp:150] Setting up conv3_2
I0227 04:20:14.872092 23162 net.cpp:157] Top shape: 2 256 150 250 (19200000)
I0227 04:20:14.872108 23162 net.cpp:165] Memory required for data: 2203200216
I0227 04:20:14.872114 23162 layer_factory.hpp:77] Creating layer relu3_2
I0227 04:20:14.872123 23162 net.cpp:106] Creating Layer relu3_2
I0227 04:20:14.872126 23162 net.cpp:454] relu3_2 <- conv3_2
I0227 04:20:14.872134 23162 net.cpp:397] relu3_2 -> conv3_2 (in-place)
I0227 04:20:14.873075 23162 net.cpp:150] Setting up relu3_2
I0227 04:20:14.873085 23162 net.cpp:157] Top shape: 2 256 150 250 (19200000)
I0227 04:20:14.873098 23162 net.cpp:165] Memory required for data: 2280000216
I0227 04:20:14.873102 23162 layer_factory.hpp:77] Creating layer conv3_3
I0227 04:20:14.873112 23162 net.cpp:106] Creating Layer conv3_3
I0227 04:20:14.873117 23162 net.cpp:454] conv3_3 <- conv3_2
I0227 04:20:14.873126 23162 net.cpp:411] conv3_3 -> conv3_3
I0227 04:20:14.876830 23162 net.cpp:150] Setting up conv3_3
I0227 04:20:14.876844 23162 net.cpp:157] Top shape: 2 256 150 250 (19200000)
I0227 04:20:14.876859 23162 net.cpp:165] Memory required for data: 2356800216
I0227 04:20:14.876866 23162 layer_factory.hpp:77] Creating layer relu3_3
I0227 04:20:14.876876 23162 net.cpp:106] Creating Layer relu3_3
I0227 04:20:14.876886 23162 net.cpp:454] relu3_3 <- conv3_3
I0227 04:20:14.876904 23162 net.cpp:397] relu3_3 -> conv3_3 (in-place)
I0227 04:20:14.877706 23162 net.cpp:150] Setting up relu3_3
I0227 04:20:14.877718 23162 net.cpp:157] Top shape: 2 256 150 250 (19200000)
I0227 04:20:14.877734 23162 net.cpp:165] Memory required for data: 2433600216
I0227 04:20:14.877739 23162 layer_factory.hpp:77] Creating layer pool3
I0227 04:20:14.877750 23162 net.cpp:106] Creating Layer pool3
I0227 04:20:14.877771 23162 net.cpp:454] pool3 <- conv3_3
I0227 04:20:14.877791 23162 net.cpp:411] pool3 -> pool3
I0227 04:20:14.877873 23162 net.cpp:150] Setting up pool3
I0227 04:20:14.877884 23162 net.cpp:157] Top shape: 2 256 75 125 (4800000)
I0227 04:20:14.877889 23162 net.cpp:165] Memory required for data: 2452800216
I0227 04:20:14.877895 23162 layer_factory.hpp:77] Creating layer conv4_1
I0227 04:20:14.877907 23162 net.cpp:106] Creating Layer conv4_1
I0227 04:20:14.877912 23162 net.cpp:454] conv4_1 <- pool3
I0227 04:20:14.877919 23162 net.cpp:411] conv4_1 -> conv4_1
I0227 04:20:14.884253 23162 net.cpp:150] Setting up conv4_1
I0227 04:20:14.884282 23162 net.cpp:157] Top shape: 2 512 75 125 (9600000)
I0227 04:20:14.884286 23162 net.cpp:165] Memory required for data: 2491200216
I0227 04:20:14.884294 23162 layer_factory.hpp:77] Creating layer relu4_1
I0227 04:20:14.884304 23162 net.cpp:106] Creating Layer relu4_1
I0227 04:20:14.884310 23162 net.cpp:454] relu4_1 <- conv4_1
I0227 04:20:14.884326 23162 net.cpp:397] relu4_1 -> conv4_1 (in-place)
I0227 04:20:14.884665 23162 net.cpp:150] Setting up relu4_1
I0227 04:20:14.884675 23162 net.cpp:157] Top shape: 2 512 75 125 (9600000)
I0227 04:20:14.884690 23162 net.cpp:165] Memory required for data: 2529600216
I0227 04:20:14.884694 23162 layer_factory.hpp:77] Creating layer conv4_2
I0227 04:20:14.884704 23162 net.cpp:106] Creating Layer conv4_2
I0227 04:20:14.884708 23162 net.cpp:454] conv4_2 <- conv4_1
I0227 04:20:14.884716 23162 net.cpp:411] conv4_2 -> conv4_2
I0227 04:20:14.894641 23162 net.cpp:150] Setting up conv4_2
I0227 04:20:14.894675 23162 net.cpp:157] Top shape: 2 512 75 125 (9600000)
I0227 04:20:14.894680 23162 net.cpp:165] Memory required for data: 2568000216
I0227 04:20:14.894692 23162 layer_factory.hpp:77] Creating layer relu4_2
I0227 04:20:14.894701 23162 net.cpp:106] Creating Layer relu4_2
I0227 04:20:14.894708 23162 net.cpp:454] relu4_2 <- conv4_2
I0227 04:20:14.894726 23162 net.cpp:397] relu4_2 -> conv4_2 (in-place)
I0227 04:20:14.895617 23162 net.cpp:150] Setting up relu4_2
I0227 04:20:14.895627 23162 net.cpp:157] Top shape: 2 512 75 125 (9600000)
I0227 04:20:14.895640 23162 net.cpp:165] Memory required for data: 2606400216
I0227 04:20:14.895644 23162 layer_factory.hpp:77] Creating layer conv4_3
I0227 04:20:14.895656 23162 net.cpp:106] Creating Layer conv4_3
I0227 04:20:14.895674 23162 net.cpp:454] conv4_3 <- conv4_2
I0227 04:20:14.895680 23162 net.cpp:411] conv4_3 -> conv4_3
I0227 04:20:14.905050 23162 net.cpp:150] Setting up conv4_3
I0227 04:20:14.905081 23162 net.cpp:157] Top shape: 2 512 75 125 (9600000)
I0227 04:20:14.905086 23162 net.cpp:165] Memory required for data: 2644800216
I0227 04:20:14.905094 23162 layer_factory.hpp:77] Creating layer relu4_3
I0227 04:20:14.905103 23162 net.cpp:106] Creating Layer relu4_3
I0227 04:20:14.905119 23162 net.cpp:454] relu4_3 <- conv4_3
I0227 04:20:14.905125 23162 net.cpp:397] relu4_3 -> conv4_3 (in-place)
I0227 04:20:14.906910 23162 net.cpp:150] Setting up relu4_3
I0227 04:20:14.906924 23162 net.cpp:157] Top shape: 2 512 75 125 (9600000)
I0227 04:20:14.906939 23162 net.cpp:165] Memory required for data: 2683200216
I0227 04:20:14.906942 23162 layer_factory.hpp:77] Creating layer pool4
I0227 04:20:14.906951 23162 net.cpp:106] Creating Layer pool4
I0227 04:20:14.906955 23162 net.cpp:454] pool4 <- conv4_3
I0227 04:20:14.906973 23162 net.cpp:411] pool4 -> pool4
I0227 04:20:14.907043 23162 net.cpp:150] Setting up pool4
I0227 04:20:14.907052 23162 net.cpp:157] Top shape: 2 512 38 63 (2451456)
I0227 04:20:14.907055 23162 net.cpp:165] Memory required for data: 2693006040
I0227 04:20:14.907058 23162 layer_factory.hpp:77] Creating layer conv5_1
I0227 04:20:14.907069 23162 net.cpp:106] Creating Layer conv5_1
I0227 04:20:14.907078 23162 net.cpp:454] conv5_1 <- pool4
I0227 04:20:14.907083 23162 net.cpp:411] conv5_1 -> conv5_1
I0227 04:20:14.916852 23162 net.cpp:150] Setting up conv5_1
I0227 04:20:14.916889 23162 net.cpp:157] Top shape: 2 512 38 63 (2451456)
I0227 04:20:14.916895 23162 net.cpp:165] Memory required for data: 2702811864
I0227 04:20:14.916904 23162 layer_factory.hpp:77] Creating layer relu5_1
I0227 04:20:14.916925 23162 net.cpp:106] Creating Layer relu5_1
I0227 04:20:14.916930 23162 net.cpp:454] relu5_1 <- conv5_1
I0227 04:20:14.916936 23162 net.cpp:397] relu5_1 -> conv5_1 (in-place)
I0227 04:20:14.917868 23162 net.cpp:150] Setting up relu5_1
I0227 04:20:14.917878 23162 net.cpp:157] Top shape: 2 512 38 63 (2451456)
I0227 04:20:14.917893 23162 net.cpp:165] Memory required for data: 2712617688
I0227 04:20:14.917897 23162 layer_factory.hpp:77] Creating layer conv5_2
I0227 04:20:14.917908 23162 net.cpp:106] Creating Layer conv5_2
I0227 04:20:14.917927 23162 net.cpp:454] conv5_2 <- conv5_1
I0227 04:20:14.917933 23162 net.cpp:411] conv5_2 -> conv5_2
I0227 04:20:14.927647 23162 net.cpp:150] Setting up conv5_2
I0227 04:20:14.927680 23162 net.cpp:157] Top shape: 2 512 38 63 (2451456)
I0227 04:20:14.927683 23162 net.cpp:165] Memory required for data: 2722423512
I0227 04:20:14.927693 23162 layer_factory.hpp:77] Creating layer relu5_2
I0227 04:20:14.927702 23162 net.cpp:106] Creating Layer relu5_2
I0227 04:20:14.927718 23162 net.cpp:454] relu5_2 <- conv5_2
I0227 04:20:14.927726 23162 net.cpp:397] relu5_2 -> conv5_2 (in-place)
I0227 04:20:14.928710 23162 net.cpp:150] Setting up relu5_2
I0227 04:20:14.928719 23162 net.cpp:157] Top shape: 2 512 38 63 (2451456)
I0227 04:20:14.928735 23162 net.cpp:165] Memory required for data: 2732229336
I0227 04:20:14.928738 23162 layer_factory.hpp:77] Creating layer conv5_3
I0227 04:20:14.928748 23162 net.cpp:106] Creating Layer conv5_3
I0227 04:20:14.928751 23162 net.cpp:454] conv5_3 <- conv5_2
I0227 04:20:14.928769 23162 net.cpp:411] conv5_3 -> conv5_3
I0227 04:20:14.937628 23162 net.cpp:150] Setting up conv5_3
I0227 04:20:14.937664 23162 net.cpp:157] Top shape: 2 512 38 63 (2451456)
I0227 04:20:14.937667 23162 net.cpp:165] Memory required for data: 2742035160
I0227 04:20:14.937676 23162 layer_factory.hpp:77] Creating layer relu5_3
I0227 04:20:14.937685 23162 net.cpp:106] Creating Layer relu5_3
I0227 04:20:14.937701 23162 net.cpp:454] relu5_3 <- conv5_3
I0227 04:20:14.937707 23162 net.cpp:397] relu5_3 -> conv5_3 (in-place)
I0227 04:20:14.938611 23162 net.cpp:150] Setting up relu5_3
I0227 04:20:14.938623 23162 net.cpp:157] Top shape: 2 512 38 63 (2451456)
I0227 04:20:14.938638 23162 net.cpp:165] Memory required for data: 2751840984
I0227 04:20:14.938642 23162 layer_factory.hpp:77] Creating layer conv5_3_relu5_3_0_split
I0227 04:20:14.938650 23162 net.cpp:106] Creating Layer conv5_3_relu5_3_0_split
I0227 04:20:14.938654 23162 net.cpp:454] conv5_3_relu5_3_0_split <- conv5_3
I0227 04:20:14.938671 23162 net.cpp:411] conv5_3_relu5_3_0_split -> conv5_3_relu5_3_0_split_0
I0227 04:20:14.938680 23162 net.cpp:411] conv5_3_relu5_3_0_split -> conv5_3_relu5_3_0_split_1
I0227 04:20:14.938746 23162 net.cpp:150] Setting up conv5_3_relu5_3_0_split
I0227 04:20:14.938755 23162 net.cpp:157] Top shape: 2 512 38 63 (2451456)
I0227 04:20:14.938758 23162 net.cpp:157] Top shape: 2 512 38 63 (2451456)
I0227 04:20:14.938762 23162 net.cpp:165] Memory required for data: 2771452632
I0227 04:20:14.938766 23162 layer_factory.hpp:77] Creating layer roi_pool5
I0227 04:20:14.938796 23162 net.cpp:106] Creating Layer roi_pool5
I0227 04:20:14.938801 23162 net.cpp:454] roi_pool5 <- conv5_3_relu5_3_0_split_0
I0227 04:20:14.938807 23162 net.cpp:454] roi_pool5 <- rois
I0227 04:20:14.938812 23162 net.cpp:411] roi_pool5 -> pool5
I0227 04:20:14.938820 23162 roi_pooling_layer.cpp:30] Spatial scale: 0.0625
I0227 04:20:14.938889 23162 net.cpp:150] Setting up roi_pool5
I0227 04:20:14.938896 23162 net.cpp:157] Top shape: 1 512 7 7 (25088)
I0227 04:20:14.938899 23162 net.cpp:165] Memory required for data: 2771552984
I0227 04:20:14.938902 23162 layer_factory.hpp:77] Creating layer fc6
I0227 04:20:14.938911 23162 net.cpp:106] Creating Layer fc6
I0227 04:20:14.938915 23162 net.cpp:454] fc6 <- pool5
I0227 04:20:14.938921 23162 net.cpp:411] fc6 -> fc6
I0227 04:20:15.295176 23162 net.cpp:150] Setting up fc6
I0227 04:20:15.295228 23162 net.cpp:157] Top shape: 1 4096 (4096)
I0227 04:20:15.295233 23162 net.cpp:165] Memory required for data: 2771569368
I0227 04:20:15.295244 23162 layer_factory.hpp:77] Creating layer relu6
I0227 04:20:15.295258 23162 net.cpp:106] Creating Layer relu6
I0227 04:20:15.295264 23162 net.cpp:454] relu6 <- fc6
I0227 04:20:15.295271 23162 net.cpp:397] relu6 -> fc6 (in-place)
I0227 04:20:15.295548 23162 net.cpp:150] Setting up relu6
I0227 04:20:15.295559 23162 net.cpp:157] Top shape: 1 4096 (4096)
I0227 04:20:15.295563 23162 net.cpp:165] Memory required for data: 2771585752
I0227 04:20:15.295567 23162 layer_factory.hpp:77] Creating layer drop6
I0227 04:20:15.295578 23162 net.cpp:106] Creating Layer drop6
I0227 04:20:15.295593 23162 net.cpp:454] drop6 <- fc6
I0227 04:20:15.295599 23162 net.cpp:397] drop6 -> fc6 (in-place)
I0227 04:20:15.295645 23162 net.cpp:150] Setting up drop6
I0227 04:20:15.295653 23162 net.cpp:157] Top shape: 1 4096 (4096)
I0227 04:20:15.295657 23162 net.cpp:165] Memory required for data: 2771602136
I0227 04:20:15.295662 23162 layer_factory.hpp:77] Creating layer fc7
I0227 04:20:15.295683 23162 net.cpp:106] Creating Layer fc7
I0227 04:20:15.295687 23162 net.cpp:454] fc7 <- fc6
I0227 04:20:15.295693 23162 net.cpp:411] fc7 -> fc7
I0227 04:20:15.341043 23162 net.cpp:150] Setting up fc7
I0227 04:20:15.341100 23162 net.cpp:157] Top shape: 1 4096 (4096)
I0227 04:20:15.341106 23162 net.cpp:165] Memory required for data: 2771618520
I0227 04:20:15.341122 23162 layer_factory.hpp:77] Creating layer relu7
I0227 04:20:15.341135 23162 net.cpp:106] Creating Layer relu7
I0227 04:20:15.341145 23162 net.cpp:454] relu7 <- fc7
I0227 04:20:15.341163 23162 net.cpp:397] relu7 -> fc7 (in-place)
I0227 04:20:15.341711 23162 net.cpp:150] Setting up relu7
I0227 04:20:15.341724 23162 net.cpp:157] Top shape: 1 4096 (4096)
I0227 04:20:15.341739 23162 net.cpp:165] Memory required for data: 2771634904
I0227 04:20:15.341743 23162 layer_factory.hpp:77] Creating layer drop7
I0227 04:20:15.341753 23162 net.cpp:106] Creating Layer drop7
I0227 04:20:15.341758 23162 net.cpp:454] drop7 <- fc7
I0227 04:20:15.341765 23162 net.cpp:397] drop7 -> fc7 (in-place)
I0227 04:20:15.341828 23162 net.cpp:150] Setting up drop7
I0227 04:20:15.341836 23162 net.cpp:157] Top shape: 1 4096 (4096)
I0227 04:20:15.341840 23162 net.cpp:165] Memory required for data: 2771651288
I0227 04:20:15.341845 23162 layer_factory.hpp:77] Creating layer fc7_drop7_0_split
I0227 04:20:15.341863 23162 net.cpp:106] Creating Layer fc7_drop7_0_split
I0227 04:20:15.341867 23162 net.cpp:454] fc7_drop7_0_split <- fc7
I0227 04:20:15.341873 23162 net.cpp:411] fc7_drop7_0_split -> fc7_drop7_0_split_0
I0227 04:20:15.341881 23162 net.cpp:411] fc7_drop7_0_split -> fc7_drop7_0_split_1
I0227 04:20:15.341956 23162 net.cpp:150] Setting up fc7_drop7_0_split
I0227 04:20:15.341964 23162 net.cpp:157] Top shape: 1 4096 (4096)
I0227 04:20:15.341970 23162 net.cpp:157] Top shape: 1 4096 (4096)
I0227 04:20:15.341974 23162 net.cpp:165] Memory required for data: 2771684056
I0227 04:20:15.341977 23162 layer_factory.hpp:77] Creating layer cls_score
I0227 04:20:15.341989 23162 net.cpp:106] Creating Layer cls_score
I0227 04:20:15.341992 23162 net.cpp:454] cls_score <- fc7_drop7_0_split_0
I0227 04:20:15.342000 23162 net.cpp:411] cls_score -> cls_score
I0227 04:20:15.342723 23162 net.cpp:150] Setting up cls_score
I0227 04:20:15.342731 23162 net.cpp:157] Top shape: 1 4 (4)
I0227 04:20:15.342747 23162 net.cpp:165] Memory required for data: 2771684072
I0227 04:20:15.342753 23162 layer_factory.hpp:77] Creating layer bbox_pred
I0227 04:20:15.342761 23162 net.cpp:106] Creating Layer bbox_pred
I0227 04:20:15.342766 23162 net.cpp:454] bbox_pred <- fc7_drop7_0_split_1
I0227 04:20:15.342774 23162 net.cpp:411] bbox_pred -> bbox_pred
I0227 04:20:15.344939 23162 net.cpp:150] Setting up bbox_pred
I0227 04:20:15.344947 23162 net.cpp:157] Top shape: 1 16 (16)
I0227 04:20:15.344962 23162 net.cpp:165] Memory required for data: 2771684136
I0227 04:20:15.344979 23162 layer_factory.hpp:77] Creating layer loss_cls
I0227 04:20:15.344990 23162 net.cpp:106] Creating Layer loss_cls
I0227 04:20:15.345005 23162 net.cpp:454] loss_cls <- cls_score
I0227 04:20:15.345010 23162 net.cpp:454] loss_cls <- labels
I0227 04:20:15.345016 23162 net.cpp:411] loss_cls -> loss_cls
…
I0227 04:20:15.345726 23162 net.cpp:157] Top shape: (1)
I0227 04:20:15.345731 23162 net.cpp:160]     with loss weight 1
I0227 04:20:15.345737 23162 net.cpp:165] Memory required for data: 2771684144
I0227 04:20:15.345742 23162 layer_factory.hpp:77] Creating layer rpn_conv/3x3
I0227 04:20:15.345759 23162 net.cpp:106] Creating Layer rpn_conv/3x3
I0227 04:20:15.345767 23162 net.cpp:454] rpn_conv/3x3 <- conv5_3_relu5_3_0_split_1
I0227 04:20:15.345777 23162 net.cpp:411] rpn_conv/3x3 -> rpn/output
I0227 04:20:15.575197 23162 net.cpp:150] Setting up rpn_conv/3x3
I0227 04:20:15.575247 23162 net.cpp:157] Top shape: 2 512 38 63 (2451456)
I0227 04:20:15.575251 23162 net.cpp:165] Memory required for data: 2781489968
I0227 04:20:15.575261 23162 layer_factory.hpp:77] Creating layer rpn_relu/3x3
I0227 04:20:15.575273 23162 net.cpp:106] Creating Layer rpn_relu/3x3
I0227 04:20:15.575278 23162 net.cpp:454] rpn_relu/3x3 <- rpn/output
I0227 04:20:15.575286 23162 net.cpp:397] rpn_relu/3x3 -> rpn/output (in-place)
I0227 04:20:15.576057 23162 net.cpp:150] Setting up rpn_relu/3x3
I0227 04:20:15.576069 23162 net.cpp:157] Top shape: 2 512 38 63 (2451456)
I0227 04:20:15.576084 23162 net.cpp:165] Memory required for data: 2791295792
I0227 04:20:15.576088 23162 layer_factory.hpp:77] Creating layer rpn/output_rpn_relu/3x3_0_split
I0227 04:20:15.576095 23162 net.cpp:106] Creating Layer rpn/output_rpn_relu/3x3_0_split
I0227 04:20:15.576099 23162 net.cpp:454] rpn/output_rpn_relu/3x3_0_split <- rpn/output
I0227 04:20:15.576107 23162 net.cpp:411] rpn/output_rpn_relu/3x3_0_split -> rpn/output_rpn_relu/3x3_0_split_0
I0227 04:20:15.576115 23162 net.cpp:411] rpn/output_rpn_relu/3x3_0_split -> rpn/output_rpn_relu/3x3_0_split_1
I0227 04:20:15.576210 23162 net.cpp:150] Setting up rpn/output_rpn_relu/3x3_0_split
I0227 04:20:15.576217 23162 net.cpp:157] Top shape: 2 512 38 63 (2451456)
I0227 04:20:15.576222 23162 net.cpp:157] Top shape: 2 512 38 63 (2451456)
I0227 04:20:15.576226 23162 net.cpp:165] Memory required for data: 2810907440
I0227 04:20:15.576231 23162 layer_factory.hpp:77] Creating layer rpn_cls_score
I0227 04:20:15.576256 23162 net.cpp:106] Creating Layer rpn_cls_score
I0227 04:20:15.576259 23162 net.cpp:454] rpn_cls_score <- rpn/output_rpn_relu/3x3_0_split_0
I0227 04:20:15.576267 23162 net.cpp:411] rpn_cls_score -> rpn_cls_score
I0227 04:20:15.579943 23162 net.cpp:150] Setting up rpn_cls_score
I0227 04:20:15.579972 23162 net.cpp:157] Top shape: 2 18 38 63 (86184)
I0227 04:20:15.579977 23162 net.cpp:165] Memory required for data: 2811252176
I0227 04:20:15.579984 23162 layer_factory.hpp:77] Creating layer rpn_bbox_pred
I0227 04:20:15.579996 23162 net.cpp:106] Creating Layer rpn_bbox_pred
I0227 04:20:15.580014 23162 net.cpp:454] rpn_bbox_pred <- rpn/output_rpn_relu/3x3_0_split_1
I0227 04:20:15.580034 23162 net.cpp:411] rpn_bbox_pred -> rpn_bbox_pred
I0227 04:20:15.583369 23162 net.cpp:150] Setting up rpn_bbox_pred
I0227 04:20:15.583381 23162 net.cpp:157] Top shape: 2 36 38 63 (172368)
I0227 04:20:15.583397 23162 net.cpp:165] Memory required for data: 2811941648
I0227 04:20:15.583405 23162 layer_factory.hpp:77] Creating layer silence_rpn_cls_score
I0227 04:20:15.583411 23162 net.cpp:106] Creating Layer silence_rpn_cls_score
I0227 04:20:15.583415 23162 net.cpp:454] silence_rpn_cls_score <- rpn_cls_score
I0227 04:20:15.583423 23162 net.cpp:150] Setting up silence_rpn_cls_score
…
