…
snapshot: 0
snapshot_prefix: "vgg16_rpn"
average_loss: 100
I0226 10:26:54.871830 21209 solver.cpp:81] Creating training net from train_net file: models/pascal_voc/VGG16/faster_rcnn_alt_opt/stage1_rpn_train.pt
I0226 10:26:54.872685 21209 net.cpp:49] Initializing net from parameters: 
name: "VGG_ILSVRC_16_layers"
state {
  phase: TRAIN
}
layer {
  name: "input-data"
  type: "Python"
  top: "data"
  top: "im_info"
  top: "gt_boxes"
  python_param {
    module: "roi_data_layer.layer"
    layer: "RoIDataLayer"
    param_str: "\'num_classes\': 4"
  }
}
layer {
  name: "conv1_1"
  type: "Convolution"
  bottom: "data"
  top: "conv1_1"
  param {
    lr_mult: 0
    decay_mult: 0
  }
  param {
    lr_mult: 0
    decay_mult: 0
  }
  convolution_param {
    num_output: 64
    pad: 1
    kernel_size: 3
  }
}
layer {
  name: "relu1_1"
  type: "ReLU"
  bottom: "conv1_1"
  top: "conv1_1"
}
layer {
  name: "conv1_2"
  type: "Convolution"
  bottom: "conv1_1"
  top: "conv1_2"
  param {
    lr_mult: 0
    decay_mult: 0
  }
  param {
    lr_mult: 0
    decay_mult: 0
  }
  convolution_param {
    num_output: 64
    pad: 1
    kernel_size: 3
  }
}
layer {
  name: "relu1_2"
  type: "ReLU"
  bottom: "conv1_2"
  top: "conv1_2"
}
layer {
  name: "pool1"
  type: "Pooling"
  bottom: "conv1_2"
  top: "pool1"
  pooling_param {
    pool: MAX
    kernel_size: 2
    stride: 2
  }
}
layer {
  name: "conv2_1"
  type: "Convolution"
  bottom: "pool1"
  top: "conv2_1"
  param {
    lr_mult: 0
    decay_mult: 0
  }
  param {
    lr_mult: 0
    decay_mult: 0
  }
  convolution_param {
    num_output: 128
    pad: 1
    kernel_size: 3
  }
}
layer {
  name: "relu2_1"
  type: "ReLU"
  bottom: "conv2_1"
  top: "conv2_1"
}
layer {
  name: "conv2_2"
  type: "Convolution"
  bottom: "conv2_1"
  top: "conv2_2"
  param {
    lr_mult: 0
    decay_mult: 0
  }
  param {
    lr_mult: 0
    decay_mult: 0
  }
  convolution_param {
    num_output: 128
    pad: 1
    kernel_size: 3
  }
}
layer {
  name: "relu2_2"
  type: "ReLU"
  bottom: "conv2_2"
  top: "conv2_2"
}
layer {
  name: "pool2"
  type: "Pooling"
  bottom: "conv2_2"
  top: "pool2"
  pooling_param {
    pool: MAX
    kernel_size: 2
    stride: 2
  }
}
layer {
  name: "conv3_1"
  type: "Convolution"
  bottom: "pool2"
  top: "conv3_1"
  param {
    lr_mult: 1
  }
  param {
    lr_mult: 2
  }
  convolution_param {
    num_output: 256
    pad: 1
    kernel_size: 3
  }
}
layer {
  name: "relu3_1"
  type: "ReLU"
  bottom: "conv3_1"
  top: "conv3_1"
}
layer {
  name: "conv3_2"
  type: "Convolution"
  bottom: "conv3_1"
  top: "conv3_2"
  param {
    lr_mult: 1
  }
  param {
    lr_mult: 2
  }
  convolution_param {
    num_output: 256
    pad: 1
    kernel_size: 3
  }
}
layer {
  name: "relu3_2"
  type: "ReLU"
  bottom: "conv3_2"
  top: "conv3_2"
}
layer {
  name: "conv3_3"
  type: "Convolution"
  bottom: "conv3_2"
  top: "conv3_3"
  param {
    lr_mult: 1
  }
  param {
    lr_mult: 2
  }
  convolution_param {
    num_output: 256
    pad: 1
    kernel_size: 3
  }
}
layer {
  name: "relu3_3"
  type: "ReLU"
  bottom: "conv3_3"
  top: "conv3_3"
}
layer {
  name: "pool3"
  type: "Pooling"
  bottom: "conv3_3"
  top: "pool3"
  pooling_param {
    pool: MAX
    kernel_size: 2
    stride: 2
  }
}
layer {
  name: "conv4_1"
  type: "Convolution"
  bottom: "pool3"
  top: "conv4_1"
  param {
    lr_mult: 1
  }
  param {
    lr_mult: 2
  }
  convolution_param {
    num_output: 512
    pad: 1
    kernel_size: 3
  }
}
layer {
  name: "relu4_1"
  type: "ReLU"
  bottom: "conv4_1"
  top: "conv4_1"
}
layer {
  name: "conv4_2"
  type: "Convolution"
  bottom: "conv4_1"
  top: "conv4_2"
  param {
    lr_mult: 1
  }
  param {
    lr_mult: 2
  }
  convolution_param {
    num_output: 512
    pad: 1
    kernel_size: 3
  }
}
layer {
  name: "relu4_2"
  type: "ReLU"
  bottom: "conv4_2"
  top: "conv4_2"
}
layer {
  name: "conv4_3"
  type: "Convolution"
  bottom: "conv4_2"
  top: "conv4_3"
  param {
    lr_mult: 1
  }
  param {
    lr_mult: 2
  }
  convolution_param {
    num_output: 512
    pad: 1
    kernel_size: 3
  }
}
layer {
  name: "relu4_3"
  type: "ReLU"
  bottom: "conv4_3"
  top: "conv4_3"
}
layer {
  name: "pool4"
  type: "Pooling"
  bottom: "conv4_3"
  top: "pool4"
  pooling_param {
    pool: MAX
    kernel_size: 2
    stride: 2
  }
}
layer {
  name: "conv5_1"
  type: "Convolution"
  bottom: "pool4"
  top: "conv5_1"
  param {
    lr_mult: 1
  }
  param {
    lr_mult: 2
  }
  convolution_param {
    num_output: 512
    pad: 1
    kernel_size: 3
  }
}
layer {
  name: "relu5_1"
  type: "ReLU"
  bottom: "conv5_1"
  top: "conv5_1"
}
layer {
  name: "conv5_2"
  type: "Convolution"
  bottom: "conv5_1"
  top: "conv5_2"
  param {
    lr_mult: 1
  }
  param {
    lr_mult: 2
  }
  convolution_param {
    num_output: 512
    pad: 1
    kernel_size: 3
  }
}
layer {
  name: "relu5_2"
  type: "ReLU"
  bottom: "conv5_2"
  top: "conv5_2"
}
layer {
  name: "conv5_3"
  type: "Convolution"
  bottom: "conv5_2"
  top: "conv5_3"
  param {
    lr_mult: 1
  }
  param {
    lr_mult: 2
  }
  convolution_param {
    num_output: 512
    pad: 1
    kernel_size: 3
  }
}
layer {
  name: "relu5_3"
  type: "ReLU"
  bottom: "conv5_3"
  top: "conv5_3"
}
layer {
  name: "rpn_conv/3x3"
  type: "Convolution"
  bottom: "conv5_3"
  top: "rpn/output"
  param {
    lr_mult: 1
  }
  param {
    lr_mult: 2
  }
  convolution_param {
    num_output: 512
    pad: 1
    kernel_size: 3
    stride: 1
    weight_filler {
      type: "gaussian"
      std: 0.01
    }
    bias_filler {
      type: "constant"
      value: 0
    }
  }
}
layer {
  name: "rpn_relu/3x3"
  type: "ReLU"
  bottom: "rpn/output"
  top: "rpn/output"
}
layer {
  name: "rpn_cls_score"
  type: "Convolution"
  bottom: "rpn/output"
  top: "rpn_cls_score"
  param {
    lr_mult: 1
  }
  param {
    lr_mult: 2
  }
  convolution_param {
    num_output: 18
    pad: 0
    kernel_size: 1
    stride: 1
    weight_filler {
      type: "gaussian"
      std: 0.01
    }
    bias_filler {
      type: "constant"
      value: 0
    }
  }
}
layer {
  name: "rpn_bbox_pred"
  type: "Convolution"
  bottom: "rpn/output"
  top: "rpn_bbox_pred"
  param {
    lr_mult: 1
  }
  param {
    lr_mult: 2
  }
  convolution_param {
    num_output: 36
    pad: 0
    kernel_size: 1
    stride: 1
    weight_filler {
      type: "gaussian"
      std: 0.01
    }
    bias_filler {
      type: "constant"
      value: 0
    }
  }
}
layer {
  name: "rpn_cls_score_reshape"
  type: "Reshape"
  bottom: "rpn_cls_score"
  top: "rpn_cls_score_reshape"
  reshape_param {
    shape {
      dim: 0
      dim: 2
      dim: -1
      dim: 0
    }
  }
}
layer {
  name: "rpn-data"
  type: "Python"
  bottom: "rpn_cls_score"
  bottom: "gt_boxes"
  bottom: "im_info"
  bottom: "data"
  top: "rpn_labels"
  top: "rpn_bbox_targets"
  top: "rpn_bbox_inside_weights"
  top: "rpn_bbox_outside_weights"
  python_param {
    module: "rpn.anchor_target_layer"
    layer: "AnchorTargetLayer"
    param_str: "\'feat_stride\': 16"
  }
}
layer {
  name: "rpn_loss_cls"
  type: "SoftmaxWithLoss"
  bottom: "rpn_cls_score_reshape"
  bottom: "rpn_labels"
  top: "rpn_cls_loss"
  loss_weight: 1
  propagate_down: true
  propagate_down: false
  loss_param {
    ignore_label: -1
    normalize: true
  }
}
layer {
  name: "rpn_loss_bbox"
  type: "SmoothL1Loss"
  bottom: "rpn_bbox_pred"
  bottom: "rpn_bbox_targets"
  bottom: "rpn_bbox_inside_weights"
  bottom: "rpn_bbox_outside_weights"
  top: "rpn_loss_bbox"
  loss_weight: 1
  smooth_l1_loss_param {
    sigma: 3
  }
}
layer {
  name: "dummy_roi_pool_conv5"
  type: "DummyData"
  top: "dummy_roi_pool_conv5"
  dummy_data_param {
    data_filler {
      type: "constant"
      value: 0
    }
    shape {
      dim: 1
      dim: 25088
    }
  }
}
layer {
  name: "fc6"
  type: "InnerProduct"
  bottom: "dummy_roi_pool_conv5"
  top: "fc6"
  param {
    lr_mult: 0
    decay_mult: 0
  }
  param {
    lr_mult: 0
    decay_mult: 0
  }
  inner_product_param {
    num_output: 4096
  }
}
layer {
  name: "relu6"
  type: "ReLU"
  bottom: "fc6"
  top: "fc6"
}
layer {
  name: "drop6"
  type: "Dropout"
  bottom: "fc6"
  top: "fc6"
  dropout_param {
    dropout_ratio: 0.5
  }
}
layer {
  name: "fc7"
  type: "InnerProduct"
  bottom: "fc6"
  top: "fc7"
  param {
    lr_mult: 0
    decay_mult: 0
  }
  param {
    lr_mult: 0
    decay_mult: 0
  }
  inner_product_param {
    num_output: 4096
  }
}
layer {
  name: "silence_fc7"
  type: "Silence"
  bottom: "fc7"
}
I0226 10:26:54.872866 21209 layer_factory.hpp:77] Creating layer input-data
I0226 10:26:54.873634 21209 net.cpp:106] Creating Layer input-data
I0226 10:26:54.873648 21209 net.cpp:411] input-data -> data
I0226 10:26:54.873658 21209 net.cpp:411] input-data -> im_info
I0226 10:26:54.873666 21209 net.cpp:411] input-data -> gt_boxes
RoiDataLayer: name_to_top: {'gt_boxes': 2, 'data': 0, 'im_info': 1}
I0226 10:26:54.925938 21209 net.cpp:150] Setting up input-data
I0226 10:26:54.925974 21209 net.cpp:157] Top shape: 1 3 600 1000 (1800000)
I0226 10:26:54.925983 21209 net.cpp:157] Top shape: 1 3 (3)
I0226 10:26:54.925992 21209 net.cpp:157] Top shape: 1 4 (4)
I0226 10:26:54.925997 21209 net.cpp:165] Memory required for data: 7200028
I0226 10:26:54.926004 21209 layer_factory.hpp:77] Creating layer data_input-data_0_split
I0226 10:26:54.926020 21209 net.cpp:106] Creating Layer data_input-data_0_split
I0226 10:26:54.926031 21209 net.cpp:454] data_input-data_0_split <- data
I0226 10:26:54.926041 21209 net.cpp:411] data_input-data_0_split -> data_input-data_0_split_0
I0226 10:26:54.926057 21209 net.cpp:411] data_input-data_0_split -> data_input-data_0_split_1
I0226 10:26:54.926128 21209 net.cpp:150] Setting up data_input-data_0_split
I0226 10:26:54.926139 21209 net.cpp:157] Top shape: 1 3 600 1000 (1800000)
I0226 10:26:54.926146 21209 net.cpp:157] Top shape: 1 3 600 1000 (1800000)
I0226 10:26:54.926153 21209 net.cpp:165] Memory required for data: 21600028
I0226 10:26:54.926161 21209 layer_factory.hpp:77] Creating layer conv1_1
I0226 10:26:54.926188 21209 net.cpp:106] Creating Layer conv1_1
I0226 10:26:54.926196 21209 net.cpp:454] conv1_1 <- data_input-data_0_split_0
I0226 10:26:54.926213 21209 net.cpp:411] conv1_1 -> conv1_1
I0226 10:26:55.151770 21209 net.cpp:150] Setting up conv1_1
I0226 10:26:55.151806 21209 net.cpp:157] Top shape: 1 64 600 1000 (38400000)
I0226 10:26:55.151813 21209 net.cpp:165] Memory required for data: 175200028
I0226 10:26:55.151844 21209 layer_factory.hpp:77] Creating layer relu1_1
I0226 10:26:55.151861 21209 net.cpp:106] Creating Layer relu1_1
I0226 10:26:55.151868 21209 net.cpp:454] relu1_1 <- conv1_1
I0226 10:26:55.151877 21209 net.cpp:397] relu1_1 -> conv1_1 (in-place)
I0226 10:26:55.152168 21209 net.cpp:150] Setting up relu1_1
I0226 10:26:55.152194 21209 net.cpp:157] Top shape: 1 64 600 1000 (38400000)
I0226 10:26:55.152202 21209 net.cpp:165] Memory required for data: 328800028
I0226 10:26:55.152209 21209 layer_factory.hpp:77] Creating layer conv1_2
I0226 10:26:55.152225 21209 net.cpp:106] Creating Layer conv1_2
I0226 10:26:55.152235 21209 net.cpp:454] conv1_2 <- conv1_1
I0226 10:26:55.152245 21209 net.cpp:411] conv1_2 -> conv1_2
I0226 10:26:55.155472 21209 net.cpp:150] Setting up conv1_2
I0226 10:26:55.155499 21209 net.cpp:157] Top shape: 1 64 600 1000 (38400000)
I0226 10:26:55.155503 21209 net.cpp:165] Memory required for data: 482400028
I0226 10:26:55.155514 21209 layer_factory.hpp:77] Creating layer relu1_2
I0226 10:26:55.155520 21209 net.cpp:106] Creating Layer relu1_2
I0226 10:26:55.155526 21209 net.cpp:454] relu1_2 <- conv1_2
I0226 10:26:55.155534 21209 net.cpp:397] relu1_2 -> conv1_2 (in-place)
I0226 10:26:55.155700 21209 net.cpp:150] Setting up relu1_2
I0226 10:26:55.155712 21209 net.cpp:157] Top shape: 1 64 600 1000 (38400000)
I0226 10:26:55.155724 21209 net.cpp:165] Memory required for data: 636000028
I0226 10:26:55.155730 21209 layer_factory.hpp:77] Creating layer pool1
I0226 10:26:55.155743 21209 net.cpp:106] Creating Layer pool1
I0226 10:26:55.155752 21209 net.cpp:454] pool1 <- conv1_2
I0226 10:26:55.155761 21209 net.cpp:411] pool1 -> pool1
I0226 10:26:55.155833 21209 net.cpp:150] Setting up pool1
I0226 10:26:55.155843 21209 net.cpp:157] Top shape: 1 64 300 500 (9600000)
I0226 10:26:55.155849 21209 net.cpp:165] Memory required for data: 674400028
I0226 10:26:55.155855 21209 layer_factory.hpp:77] Creating layer conv2_1
I0226 10:26:55.155866 21209 net.cpp:106] Creating Layer conv2_1
I0226 10:26:55.155874 21209 net.cpp:454] conv2_1 <- pool1
I0226 10:26:55.155884 21209 net.cpp:411] conv2_1 -> conv2_1
I0226 10:26:55.157740 21209 net.cpp:150] Setting up conv2_1
I0226 10:26:55.157768 21209 net.cpp:157] Top shape: 1 128 300 500 (19200000)
I0226 10:26:55.157773 21209 net.cpp:165] Memory required for data: 751200028
I0226 10:26:55.157786 21209 layer_factory.hpp:77] Creating layer relu2_1
I0226 10:26:55.157802 21209 net.cpp:106] Creating Layer relu2_1
I0226 10:26:55.157811 21209 net.cpp:454] relu2_1 <- conv2_1
I0226 10:26:55.157821 21209 net.cpp:397] relu2_1 -> conv2_1 (in-place)
I0226 10:26:55.157989 21209 net.cpp:150] Setting up relu2_1
I0226 10:26:55.158000 21209 net.cpp:157] Top shape: 1 128 300 500 (19200000)
I0226 10:26:55.158007 21209 net.cpp:165] Memory required for data: 828000028
I0226 10:26:55.158013 21209 layer_factory.hpp:77] Creating layer conv2_2
I0226 10:26:55.158026 21209 net.cpp:106] Creating Layer conv2_2
I0226 10:26:55.158035 21209 net.cpp:454] conv2_2 <- conv2_1
I0226 10:26:55.158046 21209 net.cpp:411] conv2_2 -> conv2_2
I0226 10:26:55.160686 21209 net.cpp:150] Setting up conv2_2
I0226 10:26:55.160701 21209 net.cpp:157] Top shape: 1 128 300 500 (19200000)
I0226 10:26:55.160708 21209 net.cpp:165] Memory required for data: 904800028
I0226 10:26:55.160718 21209 layer_factory.hpp:77] Creating layer relu2_2
I0226 10:26:55.160729 21209 net.cpp:106] Creating Layer relu2_2
I0226 10:26:55.160737 21209 net.cpp:454] relu2_2 <- conv2_2
I0226 10:26:55.160750 21209 net.cpp:397] relu2_2 -> conv2_2 (in-place)
I0226 10:26:55.161041 21209 net.cpp:150] Setting up relu2_2
I0226 10:26:55.161054 21209 net.cpp:157] Top shape: 1 128 300 500 (19200000)
I0226 10:26:55.161062 21209 net.cpp:165] Memory required for data: 981600028
I0226 10:26:55.161067 21209 layer_factory.hpp:77] Creating layer pool2
I0226 10:26:55.161079 21209 net.cpp:106] Creating Layer pool2
I0226 10:26:55.161087 21209 net.cpp:454] pool2 <- conv2_2
I0226 10:26:55.161101 21209 net.cpp:411] pool2 -> pool2
I0226 10:26:55.161175 21209 net.cpp:150] Setting up pool2
I0226 10:26:55.161185 21209 net.cpp:157] Top shape: 1 128 150 250 (4800000)
I0226 10:26:55.161192 21209 net.cpp:165] Memory required for data: 1000800028
I0226 10:26:55.161197 21209 layer_factory.hpp:77] Creating layer conv3_1
I0226 10:26:55.161213 21209 net.cpp:106] Creating Layer conv3_1
I0226 10:26:55.161222 21209 net.cpp:454] conv3_1 <- pool2
I0226 10:26:55.161231 21209 net.cpp:411] conv3_1 -> conv3_1
I0226 10:26:55.163359 21209 net.cpp:150] Setting up conv3_1
I0226 10:26:55.163375 21209 net.cpp:157] Top shape: 1 256 150 250 (9600000)
I0226 10:26:55.163383 21209 net.cpp:165] Memory required for data: 1039200028
I0226 10:26:55.163398 21209 layer_factory.hpp:77] Creating layer relu3_1
I0226 10:26:55.163411 21209 net.cpp:106] Creating Layer relu3_1
I0226 10:26:55.163420 21209 net.cpp:454] relu3_1 <- conv3_1
I0226 10:26:55.163429 21209 net.cpp:397] relu3_1 -> conv3_1 (in-place)
I0226 10:26:55.163609 21209 net.cpp:150] Setting up relu3_1
I0226 10:26:55.163621 21209 net.cpp:157] Top shape: 1 256 150 250 (9600000)
I0226 10:26:55.163627 21209 net.cpp:165] Memory required for data: 1077600028
I0226 10:26:55.163635 21209 layer_factory.hpp:77] Creating layer conv3_2
I0226 10:26:55.163650 21209 net.cpp:106] Creating Layer conv3_2
I0226 10:26:55.163657 21209 net.cpp:454] conv3_2 <- conv3_1
I0226 10:26:55.163669 21209 net.cpp:411] conv3_2 -> conv3_2
I0226 10:26:55.166401 21209 net.cpp:150] Setting up conv3_2
I0226 10:26:55.166417 21209 net.cpp:157] Top shape: 1 256 150 250 (9600000)
I0226 10:26:55.166424 21209 net.cpp:165] Memory required for data: 1116000028
I0226 10:26:55.166437 21209 layer_factory.hpp:77] Creating layer relu3_2
I0226 10:26:55.166450 21209 net.cpp:106] Creating Layer relu3_2
I0226 10:26:55.166457 21209 net.cpp:454] relu3_2 <- conv3_2
I0226 10:26:55.166471 21209 net.cpp:397] relu3_2 -> conv3_2 (in-place)
I0226 10:26:55.166656 21209 net.cpp:150] Setting up relu3_2
I0226 10:26:55.166666 21209 net.cpp:157] Top shape: 1 256 150 250 (9600000)
I0226 10:26:55.166673 21209 net.cpp:165] Memory required for data: 1154400028
I0226 10:26:55.166679 21209 layer_factory.hpp:77] Creating layer conv3_3
I0226 10:26:55.166697 21209 net.cpp:106] Creating Layer conv3_3
I0226 10:26:55.166705 21209 net.cpp:454] conv3_3 <- conv3_2
I0226 10:26:55.166718 21209 net.cpp:411] conv3_3 -> conv3_3
I0226 10:26:55.169422 21209 net.cpp:150] Setting up conv3_3
I0226 10:26:55.169436 21209 net.cpp:157] Top shape: 1 256 150 250 (9600000)
I0226 10:26:55.169445 21209 net.cpp:165] Memory required for data: 1192800028
I0226 10:26:55.169476 21209 layer_factory.hpp:77] Creating layer relu3_3
I0226 10:26:55.169488 21209 net.cpp:106] Creating Layer relu3_3
I0226 10:26:55.169497 21209 net.cpp:454] relu3_3 <- conv3_3
I0226 10:26:55.169507 21209 net.cpp:397] relu3_3 -> conv3_3 (in-place)
I0226 10:26:55.169855 21209 net.cpp:150] Setting up relu3_3
I0226 10:26:55.169869 21209 net.cpp:157] Top shape: 1 256 150 250 (9600000)
I0226 10:26:55.169876 21209 net.cpp:165] Memory required for data: 1231200028
I0226 10:26:55.169883 21209 layer_factory.hpp:77] Creating layer pool3
I0226 10:26:55.169893 21209 net.cpp:106] Creating Layer pool3
I0226 10:26:55.169903 21209 net.cpp:454] pool3 <- conv3_3
I0226 10:26:55.169915 21209 net.cpp:411] pool3 -> pool3
I0226 10:26:55.169994 21209 net.cpp:150] Setting up pool3
I0226 10:26:55.170004 21209 net.cpp:157] Top shape: 1 256 75 125 (2400000)
I0226 10:26:55.170011 21209 net.cpp:165] Memory required for data: 1240800028
I0226 10:26:55.170017 21209 layer_factory.hpp:77] Creating layer conv4_1
I0226 10:26:55.170029 21209 net.cpp:106] Creating Layer conv4_1
I0226 10:26:55.170038 21209 net.cpp:454] conv4_1 <- pool3
I0226 10:26:55.170048 21209 net.cpp:411] conv4_1 -> conv4_1
I0226 10:26:55.175411 21209 net.cpp:150] Setting up conv4_1
I0226 10:26:55.175429 21209 net.cpp:157] Top shape: 1 512 75 125 (4800000)
I0226 10:26:55.175434 21209 net.cpp:165] Memory required for data: 1260000028
I0226 10:26:55.175446 21209 layer_factory.hpp:77] Creating layer relu4_1
I0226 10:26:55.175458 21209 net.cpp:106] Creating Layer relu4_1
I0226 10:26:55.175467 21209 net.cpp:454] relu4_1 <- conv4_1
I0226 10:26:55.175482 21209 net.cpp:397] relu4_1 -> conv4_1 (in-place)
I0226 10:26:55.175779 21209 net.cpp:150] Setting up relu4_1
I0226 10:26:55.175793 21209 net.cpp:157] Top shape: 1 512 75 125 (4800000)
I0226 10:26:55.175799 21209 net.cpp:165] Memory required for data: 1279200028
I0226 10:26:55.175806 21209 layer_factory.hpp:77] Creating layer conv4_2
I0226 10:26:55.175822 21209 net.cpp:106] Creating Layer conv4_2
I0226 10:26:55.175830 21209 net.cpp:454] conv4_2 <- conv4_1
I0226 10:26:55.175843 21209 net.cpp:411] conv4_2 -> conv4_2
I0226 10:26:55.182629 21209 net.cpp:150] Setting up conv4_2
I0226 10:26:55.182651 21209 net.cpp:157] Top shape: 1 512 75 125 (4800000)
I0226 10:26:55.182657 21209 net.cpp:165] Memory required for data: 1298400028
I0226 10:26:55.182674 21209 layer_factory.hpp:77] Creating layer relu4_2
I0226 10:26:55.182687 21209 net.cpp:106] Creating Layer relu4_2
I0226 10:26:55.182695 21209 net.cpp:454] relu4_2 <- conv4_2
I0226 10:26:55.182713 21209 net.cpp:397] relu4_2 -> conv4_2 (in-place)
I0226 10:26:55.182893 21209 net.cpp:150] Setting up relu4_2
I0226 10:26:55.182904 21209 net.cpp:157] Top shape: 1 512 75 125 (4800000)
I0226 10:26:55.182912 21209 net.cpp:165] Memory required for data: 1317600028
I0226 10:26:55.182919 21209 layer_factory.hpp:77] Creating layer conv4_3
I0226 10:26:55.182934 21209 net.cpp:106] Creating Layer conv4_3
I0226 10:26:55.182943 21209 net.cpp:454] conv4_3 <- conv4_2
I0226 10:26:55.182955 21209 net.cpp:411] conv4_3 -> conv4_3
I0226 10:26:55.191247 21209 net.cpp:150] Setting up conv4_3
I0226 10:26:55.191272 21209 net.cpp:157] Top shape: 1 512 75 125 (4800000)
I0226 10:26:55.191277 21209 net.cpp:165] Memory required for data: 1336800028
I0226 10:26:55.191287 21209 layer_factory.hpp:77] Creating layer relu4_3
I0226 10:26:55.191301 21209 net.cpp:106] Creating Layer relu4_3
I0226 10:26:55.191309 21209 net.cpp:454] relu4_3 <- conv4_3
I0226 10:26:55.191321 21209 net.cpp:397] relu4_3 -> conv4_3 (in-place)
I0226 10:26:55.192222 21209 net.cpp:150] Setting up relu4_3
I0226 10:26:55.192239 21209 net.cpp:157] Top shape: 1 512 75 125 (4800000)
I0226 10:26:55.192245 21209 net.cpp:165] Memory required for data: 1356000028
I0226 10:26:55.192251 21209 layer_factory.hpp:77] Creating layer pool4
I0226 10:26:55.192262 21209 net.cpp:106] Creating Layer pool4
I0226 10:26:55.192271 21209 net.cpp:454] pool4 <- conv4_3
I0226 10:26:55.192279 21209 net.cpp:411] pool4 -> pool4
I0226 10:26:55.192360 21209 net.cpp:150] Setting up pool4
I0226 10:26:55.192370 21209 net.cpp:157] Top shape: 1 512 38 63 (1225728)
I0226 10:26:55.192376 21209 net.cpp:165] Memory required for data: 1360902940
I0226 10:26:55.192383 21209 layer_factory.hpp:77] Creating layer conv5_1
I0226 10:26:55.192396 21209 net.cpp:106] Creating Layer conv5_1
I0226 10:26:55.192404 21209 net.cpp:454] conv5_1 <- pool4
I0226 10:26:55.192415 21209 net.cpp:411] conv5_1 -> conv5_1
I0226 10:26:55.200110 21209 net.cpp:150] Setting up conv5_1
I0226 10:26:55.200132 21209 net.cpp:157] Top shape: 1 512 38 63 (1225728)
I0226 10:26:55.200137 21209 net.cpp:165] Memory required for data: 1365805852
I0226 10:26:55.200147 21209 layer_factory.hpp:77] Creating layer relu5_1
I0226 10:26:55.200165 21209 net.cpp:106] Creating Layer relu5_1
I0226 10:26:55.200173 21209 net.cpp:454] relu5_1 <- conv5_1
I0226 10:26:55.200188 21209 net.cpp:397] relu5_1 -> conv5_1 (in-place)
I0226 10:26:55.201086 21209 net.cpp:150] Setting up relu5_1
I0226 10:26:55.201097 21209 net.cpp:157] Top shape: 1 512 38 63 (1225728)
I0226 10:26:55.201107 21209 net.cpp:165] Memory required for data: 1370708764
I0226 10:26:55.201112 21209 layer_factory.hpp:77] Creating layer conv5_2
I0226 10:26:55.201129 21209 net.cpp:106] Creating Layer conv5_2
I0226 10:26:55.201138 21209 net.cpp:454] conv5_2 <- conv5_1
I0226 10:26:55.201150 21209 net.cpp:411] conv5_2 -> conv5_2
I0226 10:26:55.210055 21209 net.cpp:150] Setting up conv5_2
I0226 10:26:55.210077 21209 net.cpp:157] Top shape: 1 512 38 63 (1225728)
I0226 10:26:55.210080 21209 net.cpp:165] Memory required for data: 1375611676
I0226 10:26:55.210091 21209 layer_factory.hpp:77] Creating layer relu5_2
I0226 10:26:55.210104 21209 net.cpp:106] Creating Layer relu5_2
I0226 10:26:55.210113 21209 net.cpp:454] relu5_2 <- conv5_2
I0226 10:26:55.210125 21209 net.cpp:397] relu5_2 -> conv5_2 (in-place)
I0226 10:26:55.211309 21209 net.cpp:150] Setting up relu5_2
I0226 10:26:55.211321 21209 net.cpp:157] Top shape: 1 512 38 63 (1225728)
I0226 10:26:55.211329 21209 net.cpp:165] Memory required for data: 1380514588
I0226 10:26:55.211335 21209 layer_factory.hpp:77] Creating layer conv5_3
I0226 10:26:55.211355 21209 net.cpp:106] Creating Layer conv5_3
I0226 10:26:55.211364 21209 net.cpp:454] conv5_3 <- conv5_2
I0226 10:26:55.211374 21209 net.cpp:411] conv5_3 -> conv5_3
I0226 10:26:55.219460 21209 net.cpp:150] Setting up conv5_3
I0226 10:26:55.219480 21209 net.cpp:157] Top shape: 1 512 38 63 (1225728)
I0226 10:26:55.219483 21209 net.cpp:165] Memory required for data: 1385417500
I0226 10:26:55.219494 21209 layer_factory.hpp:77] Creating layer relu5_3
I0226 10:26:55.219506 21209 net.cpp:106] Creating Layer relu5_3
I0226 10:26:55.219512 21209 net.cpp:454] relu5_3 <- conv5_3
I0226 10:26:55.219528 21209 net.cpp:397] relu5_3 -> conv5_3 (in-place)
I0226 10:26:55.220552 21209 net.cpp:150] Setting up relu5_3
I0226 10:26:55.220566 21209 net.cpp:157] Top shape: 1 512 38 63 (1225728)
I0226 10:26:55.220574 21209 net.cpp:165] Memory required for data: 1390320412
I0226 10:26:55.220580 21209 layer_factory.hpp:77] Creating layer rpn_conv/3x3
I0226 10:26:55.220610 21209 net.cpp:106] Creating Layer rpn_conv/3x3
I0226 10:26:55.220619 21209 net.cpp:454] rpn_conv/3x3 <- conv5_3
I0226 10:26:55.220629 21209 net.cpp:411] rpn_conv/3x3 -> rpn/output
I0226 10:26:55.297574 21209 net.cpp:150] Setting up rpn_conv/3x3
I0226 10:26:55.297601 21209 net.cpp:157] Top shape: 1 512 38 63 (1225728)
I0226 10:26:55.297607 21209 net.cpp:165] Memory required for data: 1395223324
I0226 10:26:55.297619 21209 layer_factory.hpp:77] Creating layer rpn_relu/3x3
I0226 10:26:55.297636 21209 net.cpp:106] Creating Layer rpn_relu/3x3
I0226 10:26:55.297644 21209 net.cpp:454] rpn_relu/3x3 <- rpn/output
I0226 10:26:55.297659 21209 net.cpp:397] rpn_relu/3x3 -> rpn/output (in-place)
I0226 10:26:55.298508 21209 net.cpp:150] Setting up rpn_relu/3x3
I0226 10:26:55.298522 21209 net.cpp:157] Top shape: 1 512 38 63 (1225728)
I0226 10:26:55.298530 21209 net.cpp:165] Memory required for data: 1400126236
I0226 10:26:55.298537 21209 layer_factory.hpp:77] Creating layer rpn/output_rpn_relu/3x3_0_split
I0226 10:26:55.298548 21209 net.cpp:106] Creating Layer rpn/output_rpn_relu/3x3_0_split
I0226 10:26:55.298557 21209 net.cpp:454] rpn/output_rpn_relu/3x3_0_split <- rpn/output
I0226 10:26:55.298568 21209 net.cpp:411] rpn/output_rpn_relu/3x3_0_split -> rpn/output_rpn_relu/3x3_0_split_0
I0226 10:26:55.298579 21209 net.cpp:411] rpn/output_rpn_relu/3x3_0_split -> rpn/output_rpn_relu/3x3_0_split_1
I0226 10:26:55.298658 21209 net.cpp:150] Setting up rpn/output_rpn_relu/3x3_0_split
I0226 10:26:55.298668 21209 net.cpp:157] Top shape: 1 512 38 63 (1225728)
I0226 10:26:55.298677 21209 net.cpp:157] Top shape: 1 512 38 63 (1225728)
I0226 10:26:55.298684 21209 net.cpp:165] Memory required for data: 1409932060
I0226 10:26:55.298691 21209 layer_factory.hpp:77] Creating layer rpn_cls_score
I0226 10:26:55.298709 21209 net.cpp:106] Creating Layer rpn_cls_score
I0226 10:26:55.298718 21209 net.cpp:454] rpn_cls_score <- rpn/output_rpn_relu/3x3_0_split_0
I0226 10:26:55.298729 21209 net.cpp:411] rpn_cls_score -> rpn_cls_score
I0226 10:26:55.302111 21209 net.cpp:150] Setting up rpn_cls_score
I0226 10:26:55.302126 21209 net.cpp:157] Top shape: 1 18 38 63 (43092)
I0226 10:26:55.302135 21209 net.cpp:165] Memory required for data: 1410104428
I0226 10:26:55.302146 21209 layer_factory.hpp:77] Creating layer rpn_cls_score_rpn_cls_score_0_split
I0226 10:26:55.302160 21209 net.cpp:106] Creating Layer rpn_cls_score_rpn_cls_score_0_split
I0226 10:26:55.302170 21209 net.cpp:454] rpn_cls_score_rpn_cls_score_0_split <- rpn_cls_score
I0226 10:26:55.302180 21209 net.cpp:411] rpn_cls_score_rpn_cls_score_0_split -> rpn_cls_score_rpn_cls_score_0_split_0
I0226 10:26:55.302192 21209 net.cpp:411] rpn_cls_score_rpn_cls_score_0_split -> rpn_cls_score_rpn_cls_score_0_split_1
I0226 10:26:55.302269 21209 net.cpp:150] Setting up rpn_cls_score_rpn_cls_score_0_split
I0226 10:26:55.302279 21209 net.cpp:157] Top shape: 1 18 38 63 (43092)
I0226 10:26:55.302287 21209 net.cpp:157] Top shape: 1 18 38 63 (43092)
I0226 10:26:55.302294 21209 net.cpp:165] Memory required for data: 1410449164
I0226 10:26:55.302301 21209 layer_factory.hpp:77] Creating layer rpn_bbox_pred
I0226 10:26:55.302319 21209 net.cpp:106] Creating Layer rpn_bbox_pred
I0226 10:26:55.302327 21209 net.cpp:454] rpn_bbox_pred <- rpn/output_rpn_relu/3x3_0_split_1
I0226 10:26:55.302340 21209 net.cpp:411] rpn_bbox_pred -> rpn_bbox_pred
I0226 10:26:55.305575 21209 net.cpp:150] Setting up rpn_bbox_pred
I0226 10:26:55.305590 21209 net.cpp:157] Top shape: 1 36 38 63 (86184)
I0226 10:26:55.305601 21209 net.cpp:165] Memory required for data: 1410793900
I0226 10:26:55.305614 21209 layer_factory.hpp:77] Creating layer rpn_cls_score_reshape
I0226 10:26:55.305632 21209 net.cpp:106] Creating Layer rpn_cls_score_reshape
I0226 10:26:55.305642 21209 net.cpp:454] rpn_cls_score_reshape <- rpn_cls_score_rpn_cls_score_0_split_0
I0226 10:26:55.305655 21209 net.cpp:411] rpn_cls_score_reshape -> rpn_cls_score_reshape
I0226 10:26:55.305716 21209 net.cpp:150] Setting up rpn_cls_score_reshape
I0226 10:26:55.305726 21209 net.cpp:157] Top shape: 1 2 342 63 (43092)
I0226 10:26:55.305732 21209 net.cpp:165] Memory required for data: 1410966268
I0226 10:26:55.305738 21209 layer_factory.hpp:77] Creating layer rpn-data
I0226 10:26:55.306327 21209 net.cpp:106] Creating Layer rpn-data
I0226 10:26:55.306340 21209 net.cpp:454] rpn-data <- rpn_cls_score_rpn_cls_score_0_split_1
I0226 10:26:55.306349 21209 net.cpp:454] rpn-data <- gt_boxes
I0226 10:26:55.306357 21209 net.cpp:454] rpn-data <- im_info
I0226 10:26:55.306366 21209 net.cpp:454] rpn-data <- data_input-data_0_split_1
I0226 10:26:55.306377 21209 net.cpp:411] rpn-data -> rpn_labels
I0226 10:26:55.306391 21209 net.cpp:411] rpn-data -> rpn_bbox_targets
I0226 10:26:55.306406 21209 net.cpp:411] rpn-data -> rpn_bbox_inside_weights
I0226 10:26:55.306421 21209 net.cpp:411] rpn-data -> rpn_bbox_outside_weights
I0226 10:26:55.307263 21209 net.cpp:150] Setting up rpn-data
I0226 10:26:55.307279 21209 net.cpp:157] Top shape: 1 1 342 63 (21546)
I0226 10:26:55.307289 21209 net.cpp:157] Top shape: 1 36 38 63 (86184)
I0226 10:26:55.307298 21209 net.cpp:157] Top shape: 1 36 38 63 (86184)
I0226 10:26:55.307307 21209 net.cpp:157] Top shape: 1 36 38 63 (86184)
I0226 10:26:55.307315 21209 net.cpp:165] Memory required for data: 1412086660
I0226 10:26:55.307323 21209 layer_factory.hpp:77] Creating layer rpn_loss_cls
I0226 10:26:55.307337 21209 net.cpp:106] Creating Layer rpn_loss_cls
I0226 10:26:55.307345 21209 net.cpp:454] rpn_loss_cls <- rpn_cls_score_reshape
I0226 10:26:55.307354 21209 net.cpp:454] rpn_loss_cls <- rpn_labels
I0226 10:26:55.307365 21209 net.cpp:411] rpn_loss_cls -> rpn_cls_loss
…
I0226 10:26:55.308540 21209 net.cpp:150] Setting up rpn_loss_bbox
I0226 10:26:55.308550 21209 net.cpp:157] Top shape: (1)
I0226 10:26:55.308558 21209 net.cpp:160]     with loss weight 1
I0226 10:26:55.308568 21209 net.cpp:165] Memory required for data: 1412086668
I0226 10:26:55.308574 21209 layer_factory.hpp:77] Creating layer dummy_roi_pool_conv5
I0226 10:26:55.308593 21209 net.cpp:106] Creating Layer dummy_roi_pool_conv5
I0226 10:26:55.308604 21209 net.cpp:411] dummy_roi_pool_conv5 -> dummy_roi_pool_conv5
I0226 10:26:55.309386 21209 net.cpp:150] Setting up dummy_roi_pool_conv5
I0226 10:26:55.309399 21209 net.cpp:157] Top shape: 1 25088 (25088)
I0226 10:26:55.309407 21209 net.cpp:165] Memory required for data: 1412187020
I0226 10:26:55.309413 21209 layer_factory.hpp:77] Creating layer fc6
I0226 10:26:55.309428 21209 net.cpp:106] Creating Layer fc6
I0226 10:26:55.309437 21209 net.cpp:454] fc6 <- dummy_roi_pool_conv5
I0226 10:26:55.309448 21209 net.cpp:411] fc6 -> fc6
I0226 10:26:55.572729 21209 net.cpp:150] Setting up fc6
I0226 10:26:55.572767 21209 net.cpp:157] Top shape: 1 4096 (4096)
I0226 10:26:55.572772 21209 net.cpp:165] Memory required for data: 1412203404
I0226 10:26:55.572803 21209 layer_factory.hpp:77] Creating layer relu6
I0226 10:26:55.572818 21209 net.cpp:106] Creating Layer relu6
I0226 10:26:55.572824 21209 net.cpp:454] relu6 <- fc6
I0226 10:26:55.572834 21209 net.cpp:397] relu6 -> fc6 (in-place)
I0226 10:26:55.573283 21209 net.cpp:150] Setting up relu6
I0226 10:26:55.573297 21209 net.cpp:157] Top shape: 1 4096 (4096)
I0226 10:26:55.573300 21209 net.cpp:165] Memory required for data: 1412219788
I0226 10:26:55.573317 21209 layer_factory.hpp:77] Creating layer drop6
I0226 10:26:55.573324 21209 net.cpp:106] Creating Layer drop6
I0226 10:26:55.573330 21209 net.cpp:454] drop6 <- fc6
I0226 10:26:55.573336 21209 net.cpp:397] drop6 -> fc6 (in-place)
I0226 10:26:55.573385 21209 net.cpp:150] Setting up drop6
I0226 10:26:55.573392 21209 net.cpp:157] Top shape: 1 4096 (4096)
I0226 10:26:55.573395 21209 net.cpp:165] Memory required for data: 1412236172
I0226 10:26:55.573400 21209 layer_factory.hpp:77] Creating layer fc7
I0226 10:26:55.573406 21209 net.cpp:106] Creating Layer fc7
I0226 10:26:55.573410 21209 net.cpp:454] fc7 <- fc6
I0226 10:26:55.573424 21209 net.cpp:411] fc7 -> fc7
I0226 10:26:55.616405 21209 net.cpp:150] Setting up fc7
I0226 10:26:55.616444 21209 net.cpp:157] Top shape: 1 4096 (4096)
I0226 10:26:55.616448 21209 net.cpp:165] Memory required for data: 1412252556
I0226 10:26:55.616470 21209 layer_factory.hpp:77] Creating layer silence_fc7
I0226 10:26:55.616489 21209 net.cpp:106] Creating Layer silence_fc7
I0226 10:26:55.616497 21209 net.cpp:454] silence_fc7 <- fc7
I0226 10:26:55.616505 21209 net.cpp:150] Setting up silence_fc7
I0226 10:26:55.616510 21209 net.cpp:165] Memory required for data: 1412252556
…
