…
I0228 03:37:04.799944  6221 solver.cpp:81] Creating training net from train_net file: models/pascal_voc/VGG16/faster_rcnn_alt_opt/stage2_fast_rcnn_train.pt
I0228 03:37:04.805282  6221 net.cpp:49] Initializing net from parameters: 
name: "VGG_ILSVRC_16_layers"
state {
  phase: TRAIN
}
layer {
  name: "data"
  type: "Python"
  top: "data"
  top: "rois"
  top: "labels"
  top: "bbox_targets"
  top: "bbox_inside_weights"
  top: "bbox_outside_weights"
  python_param {
    module: "roi_data_layer.layer"
    layer: "RoIDataLayer"
    param_str: "\'num_classes\': 4"
  }
}
layer {
  name: "conv1_1"
  type: "Convolution"
  bottom: "data"
  top: "conv1_1"
  param {
    lr_mult: 0
    decay_mult: 0
  }
  param {
    lr_mult: 0
    decay_mult: 0
  }
  convolution_param {
    num_output: 64
    pad: 1
    kernel_size: 3
  }
}
layer {
  name: "relu1_1"
  type: "ReLU"
  bottom: "conv1_1"
  top: "conv1_1"
}
layer {
  name: "conv1_2"
  type: "Convolution"
  bottom: "conv1_1"
  top: "conv1_2"
  param {
    lr_mult: 0
    decay_mult: 0
  }
  param {
    lr_mult: 0
    decay_mult: 0
  }
  convolution_param {
    num_output: 64
    pad: 1
    kernel_size: 3
  }
}
layer {
  name: "relu1_2"
  type: "ReLU"
  bottom: "conv1_2"
  top: "conv1_2"
}
layer {
  name: "pool1"
  type: "Pooling"
  bottom: "conv1_2"
  top: "pool1"
  pooling_param {
    pool: MAX
    kernel_size: 2
    stride: 2
  }
}
layer {
  name: "conv2_1"
  type: "Convolution"
  bottom: "pool1"
  top: "conv2_1"
  param {
    lr_mult: 0
    decay_mult: 0
  }
  param {
    lr_mult: 0
    decay_mult: 0
  }
  convolution_param {
    num_output: 128
    pad: 1
    kernel_size: 3
  }
}
layer {
  name: "relu2_1"
  type: "ReLU"
  bottom: "conv2_1"
  top: "conv2_1"
}
layer {
  name: "conv2_2"
  type: "Convolution"
  bottom: "conv2_1"
  top: "conv2_2"
  param {
    lr_mult: 0
    decay_mult: 0
  }
  param {
    lr_mult: 0
    decay_mult: 0
  }
  convolution_param {
    num_output: 128
    pad: 1
    kernel_size: 3
  }
}
layer {
  name: "relu2_2"
  type: "ReLU"
  bottom: "conv2_2"
  top: "conv2_2"
}
layer {
  name: "pool2"
  type: "Pooling"
  bottom: "conv2_2"
  top: "pool2"
  pooling_param {
    pool: MAX
    kernel_size: 2
    stride: 2
  }
}
layer {
  name: "conv3_1"
  type: "Convolution"
  bottom: "pool2"
  top: "conv3_1"
  param {
    lr_mult: 0
    decay_mult: 0
  }
  param {
    lr_mult: 0
    decay_mult: 0
  }
  convolution_param {
    num_output: 256
    pad: 1
    kernel_size: 3
  }
}
layer {
  name: "relu3_1"
  type: "ReLU"
  bottom: "conv3_1"
  top: "conv3_1"
}
layer {
  name: "conv3_2"
  type: "Convolution"
  bottom: "conv3_1"
  top: "conv3_2"
  param {
    lr_mult: 0
    decay_mult: 0
  }
  param {
    lr_mult: 0
    decay_mult: 0
  }
  convolution_param {
    num_output: 256
    pad: 1
    kernel_size: 3
  }
}
layer {
  name: "relu3_2"
  type: "ReLU"
  bottom: "conv3_2"
  top: "conv3_2"
}
layer {
  name: "conv3_3"
  type: "Convolution"
  bottom: "conv3_2"
  top: "conv3_3"
  param {
    lr_mult: 0
    decay_mult: 0
  }
  param {
    lr_mult: 0
    decay_mult: 0
  }
  convolution_param {
    num_output: 256
    pad: 1
    kernel_size: 3
  }
}
layer {
  name: "relu3_3"
  type: "ReLU"
  bottom: "conv3_3"
  top: "conv3_3"
}
layer {
  name: "pool3"
  type: "Pooling"
  bottom: "conv3_3"
  top: "pool3"
  pooling_param {
    pool: MAX
    kernel_size: 2
    stride: 2
  }
}
layer {
  name: "conv4_1"
  type: "Convolution"
  bottom: "pool3"
  top: "conv4_1"
  param {
    lr_mult: 0
    decay_mult: 0
  }
  param {
    lr_mult: 0
    decay_mult: 0
  }
  convolution_param {
    num_output: 512
    pad: 1
    kernel_size: 3
  }
}
layer {
  name: "relu4_1"
  type: "ReLU"
  bottom: "conv4_1"
  top: "conv4_1"
}
layer {
  name: "conv4_2"
  type: "Convolution"
  bottom: "conv4_1"
  top: "conv4_2"
  param {
    lr_mult: 0
    decay_mult: 0
  }
  param {
    lr_mult: 0
    decay_mult: 0
  }
  convolution_param {
    num_output: 512
    pad: 1
    kernel_size: 3
  }
}
layer {
  name: "relu4_2"
  type: "ReLU"
  bottom: "conv4_2"
  top: "conv4_2"
}
layer {
  name: "conv4_3"
  type: "Convolution"
  bottom: "conv4_2"
  top: "conv4_3"
  param {
    lr_mult: 0
    decay_mult: 0
  }
  param {
    lr_mult: 0
    decay_mult: 0
  }
  convolution_param {
    num_output: 512
    pad: 1
    kernel_size: 3
  }
}
layer {
  name: "relu4_3"
  type: "ReLU"
  bottom: "conv4_3"
  top: "conv4_3"
}
layer {
  name: "pool4"
  type: "Pooling"
  bottom: "conv4_3"
  top: "pool4"
  pooling_param {
    pool: MAX
    kernel_size: 2
    stride: 2
  }
}
layer {
  name: "conv5_1"
  type: "Convolution"
  bottom: "pool4"
  top: "conv5_1"
  param {
    lr_mult: 0
    decay_mult: 0
  }
  param {
    lr_mult: 0
    decay_mult: 0
  }
  convolution_param {
    num_output: 512
    pad: 1
    kernel_size: 3
  }
}
layer {
  name: "relu5_1"
  type: "ReLU"
  bottom: "conv5_1"
  top: "conv5_1"
}
layer {
  name: "conv5_2"
  type: "Convolution"
  bottom: "conv5_1"
  top: "conv5_2"
  param {
    lr_mult: 0
    decay_mult: 0
  }
  param {
    lr_mult: 0
    decay_mult: 0
  }
  convolution_param {
    num_output: 512
    pad: 1
    kernel_size: 3
  }
}
layer {
  name: "relu5_2"
  type: "ReLU"
  bottom: "conv5_2"
  top: "conv5_2"
}
layer {
  name: "conv5_3"
  type: "Convolution"
  bottom: "conv5_2"
  top: "conv5_3"
  param {
    lr_mult: 0
    decay_mult: 0
  }
  param {
    lr_mult: 0
    decay_mult: 0
  }
  convolution_param {
    num_output: 512
    pad: 1
    kernel_size: 3
  }
}
layer {
  name: "relu5_3"
  type: "ReLU"
  bottom: "conv5_3"
  top: "conv5_3"
}
layer {
  name: "roi_pool5"
  type: "ROIPooling"
  bottom: "conv5_3"
  bottom: "rois"
  top: "pool5"
  roi_pooling_param {
    pooled_h: 7
    pooled_w: 7
    spatial_scale: 0.0625
  }
}
layer {
  name: "fc6"
  type: "InnerProduct"
  bottom: "pool5"
  top: "fc6"
  param {
    lr_mult: 1
  }
  param {
    lr_mult: 2
  }
  inner_product_param {
    num_output: 4096
  }
}
layer {
  name: "relu6"
  type: "ReLU"
  bottom: "fc6"
  top: "fc6"
}
layer {
  name: "drop6"
  type: "Dropout"
  bottom: "fc6"
  top: "fc6"
  dropout_param {
    dropout_ratio: 0.5
  }
}
layer {
  name: "fc7"
  type: "InnerProduct"
  bottom: "fc6"
  top: "fc7"
  param {
    lr_mult: 1
  }
  param {
    lr_mult: 2
  }
  inner_product_param {
    num_output: 4096
  }
}
layer {
  name: "relu7"
  type: "ReLU"
  bottom: "fc7"
  top: "fc7"
}
layer {
  name: "drop7"
  type: "Dropout"
  bottom: "fc7"
  top: "fc7"
  dropout_param {
    dropout_ratio: 0.5
  }
}
layer {
  name: "cls_score"
  type: "InnerProduct"
  bottom: "fc7"
  top: "cls_score"
  param {
    lr_mult: 1
  }
  param {
    lr_mult: 2
  }
  inner_product_param {
    num_output: 4
    weight_filler {
      type: "gaussian"
      std: 0.01
    }
    bias_filler {
      type: "constant"
      value: 0
    }
  }
}
layer {
  name: "bbox_pred"
  type: "InnerProduct"
  bottom: "fc7"
  top: "bbox_pred"
  param {
    lr_mult: 1
  }
  param {
    lr_mult: 2
  }
  inner_product_param {
    num_output: 16
    weight_filler {
      type: "gaussian"
      std: 0.001
    }
    bias_filler {
      type: "constant"
      value: 0
    }
  }
}
layer {
  name: "loss_cls"
  type: "SoftmaxWithLoss"
  bottom: "cls_score"
  bottom: "labels"
  top: "loss_cls"
  loss_weight: 1
}
layer {
  name: "loss_bbox"
  type: "SmoothL1Loss"
  bottom: "bbox_pred"
  bottom: "bbox_targets"
  bottom: "bbox_inside_weights"
  bottom: "bbox_outside_weights"
  top: "loss_bbox"
  loss_weight: 1
}
layer {
  name: "rpn_conv/3x3"
  type: "Convolution"
  bottom: "conv5_3"
  top: "rpn/output"
  param {
    lr_mult: 0
    decay_mult: 0
  }
  param {
    lr_mult: 0
    decay_mult: 0
  }
  convolution_param {
    num_output: 512
    pad: 1
    kernel_size: 3
    stride: 1
    weight_filler {
      type: "gaussian"
      std: 0.01
    }
    bias_filler {
      type: "constant"
      value: 0
    }
  }
}
layer {
  name: "rpn_relu/3x3"
  type: "ReLU"
  bottom: "rpn/output"
  top: "rpn/output"
}
layer {
  name: "rpn_cls_score"
  type: "Convolution"
  bottom: "rpn/output"
  top: "rpn_cls_score"
  param {
    lr_mult: 0
    decay_mult: 0
  }
  param {
    lr_mult: 0
    decay_mult: 0
  }
  convolution_param {
    num_output: 18
    pad: 0
    kernel_size: 1
    stride: 1
    weight_filler {
      type: "gaussian"
      std: 0.01
    }
    bias_filler {
      type: "constant"
      value: 0
    }
  }
}
layer {
  name: "rpn_bbox_pred"
  type: "Convolution"
  bottom: "rpn/output"
  top: "rpn_bbox_pred"
  param {
    lr_mult: 0
    decay_mult: 0
  }
  param {
    lr_mult: 0
    decay_mult: 0
  }
  convolution_param {
    num_output: 36
    pad: 0
    kernel_size: 1
    stride: 1
    weight_filler {
      type: "gaussian"
      std: 0.01
    }
    bias_filler {
      type: "constant"
      value: 0
    }
  }
}
layer {
  name: "silence_rpn_cls_score"
  type: "Silence"
  bottom: "rpn_cls_score"
}
layer {
  name: "silence_rpn_bbox_pred"
  type: "Silence"
  bottom: "rpn_bbox_pred"
}
I0228 03:37:04.805543  6221 layer_factory.hpp:77] Creating layer data
I0228 03:37:04.807684  6221 net.cpp:106] Creating Layer data
I0228 03:37:04.807698  6221 net.cpp:411] data -> data
I0228 03:37:04.807719  6221 net.cpp:411] data -> rois
I0228 03:37:04.807726  6221 net.cpp:411] data -> labels
I0228 03:37:04.807732  6221 net.cpp:411] data -> bbox_targets
I0228 03:37:04.807739  6221 net.cpp:411] data -> bbox_inside_weights
I0228 03:37:04.807756  6221 net.cpp:411] data -> bbox_outside_weights
RoiDataLayer: name_to_top: {'bbox_inside_weights': 4, 'labels': 2, 'rois': 1, 'bbox_targets': 3, 'bbox_outside_weights': 5, 'data': 0}
I0228 03:37:04.859482  6221 net.cpp:150] Setting up data
I0228 03:37:04.859510  6221 net.cpp:157] Top shape: 2 3 600 1000 (3600000)
I0228 03:37:04.859516  6221 net.cpp:157] Top shape: 1 5 (5)
I0228 03:37:04.859522  6221 net.cpp:157] Top shape: 1 (1)
I0228 03:37:04.859526  6221 net.cpp:157] Top shape: 1 16 (16)
I0228 03:37:04.859531  6221 net.cpp:157] Top shape: 1 16 (16)
I0228 03:37:04.859536  6221 net.cpp:157] Top shape: 1 16 (16)
I0228 03:37:04.859539  6221 net.cpp:165] Memory required for data: 14400216
I0228 03:37:04.859544  6221 layer_factory.hpp:77] Creating layer conv1_1
I0228 03:37:04.859558  6221 net.cpp:106] Creating Layer conv1_1
I0228 03:37:04.859565  6221 net.cpp:454] conv1_1 <- data
I0228 03:37:04.859571  6221 net.cpp:411] conv1_1 -> conv1_1
I0228 03:37:05.067629  6221 net.cpp:150] Setting up conv1_1
I0228 03:37:05.067677  6221 net.cpp:157] Top shape: 2 64 600 1000 (76800000)
I0228 03:37:05.067682  6221 net.cpp:165] Memory required for data: 321600216
I0228 03:37:05.067701  6221 layer_factory.hpp:77] Creating layer relu1_1
I0228 03:37:05.067716  6221 net.cpp:106] Creating Layer relu1_1
I0228 03:37:05.067735  6221 net.cpp:454] relu1_1 <- conv1_1
I0228 03:37:05.067742  6221 net.cpp:397] relu1_1 -> conv1_1 (in-place)
I0228 03:37:05.068100  6221 net.cpp:150] Setting up relu1_1
I0228 03:37:05.068114  6221 net.cpp:157] Top shape: 2 64 600 1000 (76800000)
I0228 03:37:05.068130  6221 net.cpp:165] Memory required for data: 628800216
I0228 03:37:05.068133  6221 layer_factory.hpp:77] Creating layer conv1_2
I0228 03:37:05.068152  6221 net.cpp:106] Creating Layer conv1_2
I0228 03:37:05.068171  6221 net.cpp:454] conv1_2 <- conv1_1
I0228 03:37:05.068177  6221 net.cpp:411] conv1_2 -> conv1_2
I0228 03:37:05.073192  6221 net.cpp:150] Setting up conv1_2
I0228 03:37:05.073220  6221 net.cpp:157] Top shape: 2 64 600 1000 (76800000)
I0228 03:37:05.073225  6221 net.cpp:165] Memory required for data: 936000216
I0228 03:37:05.073236  6221 layer_factory.hpp:77] Creating layer relu1_2
I0228 03:37:05.073246  6221 net.cpp:106] Creating Layer relu1_2
I0228 03:37:05.073251  6221 net.cpp:454] relu1_2 <- conv1_2
I0228 03:37:05.073271  6221 net.cpp:397] relu1_2 -> conv1_2 (in-place)
I0228 03:37:05.073469  6221 net.cpp:150] Setting up relu1_2
I0228 03:37:05.073480  6221 net.cpp:157] Top shape: 2 64 600 1000 (76800000)
I0228 03:37:05.073484  6221 net.cpp:165] Memory required for data: 1243200216
I0228 03:37:05.073490  6221 layer_factory.hpp:77] Creating layer pool1
I0228 03:37:05.073509  6221 net.cpp:106] Creating Layer pool1
I0228 03:37:05.073513  6221 net.cpp:454] pool1 <- conv1_2
I0228 03:37:05.073519  6221 net.cpp:411] pool1 -> pool1
I0228 03:37:05.073606  6221 net.cpp:150] Setting up pool1
I0228 03:37:05.073614  6221 net.cpp:157] Top shape: 2 64 300 500 (19200000)
I0228 03:37:05.073619  6221 net.cpp:165] Memory required for data: 1320000216
I0228 03:37:05.073623  6221 layer_factory.hpp:77] Creating layer conv2_1
I0228 03:37:05.073633  6221 net.cpp:106] Creating Layer conv2_1
I0228 03:37:05.073637  6221 net.cpp:454] conv2_1 <- pool1
I0228 03:37:05.073643  6221 net.cpp:411] conv2_1 -> conv2_1
I0228 03:37:05.076548  6221 net.cpp:150] Setting up conv2_1
I0228 03:37:05.076563  6221 net.cpp:157] Top shape: 2 128 300 500 (38400000)
I0228 03:37:05.076567  6221 net.cpp:165] Memory required for data: 1473600216
I0228 03:37:05.076577  6221 layer_factory.hpp:77] Creating layer relu2_1
I0228 03:37:05.076598  6221 net.cpp:106] Creating Layer relu2_1
I0228 03:37:05.076602  6221 net.cpp:454] relu2_1 <- conv2_1
I0228 03:37:05.076620  6221 net.cpp:397] relu2_1 -> conv2_1 (in-place)
I0228 03:37:05.077642  6221 net.cpp:150] Setting up relu2_1
I0228 03:37:05.077652  6221 net.cpp:157] Top shape: 2 128 300 500 (38400000)
I0228 03:37:05.077668  6221 net.cpp:165] Memory required for data: 1627200216
I0228 03:37:05.077672  6221 layer_factory.hpp:77] Creating layer conv2_2
I0228 03:37:05.077682  6221 net.cpp:106] Creating Layer conv2_2
I0228 03:37:05.077687  6221 net.cpp:454] conv2_2 <- conv2_1
I0228 03:37:05.077693  6221 net.cpp:411] conv2_2 -> conv2_2
I0228 03:37:05.082322  6221 net.cpp:150] Setting up conv2_2
I0228 03:37:05.082347  6221 net.cpp:157] Top shape: 2 128 300 500 (38400000)
I0228 03:37:05.082352  6221 net.cpp:165] Memory required for data: 1780800216
I0228 03:37:05.082360  6221 layer_factory.hpp:77] Creating layer relu2_2
I0228 03:37:05.082367  6221 net.cpp:106] Creating Layer relu2_2
I0228 03:37:05.082371  6221 net.cpp:454] relu2_2 <- conv2_2
I0228 03:37:05.082378  6221 net.cpp:397] relu2_2 -> conv2_2 (in-place)
I0228 03:37:05.082792  6221 net.cpp:150] Setting up relu2_2
I0228 03:37:05.082804  6221 net.cpp:157] Top shape: 2 128 300 500 (38400000)
I0228 03:37:05.082819  6221 net.cpp:165] Memory required for data: 1934400216
I0228 03:37:05.082823  6221 layer_factory.hpp:77] Creating layer pool2
I0228 03:37:05.082830  6221 net.cpp:106] Creating Layer pool2
I0228 03:37:05.082834  6221 net.cpp:454] pool2 <- conv2_2
I0228 03:37:05.082840  6221 net.cpp:411] pool2 -> pool2
I0228 03:37:05.082929  6221 net.cpp:150] Setting up pool2
I0228 03:37:05.082938  6221 net.cpp:157] Top shape: 2 128 150 250 (9600000)
I0228 03:37:05.082942  6221 net.cpp:165] Memory required for data: 1972800216
I0228 03:37:05.082947  6221 layer_factory.hpp:77] Creating layer conv3_1
I0228 03:37:05.082968  6221 net.cpp:106] Creating Layer conv3_1
I0228 03:37:05.082973  6221 net.cpp:454] conv3_1 <- pool2
I0228 03:37:05.082979  6221 net.cpp:411] conv3_1 -> conv3_1
I0228 03:37:05.086767  6221 net.cpp:150] Setting up conv3_1
I0228 03:37:05.086781  6221 net.cpp:157] Top shape: 2 256 150 250 (19200000)
I0228 03:37:05.086797  6221 net.cpp:165] Memory required for data: 2049600216
I0228 03:37:05.086807  6221 layer_factory.hpp:77] Creating layer relu3_1
I0228 03:37:05.086815  6221 net.cpp:106] Creating Layer relu3_1
I0228 03:37:05.086822  6221 net.cpp:454] relu3_1 <- conv3_1
I0228 03:37:05.086839  6221 net.cpp:397] relu3_1 -> conv3_1 (in-place)
I0228 03:37:05.087662  6221 net.cpp:150] Setting up relu3_1
I0228 03:37:05.087672  6221 net.cpp:157] Top shape: 2 256 150 250 (19200000)
I0228 03:37:05.087687  6221 net.cpp:165] Memory required for data: 2126400216
I0228 03:37:05.087690  6221 layer_factory.hpp:77] Creating layer conv3_2
I0228 03:37:05.087699  6221 net.cpp:106] Creating Layer conv3_2
I0228 03:37:05.087703  6221 net.cpp:454] conv3_2 <- conv3_1
I0228 03:37:05.087709  6221 net.cpp:411] conv3_2 -> conv3_2
I0228 03:37:05.091518  6221 net.cpp:150] Setting up conv3_2
I0228 03:37:05.091545  6221 net.cpp:157] Top shape: 2 256 150 250 (19200000)
I0228 03:37:05.091549  6221 net.cpp:165] Memory required for data: 2203200216
I0228 03:37:05.091557  6221 layer_factory.hpp:77] Creating layer relu3_2
I0228 03:37:05.091567  6221 net.cpp:106] Creating Layer relu3_2
I0228 03:37:05.091573  6221 net.cpp:454] relu3_2 <- conv3_2
I0228 03:37:05.091590  6221 net.cpp:397] relu3_2 -> conv3_2 (in-place)
I0228 03:37:05.092409  6221 net.cpp:150] Setting up relu3_2
I0228 03:37:05.092418  6221 net.cpp:157] Top shape: 2 256 150 250 (19200000)
I0228 03:37:05.092432  6221 net.cpp:165] Memory required for data: 2280000216
I0228 03:37:05.092437  6221 layer_factory.hpp:77] Creating layer conv3_3
I0228 03:37:05.092447  6221 net.cpp:106] Creating Layer conv3_3
I0228 03:37:05.092449  6221 net.cpp:454] conv3_3 <- conv3_2
I0228 03:37:05.092455  6221 net.cpp:411] conv3_3 -> conv3_3
I0228 03:37:05.097177  6221 net.cpp:150] Setting up conv3_3
I0228 03:37:05.097190  6221 net.cpp:157] Top shape: 2 256 150 250 (19200000)
I0228 03:37:05.097206  6221 net.cpp:165] Memory required for data: 2356800216
I0228 03:37:05.097213  6221 layer_factory.hpp:77] Creating layer relu3_3
I0228 03:37:05.097223  6221 net.cpp:106] Creating Layer relu3_3
I0228 03:37:05.097229  6221 net.cpp:454] relu3_3 <- conv3_3
I0228 03:37:05.097246  6221 net.cpp:397] relu3_3 -> conv3_3 (in-place)
I0228 03:37:05.098081  6221 net.cpp:150] Setting up relu3_3
I0228 03:37:05.098093  6221 net.cpp:157] Top shape: 2 256 150 250 (19200000)
I0228 03:37:05.098109  6221 net.cpp:165] Memory required for data: 2433600216
I0228 03:37:05.098112  6221 layer_factory.hpp:77] Creating layer pool3
I0228 03:37:05.098121  6221 net.cpp:106] Creating Layer pool3
I0228 03:37:05.098126  6221 net.cpp:454] pool3 <- conv3_3
I0228 03:37:05.098135  6221 net.cpp:411] pool3 -> pool3
I0228 03:37:05.098212  6221 net.cpp:150] Setting up pool3
I0228 03:37:05.098220  6221 net.cpp:157] Top shape: 2 256 75 125 (4800000)
I0228 03:37:05.098223  6221 net.cpp:165] Memory required for data: 2452800216
I0228 03:37:05.098228  6221 layer_factory.hpp:77] Creating layer conv4_1
I0228 03:37:05.098238  6221 net.cpp:106] Creating Layer conv4_1
I0228 03:37:05.098243  6221 net.cpp:454] conv4_1 <- pool3
I0228 03:37:05.098248  6221 net.cpp:411] conv4_1 -> conv4_1
I0228 03:37:05.104624  6221 net.cpp:150] Setting up conv4_1
I0228 03:37:05.104660  6221 net.cpp:157] Top shape: 2 512 75 125 (9600000)
I0228 03:37:05.104666  6221 net.cpp:165] Memory required for data: 2491200216
I0228 03:37:05.104677  6221 layer_factory.hpp:77] Creating layer relu4_1
I0228 03:37:05.104686  6221 net.cpp:106] Creating Layer relu4_1
I0228 03:37:05.104693  6221 net.cpp:454] relu4_1 <- conv4_1
I0228 03:37:05.104710  6221 net.cpp:397] relu4_1 -> conv4_1 (in-place)
I0228 03:37:05.106465  6221 net.cpp:150] Setting up relu4_1
I0228 03:37:05.106477  6221 net.cpp:157] Top shape: 2 512 75 125 (9600000)
I0228 03:37:05.106493  6221 net.cpp:165] Memory required for data: 2529600216
I0228 03:37:05.106498  6221 layer_factory.hpp:77] Creating layer conv4_2
I0228 03:37:05.106508  6221 net.cpp:106] Creating Layer conv4_2
I0228 03:37:05.106513  6221 net.cpp:454] conv4_2 <- conv4_1
I0228 03:37:05.106518  6221 net.cpp:411] conv4_2 -> conv4_2
I0228 03:37:05.116914  6221 net.cpp:150] Setting up conv4_2
I0228 03:37:05.116952  6221 net.cpp:157] Top shape: 2 512 75 125 (9600000)
I0228 03:37:05.116957  6221 net.cpp:165] Memory required for data: 2568000216
I0228 03:37:05.116971  6221 layer_factory.hpp:77] Creating layer relu4_2
I0228 03:37:05.116981  6221 net.cpp:106] Creating Layer relu4_2
I0228 03:37:05.116991  6221 net.cpp:454] relu4_2 <- conv4_2
I0228 03:37:05.117007  6221 net.cpp:397] relu4_2 -> conv4_2 (in-place)
I0228 03:37:05.117933  6221 net.cpp:150] Setting up relu4_2
I0228 03:37:05.117944  6221 net.cpp:157] Top shape: 2 512 75 125 (9600000)
I0228 03:37:05.117959  6221 net.cpp:165] Memory required for data: 2606400216
I0228 03:37:05.117962  6221 layer_factory.hpp:77] Creating layer conv4_3
I0228 03:37:05.117972  6221 net.cpp:106] Creating Layer conv4_3
I0228 03:37:05.117976  6221 net.cpp:454] conv4_3 <- conv4_2
I0228 03:37:05.117983  6221 net.cpp:411] conv4_3 -> conv4_3
I0228 03:37:05.127651  6221 net.cpp:150] Setting up conv4_3
I0228 03:37:05.127692  6221 net.cpp:157] Top shape: 2 512 75 125 (9600000)
I0228 03:37:05.127696  6221 net.cpp:165] Memory required for data: 2644800216
I0228 03:37:05.127706  6221 layer_factory.hpp:77] Creating layer relu4_3
I0228 03:37:05.127715  6221 net.cpp:106] Creating Layer relu4_3
I0228 03:37:05.127720  6221 net.cpp:454] relu4_3 <- conv4_3
I0228 03:37:05.127730  6221 net.cpp:397] relu4_3 -> conv4_3 (in-place)
I0228 03:37:05.128635  6221 net.cpp:150] Setting up relu4_3
I0228 03:37:05.128648  6221 net.cpp:157] Top shape: 2 512 75 125 (9600000)
I0228 03:37:05.128664  6221 net.cpp:165] Memory required for data: 2683200216
I0228 03:37:05.128667  6221 layer_factory.hpp:77] Creating layer pool4
I0228 03:37:05.128674  6221 net.cpp:106] Creating Layer pool4
I0228 03:37:05.128679  6221 net.cpp:454] pool4 <- conv4_3
I0228 03:37:05.128684  6221 net.cpp:411] pool4 -> pool4
I0228 03:37:05.128756  6221 net.cpp:150] Setting up pool4
I0228 03:37:05.128763  6221 net.cpp:157] Top shape: 2 512 38 63 (2451456)
I0228 03:37:05.128767  6221 net.cpp:165] Memory required for data: 2693006040
I0228 03:37:05.128770  6221 layer_factory.hpp:77] Creating layer conv5_1
I0228 03:37:05.128779  6221 net.cpp:106] Creating Layer conv5_1
I0228 03:37:05.128783  6221 net.cpp:454] conv5_1 <- pool4
I0228 03:37:05.128788  6221 net.cpp:411] conv5_1 -> conv5_1
I0228 03:37:05.137624  6221 net.cpp:150] Setting up conv5_1
I0228 03:37:05.137663  6221 net.cpp:157] Top shape: 2 512 38 63 (2451456)
I0228 03:37:05.137667  6221 net.cpp:165] Memory required for data: 2702811864
I0228 03:37:05.137676  6221 layer_factory.hpp:77] Creating layer relu5_1
I0228 03:37:05.137686  6221 net.cpp:106] Creating Layer relu5_1
I0228 03:37:05.137691  6221 net.cpp:454] relu5_1 <- conv5_1
I0228 03:37:05.137701  6221 net.cpp:397] relu5_1 -> conv5_1 (in-place)
I0228 03:37:05.138576  6221 net.cpp:150] Setting up relu5_1
I0228 03:37:05.138586  6221 net.cpp:157] Top shape: 2 512 38 63 (2451456)
I0228 03:37:05.138599  6221 net.cpp:165] Memory required for data: 2712617688
I0228 03:37:05.138603  6221 layer_factory.hpp:77] Creating layer conv5_2
I0228 03:37:05.138613  6221 net.cpp:106] Creating Layer conv5_2
I0228 03:37:05.138617  6221 net.cpp:454] conv5_2 <- conv5_1
I0228 03:37:05.138633  6221 net.cpp:411] conv5_2 -> conv5_2
I0228 03:37:05.147439  6221 net.cpp:150] Setting up conv5_2
I0228 03:37:05.147478  6221 net.cpp:157] Top shape: 2 512 38 63 (2451456)
I0228 03:37:05.147482  6221 net.cpp:165] Memory required for data: 2722423512
I0228 03:37:05.147491  6221 layer_factory.hpp:77] Creating layer relu5_2
I0228 03:37:05.147501  6221 net.cpp:106] Creating Layer relu5_2
I0228 03:37:05.147516  6221 net.cpp:454] relu5_2 <- conv5_2
I0228 03:37:05.147521  6221 net.cpp:397] relu5_2 -> conv5_2 (in-place)
I0228 03:37:05.148525  6221 net.cpp:150] Setting up relu5_2
I0228 03:37:05.148535  6221 net.cpp:157] Top shape: 2 512 38 63 (2451456)
I0228 03:37:05.148550  6221 net.cpp:165] Memory required for data: 2732229336
I0228 03:37:05.148553  6221 layer_factory.hpp:77] Creating layer conv5_3
I0228 03:37:05.148564  6221 net.cpp:106] Creating Layer conv5_3
I0228 03:37:05.148568  6221 net.cpp:454] conv5_3 <- conv5_2
I0228 03:37:05.148579  6221 net.cpp:411] conv5_3 -> conv5_3
I0228 03:37:05.157479  6221 net.cpp:150] Setting up conv5_3
I0228 03:37:05.157518  6221 net.cpp:157] Top shape: 2 512 38 63 (2451456)
I0228 03:37:05.157522  6221 net.cpp:165] Memory required for data: 2742035160
I0228 03:37:05.157531  6221 layer_factory.hpp:77] Creating layer relu5_3
I0228 03:37:05.157541  6221 net.cpp:106] Creating Layer relu5_3
I0228 03:37:05.157546  6221 net.cpp:454] relu5_3 <- conv5_3
I0228 03:37:05.157557  6221 net.cpp:397] relu5_3 -> conv5_3 (in-place)
I0228 03:37:05.158526  6221 net.cpp:150] Setting up relu5_3
I0228 03:37:05.158540  6221 net.cpp:157] Top shape: 2 512 38 63 (2451456)
I0228 03:37:05.158555  6221 net.cpp:165] Memory required for data: 2751840984
I0228 03:37:05.158557  6221 layer_factory.hpp:77] Creating layer conv5_3_relu5_3_0_split
I0228 03:37:05.158565  6221 net.cpp:106] Creating Layer conv5_3_relu5_3_0_split
I0228 03:37:05.158570  6221 net.cpp:454] conv5_3_relu5_3_0_split <- conv5_3
I0228 03:37:05.158576  6221 net.cpp:411] conv5_3_relu5_3_0_split -> conv5_3_relu5_3_0_split_0
I0228 03:37:05.158586  6221 net.cpp:411] conv5_3_relu5_3_0_split -> conv5_3_relu5_3_0_split_1
I0228 03:37:05.158650  6221 net.cpp:150] Setting up conv5_3_relu5_3_0_split
I0228 03:37:05.158658  6221 net.cpp:157] Top shape: 2 512 38 63 (2451456)
I0228 03:37:05.158663  6221 net.cpp:157] Top shape: 2 512 38 63 (2451456)
I0228 03:37:05.158665  6221 net.cpp:165] Memory required for data: 2771452632
I0228 03:37:05.158668  6221 layer_factory.hpp:77] Creating layer roi_pool5
I0228 03:37:05.158689  6221 net.cpp:106] Creating Layer roi_pool5
I0228 03:37:05.158694  6221 net.cpp:454] roi_pool5 <- conv5_3_relu5_3_0_split_0
I0228 03:37:05.158700  6221 net.cpp:454] roi_pool5 <- rois
I0228 03:37:05.158705  6221 net.cpp:411] roi_pool5 -> pool5
I0228 03:37:05.158712  6221 roi_pooling_layer.cpp:30] Spatial scale: 0.0625
I0228 03:37:05.158776  6221 net.cpp:150] Setting up roi_pool5
I0228 03:37:05.158785  6221 net.cpp:157] Top shape: 1 512 7 7 (25088)
I0228 03:37:05.158788  6221 net.cpp:165] Memory required for data: 2771552984
I0228 03:37:05.158792  6221 layer_factory.hpp:77] Creating layer fc6
I0228 03:37:05.158802  6221 net.cpp:106] Creating Layer fc6
I0228 03:37:05.158805  6221 net.cpp:454] fc6 <- pool5
I0228 03:37:05.158810  6221 net.cpp:411] fc6 -> fc6
I0228 03:37:05.534348  6221 net.cpp:150] Setting up fc6
I0228 03:37:05.534402  6221 net.cpp:157] Top shape: 1 4096 (4096)
I0228 03:37:05.534406  6221 net.cpp:165] Memory required for data: 2771569368
I0228 03:37:05.534418  6221 layer_factory.hpp:77] Creating layer relu6
I0228 03:37:05.534430  6221 net.cpp:106] Creating Layer relu6
I0228 03:37:05.534437  6221 net.cpp:454] relu6 <- fc6
I0228 03:37:05.534456  6221 net.cpp:397] relu6 -> fc6 (in-place)
I0228 03:37:05.534728  6221 net.cpp:150] Setting up relu6
I0228 03:37:05.534739  6221 net.cpp:157] Top shape: 1 4096 (4096)
I0228 03:37:05.534741  6221 net.cpp:165] Memory required for data: 2771585752
I0228 03:37:05.534745  6221 layer_factory.hpp:77] Creating layer drop6
I0228 03:37:05.534754  6221 net.cpp:106] Creating Layer drop6
I0228 03:37:05.534759  6221 net.cpp:454] drop6 <- fc6
I0228 03:37:05.534765  6221 net.cpp:397] drop6 -> fc6 (in-place)
I0228 03:37:05.534806  6221 net.cpp:150] Setting up drop6
I0228 03:37:05.534813  6221 net.cpp:157] Top shape: 1 4096 (4096)
I0228 03:37:05.534817  6221 net.cpp:165] Memory required for data: 2771602136
I0228 03:37:05.534821  6221 layer_factory.hpp:77] Creating layer fc7
I0228 03:37:05.534829  6221 net.cpp:106] Creating Layer fc7
I0228 03:37:05.534833  6221 net.cpp:454] fc7 <- fc6
I0228 03:37:05.534839  6221 net.cpp:411] fc7 -> fc7
I0228 03:37:05.589360  6221 net.cpp:150] Setting up fc7
I0228 03:37:05.589411  6221 net.cpp:157] Top shape: 1 4096 (4096)
I0228 03:37:05.589416  6221 net.cpp:165] Memory required for data: 2771618520
I0228 03:37:05.589427  6221 layer_factory.hpp:77] Creating layer relu7
I0228 03:37:05.589440  6221 net.cpp:106] Creating Layer relu7
I0228 03:37:05.589476  6221 net.cpp:454] relu7 <- fc7
I0228 03:37:05.589485  6221 net.cpp:397] relu7 -> fc7 (in-place)
I0228 03:37:05.589990  6221 net.cpp:150] Setting up relu7
I0228 03:37:05.590003  6221 net.cpp:157] Top shape: 1 4096 (4096)
I0228 03:37:05.590018  6221 net.cpp:165] Memory required for data: 2771634904
I0228 03:37:05.590023  6221 layer_factory.hpp:77] Creating layer drop7
I0228 03:37:05.590032  6221 net.cpp:106] Creating Layer drop7
I0228 03:37:05.590049  6221 net.cpp:454] drop7 <- fc7
I0228 03:37:05.590055  6221 net.cpp:397] drop7 -> fc7 (in-place)
I0228 03:37:05.590098  6221 net.cpp:150] Setting up drop7
I0228 03:37:05.590106  6221 net.cpp:157] Top shape: 1 4096 (4096)
I0228 03:37:05.590116  6221 net.cpp:165] Memory required for data: 2771651288
I0228 03:37:05.590118  6221 layer_factory.hpp:77] Creating layer fc7_drop7_0_split
I0228 03:37:05.590126  6221 net.cpp:106] Creating Layer fc7_drop7_0_split
I0228 03:37:05.590128  6221 net.cpp:454] fc7_drop7_0_split <- fc7
I0228 03:37:05.590134  6221 net.cpp:411] fc7_drop7_0_split -> fc7_drop7_0_split_0
I0228 03:37:05.590142  6221 net.cpp:411] fc7_drop7_0_split -> fc7_drop7_0_split_1
I0228 03:37:05.590206  6221 net.cpp:150] Setting up fc7_drop7_0_split
I0228 03:37:05.590214  6221 net.cpp:157] Top shape: 1 4096 (4096)
I0228 03:37:05.590217  6221 net.cpp:157] Top shape: 1 4096 (4096)
I0228 03:37:05.590221  6221 net.cpp:165] Memory required for data: 2771684056
I0228 03:37:05.590224  6221 layer_factory.hpp:77] Creating layer cls_score
I0228 03:37:05.590234  6221 net.cpp:106] Creating Layer cls_score
I0228 03:37:05.590237  6221 net.cpp:454] cls_score <- fc7_drop7_0_split_0
I0228 03:37:05.590245  6221 net.cpp:411] cls_score -> cls_score
I0228 03:37:05.590927  6221 net.cpp:150] Setting up cls_score
I0228 03:37:05.590936  6221 net.cpp:157] Top shape: 1 4 (4)
I0228 03:37:05.590951  6221 net.cpp:165] Memory required for data: 2771684072
I0228 03:37:05.590957  6221 layer_factory.hpp:77] Creating layer bbox_pred
I0228 03:37:05.590965  6221 net.cpp:106] Creating Layer bbox_pred
I0228 03:37:05.590970  6221 net.cpp:454] bbox_pred <- fc7_drop7_0_split_1
I0228 03:37:05.590987  6221 net.cpp:411] bbox_pred -> bbox_pred
I0228 03:37:05.592965  6221 net.cpp:150] Setting up bbox_pred
I0228 03:37:05.592973  6221 net.cpp:157] Top shape: 1 16 (16)
I0228 03:37:05.592988  6221 net.cpp:165] Memory required for data: 2771684136
I0228 03:37:05.593004  6221 layer_factory.hpp:77] Creating layer loss_cls
I0228 03:37:05.593024  6221 net.cpp:106] Creating Layer loss_cls
I0228 03:37:05.593029  6221 net.cpp:454] loss_cls <- cls_score
I0228 03:37:05.593034  6221 net.cpp:454] loss_cls <- labels
I0228 03:37:05.593039  6221 net.cpp:411] loss_cls -> loss_cls
…
I0228 03:37:05.593649  6221 net.cpp:157] Top shape: (1)
I0228 03:37:05.593652  6221 net.cpp:160]     with loss weight 1
I0228 03:37:05.593658  6221 net.cpp:165] Memory required for data: 2771684144
I0228 03:37:05.593662  6221 layer_factory.hpp:77] Creating layer rpn_conv/3x3
I0228 03:37:05.593675  6221 net.cpp:106] Creating Layer rpn_conv/3x3
I0228 03:37:05.593680  6221 net.cpp:454] rpn_conv/3x3 <- conv5_3_relu5_3_0_split_1
I0228 03:37:05.593686  6221 net.cpp:411] rpn_conv/3x3 -> rpn/output
I0228 03:37:05.663825  6221 net.cpp:150] Setting up rpn_conv/3x3
I0228 03:37:05.663867  6221 net.cpp:157] Top shape: 2 512 38 63 (2451456)
I0228 03:37:05.663872  6221 net.cpp:165] Memory required for data: 2781489968
I0228 03:37:05.663882  6221 layer_factory.hpp:77] Creating layer rpn_relu/3x3
I0228 03:37:05.663892  6221 net.cpp:106] Creating Layer rpn_relu/3x3
I0228 03:37:05.663909  6221 net.cpp:454] rpn_relu/3x3 <- rpn/output
I0228 03:37:05.663915  6221 net.cpp:397] rpn_relu/3x3 -> rpn/output (in-place)
I0228 03:37:05.664890  6221 net.cpp:150] Setting up rpn_relu/3x3
I0228 03:37:05.664901  6221 net.cpp:157] Top shape: 2 512 38 63 (2451456)
I0228 03:37:05.664916  6221 net.cpp:165] Memory required for data: 2791295792
I0228 03:37:05.664921  6221 layer_factory.hpp:77] Creating layer rpn/output_rpn_relu/3x3_0_split
I0228 03:37:05.664928  6221 net.cpp:106] Creating Layer rpn/output_rpn_relu/3x3_0_split
I0228 03:37:05.664932  6221 net.cpp:454] rpn/output_rpn_relu/3x3_0_split <- rpn/output
I0228 03:37:05.664948  6221 net.cpp:411] rpn/output_rpn_relu/3x3_0_split -> rpn/output_rpn_relu/3x3_0_split_0
I0228 03:37:05.664957  6221 net.cpp:411] rpn/output_rpn_relu/3x3_0_split -> rpn/output_rpn_relu/3x3_0_split_1
I0228 03:37:05.665035  6221 net.cpp:150] Setting up rpn/output_rpn_relu/3x3_0_split
I0228 03:37:05.665042  6221 net.cpp:157] Top shape: 2 512 38 63 (2451456)
I0228 03:37:05.665046  6221 net.cpp:157] Top shape: 2 512 38 63 (2451456)
I0228 03:37:05.665050  6221 net.cpp:165] Memory required for data: 2810907440
I0228 03:37:05.665053  6221 layer_factory.hpp:77] Creating layer rpn_cls_score
I0228 03:37:05.665066  6221 net.cpp:106] Creating Layer rpn_cls_score
I0228 03:37:05.665071  6221 net.cpp:454] rpn_cls_score <- rpn/output_rpn_relu/3x3_0_split_0
I0228 03:37:05.665079  6221 net.cpp:411] rpn_cls_score -> rpn_cls_score
I0228 03:37:05.668601  6221 net.cpp:150] Setting up rpn_cls_score
I0228 03:37:05.668614  6221 net.cpp:157] Top shape: 2 18 38 63 (86184)
I0228 03:37:05.668629  6221 net.cpp:165] Memory required for data: 2811252176
I0228 03:37:05.668637  6221 layer_factory.hpp:77] Creating layer rpn_bbox_pred
I0228 03:37:05.668661  6221 net.cpp:106] Creating Layer rpn_bbox_pred
I0228 03:37:05.668666  6221 net.cpp:454] rpn_bbox_pred <- rpn/output_rpn_relu/3x3_0_split_1
I0228 03:37:05.668673  6221 net.cpp:411] rpn_bbox_pred -> rpn_bbox_pred
I0228 03:37:05.672339  6221 net.cpp:150] Setting up rpn_bbox_pred
I0228 03:37:05.672353  6221 net.cpp:157] Top shape: 2 36 38 63 (172368)
I0228 03:37:05.672369  6221 net.cpp:165] Memory required for data: 2811941648
I0228 03:37:05.672376  6221 layer_factory.hpp:77] Creating layer silence_rpn_cls_score
I0228 03:37:05.672384  6221 net.cpp:106] Creating Layer silence_rpn_cls_score
I0228 03:37:05.672399  6221 net.cpp:454] silence_rpn_cls_score <- rpn_cls_score
I0228 03:37:05.672405  6221 net.cpp:150] Setting up silence_rpn_cls_score
…
