…
snapshot: 0
snapshot_prefix: "vgg16_rpn"
average_loss: 100
I0227 18:34:48.387290 14951 solver.cpp:81] Creating training net from train_net file: models/pascal_voc/VGG16/faster_rcnn_alt_opt/stage2_rpn_train.pt
I0227 18:34:48.388301 14951 net.cpp:49] Initializing net from parameters: 
name: "VGG_ILSVRC_16_layers"
state {
  phase: TRAIN
}
layer {
  name: "input-data"
  type: "Python"
  top: "data"
  top: "im_info"
  top: "gt_boxes"
  python_param {
    module: "roi_data_layer.layer"
    layer: "RoIDataLayer"
    param_str: "\'num_classes\': 4"
  }
}
layer {
  name: "conv1_1"
  type: "Convolution"
  bottom: "data"
  top: "conv1_1"
  param {
    lr_mult: 0
    decay_mult: 0
  }
  param {
    lr_mult: 0
    decay_mult: 0
  }
  convolution_param {
    num_output: 64
    pad: 1
    kernel_size: 3
  }
}
layer {
  name: "relu1_1"
  type: "ReLU"
  bottom: "conv1_1"
  top: "conv1_1"
}
layer {
  name: "conv1_2"
  type: "Convolution"
  bottom: "conv1_1"
  top: "conv1_2"
  param {
    lr_mult: 0
    decay_mult: 0
  }
  param {
    lr_mult: 0
    decay_mult: 0
  }
  convolution_param {
    num_output: 64
    pad: 1
    kernel_size: 3
  }
}
layer {
  name: "relu1_2"
  type: "ReLU"
  bottom: "conv1_2"
  top: "conv1_2"
}
layer {
  name: "pool1"
  type: "Pooling"
  bottom: "conv1_2"
  top: "pool1"
  pooling_param {
    pool: MAX
    kernel_size: 2
    stride: 2
  }
}
layer {
  name: "conv2_1"
  type: "Convolution"
  bottom: "pool1"
  top: "conv2_1"
  param {
    lr_mult: 0
    decay_mult: 0
  }
  param {
    lr_mult: 0
    decay_mult: 0
  }
  convolution_param {
    num_output: 128
    pad: 1
    kernel_size: 3
  }
}
layer {
  name: "relu2_1"
  type: "ReLU"
  bottom: "conv2_1"
  top: "conv2_1"
}
layer {
  name: "conv2_2"
  type: "Convolution"
  bottom: "conv2_1"
  top: "conv2_2"
  param {
    lr_mult: 0
    decay_mult: 0
  }
  param {
    lr_mult: 0
    decay_mult: 0
  }
  convolution_param {
    num_output: 128
    pad: 1
    kernel_size: 3
  }
}
layer {
  name: "relu2_2"
  type: "ReLU"
  bottom: "conv2_2"
  top: "conv2_2"
}
layer {
  name: "pool2"
  type: "Pooling"
  bottom: "conv2_2"
  top: "pool2"
  pooling_param {
    pool: MAX
    kernel_size: 2
    stride: 2
  }
}
layer {
  name: "conv3_1"
  type: "Convolution"
  bottom: "pool2"
  top: "conv3_1"
  param {
    lr_mult: 0
    decay_mult: 0
  }
  param {
    lr_mult: 0
    decay_mult: 0
  }
  convolution_param {
    num_output: 256
    pad: 1
    kernel_size: 3
  }
}
layer {
  name: "relu3_1"
  type: "ReLU"
  bottom: "conv3_1"
  top: "conv3_1"
}
layer {
  name: "conv3_2"
  type: "Convolution"
  bottom: "conv3_1"
  top: "conv3_2"
  param {
    lr_mult: 0
    decay_mult: 0
  }
  param {
    lr_mult: 0
    decay_mult: 0
  }
  convolution_param {
    num_output: 256
    pad: 1
    kernel_size: 3
  }
}
layer {
  name: "relu3_2"
  type: "ReLU"
  bottom: "conv3_2"
  top: "conv3_2"
}
layer {
  name: "conv3_3"
  type: "Convolution"
  bottom: "conv3_2"
  top: "conv3_3"
  param {
    lr_mult: 0
    decay_mult: 0
  }
  param {
    lr_mult: 0
    decay_mult: 0
  }
  convolution_param {
    num_output: 256
    pad: 1
    kernel_size: 3
  }
}
layer {
  name: "relu3_3"
  type: "ReLU"
  bottom: "conv3_3"
  top: "conv3_3"
}
layer {
  name: "pool3"
  type: "Pooling"
  bottom: "conv3_3"
  top: "pool3"
  pooling_param {
    pool: MAX
    kernel_size: 2
    stride: 2
  }
}
layer {
  name: "conv4_1"
  type: "Convolution"
  bottom: "pool3"
  top: "conv4_1"
  param {
    lr_mult: 0
    decay_mult: 0
  }
  param {
    lr_mult: 0
    decay_mult: 0
  }
  convolution_param {
    num_output: 512
    pad: 1
    kernel_size: 3
  }
}
layer {
  name: "relu4_1"
  type: "ReLU"
  bottom: "conv4_1"
  top: "conv4_1"
}
layer {
  name: "conv4_2"
  type: "Convolution"
  bottom: "conv4_1"
  top: "conv4_2"
  param {
    lr_mult: 0
    decay_mult: 0
  }
  param {
    lr_mult: 0
    decay_mult: 0
  }
  convolution_param {
    num_output: 512
    pad: 1
    kernel_size: 3
  }
}
layer {
  name: "relu4_2"
  type: "ReLU"
  bottom: "conv4_2"
  top: "conv4_2"
}
layer {
  name: "conv4_3"
  type: "Convolution"
  bottom: "conv4_2"
  top: "conv4_3"
  param {
    lr_mult: 0
    decay_mult: 0
  }
  param {
    lr_mult: 0
    decay_mult: 0
  }
  convolution_param {
    num_output: 512
    pad: 1
    kernel_size: 3
  }
}
layer {
  name: "relu4_3"
  type: "ReLU"
  bottom: "conv4_3"
  top: "conv4_3"
}
layer {
  name: "pool4"
  type: "Pooling"
  bottom: "conv4_3"
  top: "pool4"
  pooling_param {
    pool: MAX
    kernel_size: 2
    stride: 2
  }
}
layer {
  name: "conv5_1"
  type: "Convolution"
  bottom: "pool4"
  top: "conv5_1"
  param {
    lr_mult: 0
    decay_mult: 0
  }
  param {
    lr_mult: 0
    decay_mult: 0
  }
  convolution_param {
    num_output: 512
    pad: 1
    kernel_size: 3
  }
}
layer {
  name: "relu5_1"
  type: "ReLU"
  bottom: "conv5_1"
  top: "conv5_1"
}
layer {
  name: "conv5_2"
  type: "Convolution"
  bottom: "conv5_1"
  top: "conv5_2"
  param {
    lr_mult: 0
    decay_mult: 0
  }
  param {
    lr_mult: 0
    decay_mult: 0
  }
  convolution_param {
    num_output: 512
    pad: 1
    kernel_size: 3
  }
}
layer {
  name: "relu5_2"
  type: "ReLU"
  bottom: "conv5_2"
  top: "conv5_2"
}
layer {
  name: "conv5_3"
  type: "Convolution"
  bottom: "conv5_2"
  top: "conv5_3"
  param {
    lr_mult: 0
    decay_mult: 0
  }
  param {
    lr_mult: 0
    decay_mult: 0
  }
  convolution_param {
    num_output: 512
    pad: 1
    kernel_size: 3
  }
}
layer {
  name: "relu5_3"
  type: "ReLU"
  bottom: "conv5_3"
  top: "conv5_3"
}
layer {
  name: "rpn_conv/3x3"
  type: "Convolution"
  bottom: "conv5_3"
  top: "rpn/output"
  param {
    lr_mult: 1
  }
  param {
    lr_mult: 2
  }
  convolution_param {
    num_output: 512
    pad: 1
    kernel_size: 3
    stride: 1
    weight_filler {
      type: "gaussian"
      std: 0.01
    }
    bias_filler {
      type: "constant"
      value: 0
    }
  }
}
layer {
  name: "rpn_relu/3x3"
  type: "ReLU"
  bottom: "rpn/output"
  top: "rpn/output"
}
layer {
  name: "rpn_cls_score"
  type: "Convolution"
  bottom: "rpn/output"
  top: "rpn_cls_score"
  param {
    lr_mult: 1
  }
  param {
    lr_mult: 2
  }
  convolution_param {
    num_output: 18
    pad: 0
    kernel_size: 1
    stride: 1
    weight_filler {
      type: "gaussian"
      std: 0.01
    }
    bias_filler {
      type: "constant"
      value: 0
    }
  }
}
layer {
  name: "rpn_bbox_pred"
  type: "Convolution"
  bottom: "rpn/output"
  top: "rpn_bbox_pred"
  param {
    lr_mult: 1
  }
  param {
    lr_mult: 2
  }
  convolution_param {
    num_output: 36
    pad: 0
    kernel_size: 1
    stride: 1
    weight_filler {
      type: "gaussian"
      std: 0.01
    }
    bias_filler {
      type: "constant"
      value: 0
    }
  }
}
layer {
  name: "rpn_cls_score_reshape"
  type: "Reshape"
  bottom: "rpn_cls_score"
  top: "rpn_cls_score_reshape"
  reshape_param {
    shape {
      dim: 0
      dim: 2
      dim: -1
      dim: 0
    }
  }
}
layer {
  name: "rpn-data"
  type: "Python"
  bottom: "rpn_cls_score"
  bottom: "gt_boxes"
  bottom: "im_info"
  bottom: "data"
  top: "rpn_labels"
  top: "rpn_bbox_targets"
  top: "rpn_bbox_inside_weights"
  top: "rpn_bbox_outside_weights"
  python_param {
    module: "rpn.anchor_target_layer"
    layer: "AnchorTargetLayer"
    param_str: "\'feat_stride\': 16"
  }
}
layer {
  name: "rpn_loss_cls"
  type: "SoftmaxWithLoss"
  bottom: "rpn_cls_score_reshape"
  bottom: "rpn_labels"
  top: "rpn_cls_loss"
  loss_weight: 1
  propagate_down: true
  propagate_down: false
  loss_param {
    ignore_label: -1
    normalize: true
  }
}
layer {
  name: "rpn_loss_bbox"
  type: "SmoothL1Loss"
  bottom: "rpn_bbox_pred"
  bottom: "rpn_bbox_targets"
  bottom: "rpn_bbox_inside_weights"
  bottom: "rpn_bbox_outside_weights"
  top: "rpn_loss_bbox"
  loss_weight: 1
  smooth_l1_loss_param {
    sigma: 3
  }
}
layer {
  name: "dummy_roi_pool_conv5"
  type: "DummyData"
  top: "dummy_roi_pool_conv5"
  dummy_data_param {
    data_filler {
      type: "constant"
      value: 0
    }
    shape {
      dim: 1
      dim: 25088
    }
  }
}
layer {
  name: "fc6"
  type: "InnerProduct"
  bottom: "dummy_roi_pool_conv5"
  top: "fc6"
  param {
    lr_mult: 0
    decay_mult: 0
  }
  param {
    lr_mult: 0
    decay_mult: 0
  }
  inner_product_param {
    num_output: 4096
  }
}
layer {
  name: "relu6"
  type: "ReLU"
  bottom: "fc6"
  top: "fc6"
}
layer {
  name: "drop6"
  type: "Dropout"
  bottom: "fc6"
  top: "fc6"
  dropout_param {
    dropout_ratio: 0.5
  }
}
layer {
  name: "fc7"
  type: "InnerProduct"
  bottom: "fc6"
  top: "fc7"
  param {
    lr_mult: 0
    decay_mult: 0
  }
  param {
    lr_mult: 0
    decay_mult: 0
  }
  inner_product_param {
    num_output: 4096
  }
}
layer {
  name: "silence_fc7"
  type: "Silence"
  bottom: "fc7"
}
I0227 18:34:48.388604 14951 layer_factory.hpp:77] Creating layer input-data
I0227 18:34:48.389902 14951 net.cpp:106] Creating Layer input-data
I0227 18:34:48.389917 14951 net.cpp:411] input-data -> data
I0227 18:34:48.389928 14951 net.cpp:411] input-data -> im_info
I0227 18:34:48.389936 14951 net.cpp:411] input-data -> gt_boxes
RoiDataLayer: name_to_top: {'gt_boxes': 2, 'data': 0, 'im_info': 1}
I0227 18:34:48.482656 14951 net.cpp:150] Setting up input-data
I0227 18:34:48.482688 14951 net.cpp:157] Top shape: 1 3 600 1000 (1800000)
I0227 18:34:48.482694 14951 net.cpp:157] Top shape: 1 3 (3)
I0227 18:34:48.482698 14951 net.cpp:157] Top shape: 1 4 (4)
I0227 18:34:48.482702 14951 net.cpp:165] Memory required for data: 7200028
I0227 18:34:48.482708 14951 layer_factory.hpp:77] Creating layer data_input-data_0_split
I0227 18:34:48.482725 14951 net.cpp:106] Creating Layer data_input-data_0_split
I0227 18:34:48.482731 14951 net.cpp:454] data_input-data_0_split <- data
I0227 18:34:48.482738 14951 net.cpp:411] data_input-data_0_split -> data_input-data_0_split_0
I0227 18:34:48.482748 14951 net.cpp:411] data_input-data_0_split -> data_input-data_0_split_1
I0227 18:34:48.482807 14951 net.cpp:150] Setting up data_input-data_0_split
I0227 18:34:48.482816 14951 net.cpp:157] Top shape: 1 3 600 1000 (1800000)
I0227 18:34:48.482820 14951 net.cpp:157] Top shape: 1 3 600 1000 (1800000)
I0227 18:34:48.482823 14951 net.cpp:165] Memory required for data: 21600028
I0227 18:34:48.482827 14951 layer_factory.hpp:77] Creating layer conv1_1
I0227 18:34:48.482841 14951 net.cpp:106] Creating Layer conv1_1
I0227 18:34:48.482844 14951 net.cpp:454] conv1_1 <- data_input-data_0_split_0
I0227 18:34:48.482852 14951 net.cpp:411] conv1_1 -> conv1_1
I0227 18:34:49.716321 14951 net.cpp:150] Setting up conv1_1
I0227 18:34:49.716368 14951 net.cpp:157] Top shape: 1 64 600 1000 (38400000)
I0227 18:34:49.716374 14951 net.cpp:165] Memory required for data: 175200028
I0227 18:34:49.716390 14951 layer_factory.hpp:77] Creating layer relu1_1
I0227 18:34:49.716414 14951 net.cpp:106] Creating Layer relu1_1
I0227 18:34:49.716419 14951 net.cpp:454] relu1_1 <- conv1_1
I0227 18:34:49.716425 14951 net.cpp:397] relu1_1 -> conv1_1 (in-place)
I0227 18:34:49.716707 14951 net.cpp:150] Setting up relu1_1
I0227 18:34:49.716730 14951 net.cpp:157] Top shape: 1 64 600 1000 (38400000)
I0227 18:34:49.716745 14951 net.cpp:165] Memory required for data: 328800028
I0227 18:34:49.716749 14951 layer_factory.hpp:77] Creating layer conv1_2
I0227 18:34:49.716761 14951 net.cpp:106] Creating Layer conv1_2
I0227 18:34:49.716764 14951 net.cpp:454] conv1_2 <- conv1_1
I0227 18:34:49.716770 14951 net.cpp:411] conv1_2 -> conv1_2
I0227 18:34:49.721469 14951 net.cpp:150] Setting up conv1_2
I0227 18:34:49.721498 14951 net.cpp:157] Top shape: 1 64 600 1000 (38400000)
I0227 18:34:49.721501 14951 net.cpp:165] Memory required for data: 482400028
I0227 18:34:49.721510 14951 layer_factory.hpp:77] Creating layer relu1_2
I0227 18:34:49.721516 14951 net.cpp:106] Creating Layer relu1_2
I0227 18:34:49.721520 14951 net.cpp:454] relu1_2 <- conv1_2
I0227 18:34:49.721525 14951 net.cpp:397] relu1_2 -> conv1_2 (in-place)
I0227 18:34:49.721681 14951 net.cpp:150] Setting up relu1_2
I0227 18:34:49.721691 14951 net.cpp:157] Top shape: 1 64 600 1000 (38400000)
I0227 18:34:49.721694 14951 net.cpp:165] Memory required for data: 636000028
I0227 18:34:49.721698 14951 layer_factory.hpp:77] Creating layer pool1
I0227 18:34:49.721705 14951 net.cpp:106] Creating Layer pool1
I0227 18:34:49.721709 14951 net.cpp:454] pool1 <- conv1_2
I0227 18:34:49.721714 14951 net.cpp:411] pool1 -> pool1
I0227 18:34:49.722118 14951 net.cpp:150] Setting up pool1
I0227 18:34:49.722129 14951 net.cpp:157] Top shape: 1 64 300 500 (9600000)
I0227 18:34:49.722144 14951 net.cpp:165] Memory required for data: 674400028
I0227 18:34:49.722148 14951 layer_factory.hpp:77] Creating layer conv2_1
I0227 18:34:49.722156 14951 net.cpp:106] Creating Layer conv2_1
I0227 18:34:49.722158 14951 net.cpp:454] conv2_1 <- pool1
I0227 18:34:49.722164 14951 net.cpp:411] conv2_1 -> conv2_1
I0227 18:34:49.726282 14951 net.cpp:150] Setting up conv2_1
I0227 18:34:49.726297 14951 net.cpp:157] Top shape: 1 128 300 500 (19200000)
I0227 18:34:49.726313 14951 net.cpp:165] Memory required for data: 751200028
I0227 18:34:49.726321 14951 layer_factory.hpp:77] Creating layer relu2_1
I0227 18:34:49.726330 14951 net.cpp:106] Creating Layer relu2_1
I0227 18:34:49.726344 14951 net.cpp:454] relu2_1 <- conv2_1
I0227 18:34:49.726349 14951 net.cpp:397] relu2_1 -> conv2_1 (in-place)
I0227 18:34:49.727150 14951 net.cpp:150] Setting up relu2_1
I0227 18:34:49.727159 14951 net.cpp:157] Top shape: 1 128 300 500 (19200000)
I0227 18:34:49.727162 14951 net.cpp:165] Memory required for data: 828000028
I0227 18:34:49.727177 14951 layer_factory.hpp:77] Creating layer conv2_2
I0227 18:34:49.727185 14951 net.cpp:106] Creating Layer conv2_2
I0227 18:34:49.727188 14951 net.cpp:454] conv2_2 <- conv2_1
I0227 18:34:49.727193 14951 net.cpp:411] conv2_2 -> conv2_2
I0227 18:34:49.731793 14951 net.cpp:150] Setting up conv2_2
I0227 18:34:49.731807 14951 net.cpp:157] Top shape: 1 128 300 500 (19200000)
I0227 18:34:49.731823 14951 net.cpp:165] Memory required for data: 904800028
I0227 18:34:49.731832 14951 layer_factory.hpp:77] Creating layer relu2_2
I0227 18:34:49.731839 14951 net.cpp:106] Creating Layer relu2_2
I0227 18:34:49.731855 14951 net.cpp:454] relu2_2 <- conv2_2
I0227 18:34:49.731860 14951 net.cpp:397] relu2_2 -> conv2_2 (in-place)
I0227 18:34:49.732159 14951 net.cpp:150] Setting up relu2_2
I0227 18:34:49.732182 14951 net.cpp:157] Top shape: 1 128 300 500 (19200000)
I0227 18:34:49.732195 14951 net.cpp:165] Memory required for data: 981600028
I0227 18:34:49.732199 14951 layer_factory.hpp:77] Creating layer pool2
I0227 18:34:49.732208 14951 net.cpp:106] Creating Layer pool2
I0227 18:34:49.732210 14951 net.cpp:454] pool2 <- conv2_2
I0227 18:34:49.732226 14951 net.cpp:411] pool2 -> pool2
I0227 18:34:49.732290 14951 net.cpp:150] Setting up pool2
I0227 18:34:49.732297 14951 net.cpp:157] Top shape: 1 128 150 250 (4800000)
I0227 18:34:49.732300 14951 net.cpp:165] Memory required for data: 1000800028
I0227 18:34:49.732303 14951 layer_factory.hpp:77] Creating layer conv3_1
I0227 18:34:49.732312 14951 net.cpp:106] Creating Layer conv3_1
I0227 18:34:49.732316 14951 net.cpp:454] conv3_1 <- pool2
I0227 18:34:49.732321 14951 net.cpp:411] conv3_1 -> conv3_1
I0227 18:34:49.735729 14951 net.cpp:150] Setting up conv3_1
I0227 18:34:49.735743 14951 net.cpp:157] Top shape: 1 256 150 250 (9600000)
I0227 18:34:49.735759 14951 net.cpp:165] Memory required for data: 1039200028
I0227 18:34:49.735769 14951 layer_factory.hpp:77] Creating layer relu3_1
I0227 18:34:49.735787 14951 net.cpp:106] Creating Layer relu3_1
I0227 18:34:49.735791 14951 net.cpp:454] relu3_1 <- conv3_1
I0227 18:34:49.735796 14951 net.cpp:397] relu3_1 -> conv3_1 (in-place)
I0227 18:34:49.737627 14951 net.cpp:150] Setting up relu3_1
I0227 18:34:49.737637 14951 net.cpp:157] Top shape: 1 256 150 250 (9600000)
I0227 18:34:49.737653 14951 net.cpp:165] Memory required for data: 1077600028
I0227 18:34:49.737655 14951 layer_factory.hpp:77] Creating layer conv3_2
I0227 18:34:49.737665 14951 net.cpp:106] Creating Layer conv3_2
I0227 18:34:49.737669 14951 net.cpp:454] conv3_2 <- conv3_1
I0227 18:34:49.737674 14951 net.cpp:411] conv3_2 -> conv3_2
I0227 18:34:49.742259 14951 net.cpp:150] Setting up conv3_2
I0227 18:34:49.742274 14951 net.cpp:157] Top shape: 1 256 150 250 (9600000)
I0227 18:34:49.742288 14951 net.cpp:165] Memory required for data: 1116000028
I0227 18:34:49.742295 14951 layer_factory.hpp:77] Creating layer relu3_2
I0227 18:34:49.742303 14951 net.cpp:106] Creating Layer relu3_2
I0227 18:34:49.742318 14951 net.cpp:454] relu3_2 <- conv3_2
I0227 18:34:49.742323 14951 net.cpp:397] relu3_2 -> conv3_2 (in-place)
I0227 18:34:49.743147 14951 net.cpp:150] Setting up relu3_2
I0227 18:34:49.743156 14951 net.cpp:157] Top shape: 1 256 150 250 (9600000)
I0227 18:34:49.743170 14951 net.cpp:165] Memory required for data: 1154400028
I0227 18:34:49.743175 14951 layer_factory.hpp:77] Creating layer conv3_3
I0227 18:34:49.743185 14951 net.cpp:106] Creating Layer conv3_3
I0227 18:34:49.743201 14951 net.cpp:454] conv3_3 <- conv3_2
I0227 18:34:49.743206 14951 net.cpp:411] conv3_3 -> conv3_3
I0227 18:34:49.747581 14951 net.cpp:150] Setting up conv3_3
I0227 18:34:49.747596 14951 net.cpp:157] Top shape: 1 256 150 250 (9600000)
I0227 18:34:49.747611 14951 net.cpp:165] Memory required for data: 1192800028
I0227 18:34:49.747617 14951 layer_factory.hpp:77] Creating layer relu3_3
I0227 18:34:49.747625 14951 net.cpp:106] Creating Layer relu3_3
I0227 18:34:49.747640 14951 net.cpp:454] relu3_3 <- conv3_3
I0227 18:34:49.747645 14951 net.cpp:397] relu3_3 -> conv3_3 (in-place)
I0227 18:34:49.749364 14951 net.cpp:150] Setting up relu3_3
I0227 18:34:49.749377 14951 net.cpp:157] Top shape: 1 256 150 250 (9600000)
I0227 18:34:49.749390 14951 net.cpp:165] Memory required for data: 1231200028
I0227 18:34:49.749394 14951 layer_factory.hpp:77] Creating layer pool3
I0227 18:34:49.749402 14951 net.cpp:106] Creating Layer pool3
I0227 18:34:49.749406 14951 net.cpp:454] pool3 <- conv3_3
I0227 18:34:49.749423 14951 net.cpp:411] pool3 -> pool3
I0227 18:34:49.749495 14951 net.cpp:150] Setting up pool3
I0227 18:34:49.749503 14951 net.cpp:157] Top shape: 1 256 75 125 (2400000)
I0227 18:34:49.749506 14951 net.cpp:165] Memory required for data: 1240800028
I0227 18:34:49.749510 14951 layer_factory.hpp:77] Creating layer conv4_1
I0227 18:34:49.749518 14951 net.cpp:106] Creating Layer conv4_1
I0227 18:34:49.749522 14951 net.cpp:454] conv4_1 <- pool3
I0227 18:34:49.749528 14951 net.cpp:411] conv4_1 -> conv4_1
I0227 18:34:49.756616 14951 net.cpp:150] Setting up conv4_1
I0227 18:34:49.756644 14951 net.cpp:157] Top shape: 1 512 75 125 (4800000)
I0227 18:34:49.756649 14951 net.cpp:165] Memory required for data: 1260000028
I0227 18:34:49.756659 14951 layer_factory.hpp:77] Creating layer relu4_1
I0227 18:34:49.756664 14951 net.cpp:106] Creating Layer relu4_1
I0227 18:34:49.756680 14951 net.cpp:454] relu4_1 <- conv4_1
I0227 18:34:49.756685 14951 net.cpp:397] relu4_1 -> conv4_1 (in-place)
I0227 18:34:49.757908 14951 net.cpp:150] Setting up relu4_1
I0227 18:34:49.757932 14951 net.cpp:157] Top shape: 1 512 75 125 (4800000)
I0227 18:34:49.757936 14951 net.cpp:165] Memory required for data: 1279200028
I0227 18:34:49.757941 14951 layer_factory.hpp:77] Creating layer conv4_2
I0227 18:34:49.757949 14951 net.cpp:106] Creating Layer conv4_2
I0227 18:34:49.757966 14951 net.cpp:454] conv4_2 <- conv4_1
I0227 18:34:49.757971 14951 net.cpp:411] conv4_2 -> conv4_2
I0227 18:34:49.765664 14951 net.cpp:150] Setting up conv4_2
I0227 18:34:49.765698 14951 net.cpp:157] Top shape: 1 512 75 125 (4800000)
I0227 18:34:49.765702 14951 net.cpp:165] Memory required for data: 1298400028
I0227 18:34:49.765717 14951 layer_factory.hpp:77] Creating layer relu4_2
I0227 18:34:49.765724 14951 net.cpp:106] Creating Layer relu4_2
I0227 18:34:49.765729 14951 net.cpp:454] relu4_2 <- conv4_2
I0227 18:34:49.765734 14951 net.cpp:397] relu4_2 -> conv4_2 (in-place)
I0227 18:34:49.766618 14951 net.cpp:150] Setting up relu4_2
I0227 18:34:49.766628 14951 net.cpp:157] Top shape: 1 512 75 125 (4800000)
I0227 18:34:49.766641 14951 net.cpp:165] Memory required for data: 1317600028
I0227 18:34:49.766645 14951 layer_factory.hpp:77] Creating layer conv4_3
I0227 18:34:49.766654 14951 net.cpp:106] Creating Layer conv4_3
I0227 18:34:49.766659 14951 net.cpp:454] conv4_3 <- conv4_2
I0227 18:34:49.766676 14951 net.cpp:411] conv4_3 -> conv4_3
I0227 18:34:49.774505 14951 net.cpp:150] Setting up conv4_3
I0227 18:34:49.774540 14951 net.cpp:157] Top shape: 1 512 75 125 (4800000)
I0227 18:34:49.774544 14951 net.cpp:165] Memory required for data: 1336800028
I0227 18:34:49.774552 14951 layer_factory.hpp:77] Creating layer relu4_3
I0227 18:34:49.774560 14951 net.cpp:106] Creating Layer relu4_3
I0227 18:34:49.774576 14951 net.cpp:454] relu4_3 <- conv4_3
I0227 18:34:49.774585 14951 net.cpp:397] relu4_3 -> conv4_3 (in-place)
I0227 18:34:49.775640 14951 net.cpp:150] Setting up relu4_3
I0227 18:34:49.775651 14951 net.cpp:157] Top shape: 1 512 75 125 (4800000)
I0227 18:34:49.775666 14951 net.cpp:165] Memory required for data: 1356000028
I0227 18:34:49.775670 14951 layer_factory.hpp:77] Creating layer pool4
I0227 18:34:49.775676 14951 net.cpp:106] Creating Layer pool4
I0227 18:34:49.775681 14951 net.cpp:454] pool4 <- conv4_3
I0227 18:34:49.775698 14951 net.cpp:411] pool4 -> pool4
I0227 18:34:49.775768 14951 net.cpp:150] Setting up pool4
I0227 18:34:49.775775 14951 net.cpp:157] Top shape: 1 512 38 63 (1225728)
I0227 18:34:49.775779 14951 net.cpp:165] Memory required for data: 1360902940
I0227 18:34:49.775782 14951 layer_factory.hpp:77] Creating layer conv5_1
I0227 18:34:49.775795 14951 net.cpp:106] Creating Layer conv5_1
I0227 18:34:49.775800 14951 net.cpp:454] conv5_1 <- pool4
I0227 18:34:49.775806 14951 net.cpp:411] conv5_1 -> conv5_1
I0227 18:34:49.783622 14951 net.cpp:150] Setting up conv5_1
I0227 18:34:49.783655 14951 net.cpp:157] Top shape: 1 512 38 63 (1225728)
I0227 18:34:49.783659 14951 net.cpp:165] Memory required for data: 1365805852
I0227 18:34:49.783666 14951 layer_factory.hpp:77] Creating layer relu5_1
I0227 18:34:49.783676 14951 net.cpp:106] Creating Layer relu5_1
I0227 18:34:49.783680 14951 net.cpp:454] relu5_1 <- conv5_1
I0227 18:34:49.783697 14951 net.cpp:397] relu5_1 -> conv5_1 (in-place)
I0227 18:34:49.785537 14951 net.cpp:150] Setting up relu5_1
I0227 18:34:49.785547 14951 net.cpp:157] Top shape: 1 512 38 63 (1225728)
I0227 18:34:49.785562 14951 net.cpp:165] Memory required for data: 1370708764
I0227 18:34:49.785565 14951 layer_factory.hpp:77] Creating layer conv5_2
I0227 18:34:49.785576 14951 net.cpp:106] Creating Layer conv5_2
I0227 18:34:49.785580 14951 net.cpp:454] conv5_2 <- conv5_1
I0227 18:34:49.785585 14951 net.cpp:411] conv5_2 -> conv5_2
I0227 18:34:49.793364 14951 net.cpp:150] Setting up conv5_2
I0227 18:34:49.793400 14951 net.cpp:157] Top shape: 1 512 38 63 (1225728)
I0227 18:34:49.793403 14951 net.cpp:165] Memory required for data: 1375611676
I0227 18:34:49.793411 14951 layer_factory.hpp:77] Creating layer relu5_2
I0227 18:34:49.793418 14951 net.cpp:106] Creating Layer relu5_2
I0227 18:34:49.793422 14951 net.cpp:454] relu5_2 <- conv5_2
I0227 18:34:49.793439 14951 net.cpp:397] relu5_2 -> conv5_2 (in-place)
I0227 18:34:49.794343 14951 net.cpp:150] Setting up relu5_2
I0227 18:34:49.794353 14951 net.cpp:157] Top shape: 1 512 38 63 (1225728)
I0227 18:34:49.794368 14951 net.cpp:165] Memory required for data: 1380514588
I0227 18:34:49.794371 14951 layer_factory.hpp:77] Creating layer conv5_3
I0227 18:34:49.794381 14951 net.cpp:106] Creating Layer conv5_3
I0227 18:34:49.794384 14951 net.cpp:454] conv5_3 <- conv5_2
I0227 18:34:49.794401 14951 net.cpp:411] conv5_3 -> conv5_3
I0227 18:34:49.802330 14951 net.cpp:150] Setting up conv5_3
I0227 18:34:49.802362 14951 net.cpp:157] Top shape: 1 512 38 63 (1225728)
I0227 18:34:49.802366 14951 net.cpp:165] Memory required for data: 1385417500
I0227 18:34:49.802373 14951 layer_factory.hpp:77] Creating layer relu5_3
I0227 18:34:49.802382 14951 net.cpp:106] Creating Layer relu5_3
I0227 18:34:49.802398 14951 net.cpp:454] relu5_3 <- conv5_3
I0227 18:34:49.802403 14951 net.cpp:397] relu5_3 -> conv5_3 (in-place)
I0227 18:34:49.803325 14951 net.cpp:150] Setting up relu5_3
I0227 18:34:49.803336 14951 net.cpp:157] Top shape: 1 512 38 63 (1225728)
I0227 18:34:49.803351 14951 net.cpp:165] Memory required for data: 1390320412
I0227 18:34:49.803354 14951 layer_factory.hpp:77] Creating layer rpn_conv/3x3
I0227 18:34:49.803385 14951 net.cpp:106] Creating Layer rpn_conv/3x3
I0227 18:34:49.803388 14951 net.cpp:454] rpn_conv/3x3 <- conv5_3
I0227 18:34:49.803397 14951 net.cpp:411] rpn_conv/3x3 -> rpn/output
I0227 18:34:49.873167 14951 net.cpp:150] Setting up rpn_conv/3x3
I0227 18:34:49.873206 14951 net.cpp:157] Top shape: 1 512 38 63 (1225728)
I0227 18:34:49.873210 14951 net.cpp:165] Memory required for data: 1395223324
I0227 18:34:49.873219 14951 layer_factory.hpp:77] Creating layer rpn_relu/3x3
I0227 18:34:49.873229 14951 net.cpp:106] Creating Layer rpn_relu/3x3
I0227 18:34:49.873245 14951 net.cpp:454] rpn_relu/3x3 <- rpn/output
I0227 18:34:49.873251 14951 net.cpp:397] rpn_relu/3x3 -> rpn/output (in-place)
I0227 18:34:49.874146 14951 net.cpp:150] Setting up rpn_relu/3x3
I0227 18:34:49.874155 14951 net.cpp:157] Top shape: 1 512 38 63 (1225728)
I0227 18:34:49.874171 14951 net.cpp:165] Memory required for data: 1400126236
I0227 18:34:49.874173 14951 layer_factory.hpp:77] Creating layer rpn/output_rpn_relu/3x3_0_split
I0227 18:34:49.874179 14951 net.cpp:106] Creating Layer rpn/output_rpn_relu/3x3_0_split
I0227 18:34:49.874182 14951 net.cpp:454] rpn/output_rpn_relu/3x3_0_split <- rpn/output
I0227 18:34:49.874188 14951 net.cpp:411] rpn/output_rpn_relu/3x3_0_split -> rpn/output_rpn_relu/3x3_0_split_0
I0227 18:34:49.874207 14951 net.cpp:411] rpn/output_rpn_relu/3x3_0_split -> rpn/output_rpn_relu/3x3_0_split_1
I0227 18:34:49.874272 14951 net.cpp:150] Setting up rpn/output_rpn_relu/3x3_0_split
I0227 18:34:49.874280 14951 net.cpp:157] Top shape: 1 512 38 63 (1225728)
I0227 18:34:49.874284 14951 net.cpp:157] Top shape: 1 512 38 63 (1225728)
I0227 18:34:49.874287 14951 net.cpp:165] Memory required for data: 1409932060
I0227 18:34:49.874290 14951 layer_factory.hpp:77] Creating layer rpn_cls_score
I0227 18:34:49.874302 14951 net.cpp:106] Creating Layer rpn_cls_score
I0227 18:34:49.874310 14951 net.cpp:454] rpn_cls_score <- rpn/output_rpn_relu/3x3_0_split_0
I0227 18:34:49.874317 14951 net.cpp:411] rpn_cls_score -> rpn_cls_score
I0227 18:34:49.877935 14951 net.cpp:150] Setting up rpn_cls_score
I0227 18:34:49.877962 14951 net.cpp:157] Top shape: 1 18 38 63 (43092)
I0227 18:34:49.877966 14951 net.cpp:165] Memory required for data: 1410104428
I0227 18:34:49.877972 14951 layer_factory.hpp:77] Creating layer rpn_cls_score_rpn_cls_score_0_split
I0227 18:34:49.877979 14951 net.cpp:106] Creating Layer rpn_cls_score_rpn_cls_score_0_split
I0227 18:34:49.877993 14951 net.cpp:454] rpn_cls_score_rpn_cls_score_0_split <- rpn_cls_score
I0227 18:34:49.878000 14951 net.cpp:411] rpn_cls_score_rpn_cls_score_0_split -> rpn_cls_score_rpn_cls_score_0_split_0
I0227 18:34:49.878005 14951 net.cpp:411] rpn_cls_score_rpn_cls_score_0_split -> rpn_cls_score_rpn_cls_score_0_split_1
I0227 18:34:49.878067 14951 net.cpp:150] Setting up rpn_cls_score_rpn_cls_score_0_split
I0227 18:34:49.878074 14951 net.cpp:157] Top shape: 1 18 38 63 (43092)
I0227 18:34:49.878080 14951 net.cpp:157] Top shape: 1 18 38 63 (43092)
I0227 18:34:49.878083 14951 net.cpp:165] Memory required for data: 1410449164
I0227 18:34:49.878087 14951 layer_factory.hpp:77] Creating layer rpn_bbox_pred
I0227 18:34:49.878095 14951 net.cpp:106] Creating Layer rpn_bbox_pred
I0227 18:34:49.878099 14951 net.cpp:454] rpn_bbox_pred <- rpn/output_rpn_relu/3x3_0_split_1
I0227 18:34:49.878106 14951 net.cpp:411] rpn_bbox_pred -> rpn_bbox_pred
I0227 18:34:49.881477 14951 net.cpp:150] Setting up rpn_bbox_pred
I0227 18:34:49.881490 14951 net.cpp:157] Top shape: 1 36 38 63 (86184)
I0227 18:34:49.881506 14951 net.cpp:165] Memory required for data: 1410793900
I0227 18:34:49.881512 14951 layer_factory.hpp:77] Creating layer rpn_cls_score_reshape
I0227 18:34:49.881528 14951 net.cpp:106] Creating Layer rpn_cls_score_reshape
I0227 18:34:49.881534 14951 net.cpp:454] rpn_cls_score_reshape <- rpn_cls_score_rpn_cls_score_0_split_0
I0227 18:34:49.881541 14951 net.cpp:411] rpn_cls_score_reshape -> rpn_cls_score_reshape
I0227 18:34:49.881584 14951 net.cpp:150] Setting up rpn_cls_score_reshape
I0227 18:34:49.881592 14951 net.cpp:157] Top shape: 1 2 342 63 (43092)
I0227 18:34:49.881595 14951 net.cpp:165] Memory required for data: 1410966268
I0227 18:34:49.881598 14951 layer_factory.hpp:77] Creating layer rpn-data
I0227 18:34:49.885213 14951 net.cpp:106] Creating Layer rpn-data
I0227 18:34:49.885226 14951 net.cpp:454] rpn-data <- rpn_cls_score_rpn_cls_score_0_split_1
I0227 18:34:49.885243 14951 net.cpp:454] rpn-data <- gt_boxes
I0227 18:34:49.885248 14951 net.cpp:454] rpn-data <- im_info
I0227 18:34:49.885252 14951 net.cpp:454] rpn-data <- data_input-data_0_split_1
I0227 18:34:49.885257 14951 net.cpp:411] rpn-data -> rpn_labels
I0227 18:34:49.885277 14951 net.cpp:411] rpn-data -> rpn_bbox_targets
I0227 18:34:49.885282 14951 net.cpp:411] rpn-data -> rpn_bbox_inside_weights
I0227 18:34:49.885293 14951 net.cpp:411] rpn-data -> rpn_bbox_outside_weights
I0227 18:34:49.886430 14951 net.cpp:150] Setting up rpn-data
I0227 18:34:49.886456 14951 net.cpp:157] Top shape: 1 1 342 63 (21546)
I0227 18:34:49.886461 14951 net.cpp:157] Top shape: 1 36 38 63 (86184)
I0227 18:34:49.886466 14951 net.cpp:157] Top shape: 1 36 38 63 (86184)
I0227 18:34:49.886469 14951 net.cpp:157] Top shape: 1 36 38 63 (86184)
I0227 18:34:49.886472 14951 net.cpp:165] Memory required for data: 1412086660
I0227 18:34:49.886476 14951 layer_factory.hpp:77] Creating layer rpn_loss_cls
I0227 18:34:49.886495 14951 net.cpp:106] Creating Layer rpn_loss_cls
I0227 18:34:49.886499 14951 net.cpp:454] rpn_loss_cls <- rpn_cls_score_reshape
I0227 18:34:49.886504 14951 net.cpp:454] rpn_loss_cls <- rpn_labels
I0227 18:34:49.886509 14951 net.cpp:411] rpn_loss_cls -> rpn_cls_loss
…
I0227 18:34:49.887702 14951 net.cpp:150] Setting up rpn_loss_bbox
I0227 18:34:49.887712 14951 net.cpp:157] Top shape: (1)
I0227 18:34:49.887727 14951 net.cpp:160]     with loss weight 1
I0227 18:34:49.887732 14951 net.cpp:165] Memory required for data: 1412086668
I0227 18:34:49.887734 14951 layer_factory.hpp:77] Creating layer dummy_roi_pool_conv5
I0227 18:34:49.887949 14951 net.cpp:106] Creating Layer dummy_roi_pool_conv5
I0227 18:34:49.887959 14951 net.cpp:411] dummy_roi_pool_conv5 -> dummy_roi_pool_conv5
I0227 18:34:49.888712 14951 net.cpp:150] Setting up dummy_roi_pool_conv5
I0227 18:34:49.888725 14951 net.cpp:157] Top shape: 1 25088 (25088)
I0227 18:34:49.888739 14951 net.cpp:165] Memory required for data: 1412187020
I0227 18:34:49.888743 14951 layer_factory.hpp:77] Creating layer fc6
I0227 18:34:49.888751 14951 net.cpp:106] Creating Layer fc6
I0227 18:34:49.888754 14951 net.cpp:454] fc6 <- dummy_roi_pool_conv5
I0227 18:34:49.888772 14951 net.cpp:411] fc6 -> fc6
I0227 18:34:50.147943 14951 net.cpp:150] Setting up fc6
I0227 18:34:50.147997 14951 net.cpp:157] Top shape: 1 4096 (4096)
I0227 18:34:50.148002 14951 net.cpp:165] Memory required for data: 1412203404
I0227 18:34:50.148021 14951 layer_factory.hpp:77] Creating layer relu6
I0227 18:34:50.148046 14951 net.cpp:106] Creating Layer relu6
I0227 18:34:50.148051 14951 net.cpp:454] relu6 <- fc6
I0227 18:34:50.148058 14951 net.cpp:397] relu6 -> fc6 (in-place)
I0227 18:34:50.148561 14951 net.cpp:150] Setting up relu6
I0227 18:34:50.148574 14951 net.cpp:157] Top shape: 1 4096 (4096)
I0227 18:34:50.148589 14951 net.cpp:165] Memory required for data: 1412219788
I0227 18:34:50.148592 14951 layer_factory.hpp:77] Creating layer drop6
I0227 18:34:50.148600 14951 net.cpp:106] Creating Layer drop6
I0227 18:34:50.148604 14951 net.cpp:454] drop6 <- fc6
I0227 18:34:50.148622 14951 net.cpp:397] drop6 -> fc6 (in-place)
I0227 18:34:50.148665 14951 net.cpp:150] Setting up drop6
I0227 18:34:50.148674 14951 net.cpp:157] Top shape: 1 4096 (4096)
I0227 18:34:50.148676 14951 net.cpp:165] Memory required for data: 1412236172
I0227 18:34:50.148679 14951 layer_factory.hpp:77] Creating layer fc7
I0227 18:34:50.148699 14951 net.cpp:106] Creating Layer fc7
I0227 18:34:50.148701 14951 net.cpp:454] fc7 <- fc6
I0227 18:34:50.148707 14951 net.cpp:411] fc7 -> fc7
I0227 18:34:50.192569 14951 net.cpp:150] Setting up fc7
I0227 18:34:50.192621 14951 net.cpp:157] Top shape: 1 4096 (4096)
I0227 18:34:50.192626 14951 net.cpp:165] Memory required for data: 1412252556
I0227 18:34:50.192636 14951 layer_factory.hpp:77] Creating layer silence_fc7
I0227 18:34:50.192648 14951 net.cpp:106] Creating Layer silence_fc7
I0227 18:34:50.192654 14951 net.cpp:454] silence_fc7 <- fc7
I0227 18:34:50.192673 14951 net.cpp:150] Setting up silence_fc7
I0227 18:34:50.192677 14951 net.cpp:165] Memory required for data: 1412252556
…
