…
           'RPN_POST_NMS_TOP_N': 2000,
           'RPN_PRE_NMS_TOP_N': 12000,
           'SCALES': [600],
           'SNAPSHOT_INFIX': '',
           'SNAPSHOT_ITERS': 10000,
           'USE_FLIPPED': True,
           'USE_PREFETCH': False},
 'USE_GPU_NMS': True}
WARNING: Logging before InitGoogleLogging() is written to STDERR
I0228 12:22:48.990607  2164 net.cpp:49] Initializing net from parameters: 
name: "VGG_ILSVRC_16_layers"
input: "data"
input: "im_info"
state {
  phase: TEST
}
input_shape {
  dim: 1
  dim: 3
  dim: 224
  dim: 224
}
input_shape {
  dim: 1
  dim: 3
}
layer {
  name: "conv1_1"
  type: "Convolution"
  bottom: "data"
  top: "conv1_1"
  convolution_param {
    num_output: 64
    pad: 1
    kernel_size: 3
  }
}
layer {
  name: "relu1_1"
  type: "ReLU"
  bottom: "conv1_1"
  top: "conv1_1"
}
layer {
  name: "conv1_2"
  type: "Convolution"
  bottom: "conv1_1"
  top: "conv1_2"
  convolution_param {
    num_output: 64
    pad: 1
    kernel_size: 3
  }
}
layer {
  name: "relu1_2"
  type: "ReLU"
  bottom: "conv1_2"
  top: "conv1_2"
}
layer {
  name: "pool1"
  type: "Pooling"
  bottom: "conv1_2"
  top: "pool1"
  pooling_param {
    pool: MAX
    kernel_size: 2
    stride: 2
  }
}
layer {
  name: "conv2_1"
  type: "Convolution"
  bottom: "pool1"
  top: "conv2_1"
  convolution_param {
    num_output: 128
    pad: 1
    kernel_size: 3
  }
}
layer {
  name: "relu2_1"
  type: "ReLU"
  bottom: "conv2_1"
  top: "conv2_1"
}
layer {
  name: "conv2_2"
  type: "Convolution"
  bottom: "conv2_1"
  top: "conv2_2"
  convolution_param {
    num_output: 128
    pad: 1
    kernel_size: 3
  }
}
layer {
  name: "relu2_2"
  type: "ReLU"
  bottom: "conv2_2"
  top: "conv2_2"
}
layer {
  name: "pool2"
  type: "Pooling"
  bottom: "conv2_2"
  top: "pool2"
  pooling_param {
    pool: MAX
    kernel_size: 2
    stride: 2
  }
}
layer {
  name: "conv3_1"
  type: "Convolution"
  bottom: "pool2"
  top: "conv3_1"
  convolution_param {
    num_output: 256
    pad: 1
    kernel_size: 3
  }
}
layer {
  name: "relu3_1"
  type: "ReLU"
  bottom: "conv3_1"
  top: "conv3_1"
}
layer {
  name: "conv3_2"
  type: "Convolution"
  bottom: "conv3_1"
  top: "conv3_2"
  convolution_param {
    num_output: 256
    pad: 1
    kernel_size: 3
  }
}
layer {
  name: "relu3_2"
  type: "ReLU"
  bottom: "conv3_2"
  top: "conv3_2"
}
layer {
  name: "conv3_3"
  type: "Convolution"
  bottom: "conv3_2"
  top: "conv3_3"
  convolution_param {
    num_output: 256
    pad: 1
    kernel_size: 3
  }
}
layer {
  name: "relu3_3"
  type: "ReLU"
  bottom: "conv3_3"
  top: "conv3_3"
}
layer {
  name: "pool3"
  type: "Pooling"
  bottom: "conv3_3"
  top: "pool3"
  pooling_param {
    pool: MAX
    kernel_size: 2
    stride: 2
  }
}
layer {
  name: "conv4_1"
  type: "Convolution"
  bottom: "pool3"
  top: "conv4_1"
  convolution_param {
    num_output: 512
    pad: 1
    kernel_size: 3
  }
}
layer {
  name: "relu4_1"
  type: "ReLU"
  bottom: "conv4_1"
  top: "conv4_1"
}
layer {
  name: "conv4_2"
  type: "Convolution"
  bottom: "conv4_1"
  top: "conv4_2"
  convolution_param {
    num_output: 512
    pad: 1
    kernel_size: 3
  }
}
layer {
  name: "relu4_2"
  type: "ReLU"
  bottom: "conv4_2"
  top: "conv4_2"
}
layer {
  name: "conv4_3"
  type: "Convolution"
  bottom: "conv4_2"
  top: "conv4_3"
  convolution_param {
    num_output: 512
    pad: 1
    kernel_size: 3
  }
}
layer {
  name: "relu4_3"
  type: "ReLU"
  bottom: "conv4_3"
  top: "conv4_3"
}
layer {
  name: "pool4"
  type: "Pooling"
  bottom: "conv4_3"
  top: "pool4"
  pooling_param {
    pool: MAX
    kernel_size: 2
    stride: 2
  }
}
layer {
  name: "conv5_1"
  type: "Convolution"
  bottom: "pool4"
  top: "conv5_1"
  convolution_param {
    num_output: 512
    pad: 1
    kernel_size: 3
  }
}
layer {
  name: "relu5_1"
  type: "ReLU"
  bottom: "conv5_1"
  top: "conv5_1"
}
layer {
  name: "conv5_2"
  type: "Convolution"
  bottom: "conv5_1"
  top: "conv5_2"
  convolution_param {
    num_output: 512
    pad: 1
    kernel_size: 3
  }
}
layer {
  name: "relu5_2"
  type: "ReLU"
  bottom: "conv5_2"
  top: "conv5_2"
}
layer {
  name: "conv5_3"
  type: "Convolution"
  bottom: "conv5_2"
  top: "conv5_3"
  convolution_param {
    num_output: 512
    pad: 1
    kernel_size: 3
  }
}
layer {
  name: "relu5_3"
  type: "ReLU"
  bottom: "conv5_3"
  top: "conv5_3"
}
layer {
  name: "rpn_conv/3x3"
  type: "Convolution"
  bottom: "conv5_3"
  top: "rpn/output"
  convolution_param {
    num_output: 512
    pad: 1
    kernel_size: 3
    stride: 1
  }
}
layer {
  name: "rpn_relu/3x3"
  type: "ReLU"
  bottom: "rpn/output"
  top: "rpn/output"
}
layer {
  name: "rpn_cls_score"
  type: "Convolution"
  bottom: "rpn/output"
  top: "rpn_cls_score"
  convolution_param {
    num_output: 18
    pad: 0
    kernel_size: 1
    stride: 1
  }
}
layer {
  name: "rpn_bbox_pred"
  type: "Convolution"
  bottom: "rpn/output"
  top: "rpn_bbox_pred"
  convolution_param {
    num_output: 36
    pad: 0
    kernel_size: 1
    stride: 1
  }
}
layer {
  name: "rpn_cls_score_reshape"
  type: "Reshape"
  bottom: "rpn_cls_score"
  top: "rpn_cls_score_reshape"
  reshape_param {
    shape {
      dim: 0
      dim: 2
      dim: -1
      dim: 0
    }
  }
}
layer {
  name: "rpn_cls_prob"
  type: "Softmax"
  bottom: "rpn_cls_score_reshape"
  top: "rpn_cls_prob"
}
layer {
  name: "rpn_cls_prob_reshape"
  type: "Reshape"
  bottom: "rpn_cls_prob"
  top: "rpn_cls_prob_reshape"
  reshape_param {
    shape {
      dim: 0
      dim: 18
      dim: -1
      dim: 0
    }
  }
}
layer {
  name: "proposal"
  type: "Python"
  bottom: "rpn_cls_prob_reshape"
  bottom: "rpn_bbox_pred"
  bottom: "im_info"
  top: "rois"
  python_param {
    module: "rpn.proposal_layer"
    layer: "ProposalLayer"
    param_str: "\'feat_stride\': 16"
  }
}
layer {
  name: "roi_pool5"
  type: "ROIPooling"
  bottom: "conv5_3"
  bottom: "rois"
  top: "pool5"
  roi_pooling_param {
    pooled_h: 7
    pooled_w: 7
    spatial_scale: 0.0625
  }
}
layer {
  name: "fc6"
  type: "InnerProduct"
  bottom: "pool5"
  top: "fc6"
  inner_product_param {
    num_output: 4096
  }
}
layer {
  name: "relu6"
  type: "ReLU"
  bottom: "fc6"
  top: "fc6"
}
layer {
  name: "fc7"
  type: "InnerProduct"
  bottom: "fc6"
  top: "fc7"
  inner_product_param {
    num_output: 4096
  }
}
layer {
  name: "relu7"
  type: "ReLU"
  bottom: "fc7"
  top: "fc7"
}
layer {
  name: "cls_score"
  type: "InnerProduct"
  bottom: "fc7"
  top: "cls_score"
  inner_product_param {
    num_output: 4
  }
}
layer {
  name: "bbox_pred"
  type: "InnerProduct"
  bottom: "fc7"
  top: "bbox_pred"
  inner_product_param {
    num_output: 16
  }
}
layer {
  name: "cls_prob"
  type: "Softmax"
  bottom: "cls_score"
  top: "cls_prob"
}
I0228 12:22:48.990795  2164 net.cpp:413] Input 0 -> data
I0228 12:22:49.051586  2164 net.cpp:413] Input 1 -> im_info
I0228 12:22:49.051676  2164 layer_factory.hpp:77] Creating layer conv1_1
I0228 12:22:49.051703  2164 net.cpp:106] Creating Layer conv1_1
I0228 12:22:49.051709  2164 net.cpp:454] conv1_1 <- data
I0228 12:22:49.051714  2164 net.cpp:411] conv1_1 -> conv1_1
I0228 12:22:49.280985  2164 net.cpp:150] Setting up conv1_1
I0228 12:22:49.281031  2164 net.cpp:157] Top shape: 1 64 224 224 (3211264)
I0228 12:22:49.281038  2164 net.cpp:165] Memory required for data: 12845056
I0228 12:22:49.281205  2164 layer_factory.hpp:77] Creating layer relu1_1
I0228 12:22:49.281225  2164 net.cpp:106] Creating Layer relu1_1
I0228 12:22:49.281231  2164 net.cpp:454] relu1_1 <- conv1_1
I0228 12:22:49.281239  2164 net.cpp:397] relu1_1 -> conv1_1 (in-place)
I0228 12:22:49.281564  2164 net.cpp:150] Setting up relu1_1
I0228 12:22:49.281579  2164 net.cpp:157] Top shape: 1 64 224 224 (3211264)
I0228 12:22:49.281594  2164 net.cpp:165] Memory required for data: 25690112
I0228 12:22:49.281597  2164 layer_factory.hpp:77] Creating layer conv1_2
I0228 12:22:49.281608  2164 net.cpp:106] Creating Layer conv1_2
I0228 12:22:49.281612  2164 net.cpp:454] conv1_2 <- conv1_1
I0228 12:22:49.281630  2164 net.cpp:411] conv1_2 -> conv1_2
I0228 12:22:49.284948  2164 net.cpp:150] Setting up conv1_2
I0228 12:22:49.284973  2164 net.cpp:157] Top shape: 1 64 224 224 (3211264)
I0228 12:22:49.284977  2164 net.cpp:165] Memory required for data: 38535168
I0228 12:22:49.284986  2164 layer_factory.hpp:77] Creating layer relu1_2
I0228 12:22:49.284993  2164 net.cpp:106] Creating Layer relu1_2
I0228 12:22:49.285007  2164 net.cpp:454] relu1_2 <- conv1_2
I0228 12:22:49.285012  2164 net.cpp:397] relu1_2 -> conv1_2 (in-place)
I0228 12:22:49.285861  2164 net.cpp:150] Setting up relu1_2
I0228 12:22:49.285871  2164 net.cpp:157] Top shape: 1 64 224 224 (3211264)
I0228 12:22:49.285886  2164 net.cpp:165] Memory required for data: 51380224
I0228 12:22:49.285889  2164 layer_factory.hpp:77] Creating layer pool1
I0228 12:22:49.285897  2164 net.cpp:106] Creating Layer pool1
I0228 12:22:49.285900  2164 net.cpp:454] pool1 <- conv1_2
I0228 12:22:49.285917  2164 net.cpp:411] pool1 -> pool1
I0228 12:22:49.285979  2164 net.cpp:150] Setting up pool1
I0228 12:22:49.285986  2164 net.cpp:157] Top shape: 1 64 112 112 (802816)
I0228 12:22:49.285989  2164 net.cpp:165] Memory required for data: 54591488
I0228 12:22:49.285993  2164 layer_factory.hpp:77] Creating layer conv2_1
I0228 12:22:49.286000  2164 net.cpp:106] Creating Layer conv2_1
I0228 12:22:49.286005  2164 net.cpp:454] conv2_1 <- pool1
I0228 12:22:49.286008  2164 net.cpp:411] conv2_1 -> conv2_1
I0228 12:22:49.290149  2164 net.cpp:150] Setting up conv2_1
I0228 12:22:49.290175  2164 net.cpp:157] Top shape: 1 128 112 112 (1605632)
I0228 12:22:49.290179  2164 net.cpp:165] Memory required for data: 61014016
I0228 12:22:49.290189  2164 layer_factory.hpp:77] Creating layer relu2_1
I0228 12:22:49.290194  2164 net.cpp:106] Creating Layer relu2_1
I0228 12:22:49.290210  2164 net.cpp:454] relu2_1 <- conv2_1
I0228 12:22:49.290215  2164 net.cpp:397] relu2_1 -> conv2_1 (in-place)
I0228 12:22:49.291057  2164 net.cpp:150] Setting up relu2_1
I0228 12:22:49.291066  2164 net.cpp:157] Top shape: 1 128 112 112 (1605632)
I0228 12:22:49.291081  2164 net.cpp:165] Memory required for data: 67436544
I0228 12:22:49.291085  2164 layer_factory.hpp:77] Creating layer conv2_2
I0228 12:22:49.291093  2164 net.cpp:106] Creating Layer conv2_2
I0228 12:22:49.291097  2164 net.cpp:454] conv2_2 <- conv2_1
I0228 12:22:49.291113  2164 net.cpp:411] conv2_2 -> conv2_2
I0228 12:22:49.295233  2164 net.cpp:150] Setting up conv2_2
I0228 12:22:49.295248  2164 net.cpp:157] Top shape: 1 128 112 112 (1605632)
I0228 12:22:49.295262  2164 net.cpp:165] Memory required for data: 73859072
I0228 12:22:49.295269  2164 layer_factory.hpp:77] Creating layer relu2_2
I0228 12:22:49.295277  2164 net.cpp:106] Creating Layer relu2_2
I0228 12:22:49.295294  2164 net.cpp:454] relu2_2 <- conv2_2
I0228 12:22:49.295298  2164 net.cpp:397] relu2_2 -> conv2_2 (in-place)
I0228 12:22:49.296254  2164 net.cpp:150] Setting up relu2_2
I0228 12:22:49.296267  2164 net.cpp:157] Top shape: 1 128 112 112 (1605632)
I0228 12:22:49.296281  2164 net.cpp:165] Memory required for data: 80281600
I0228 12:22:49.296284  2164 layer_factory.hpp:77] Creating layer pool2
I0228 12:22:49.296293  2164 net.cpp:106] Creating Layer pool2
I0228 12:22:49.296295  2164 net.cpp:454] pool2 <- conv2_2
I0228 12:22:49.296313  2164 net.cpp:411] pool2 -> pool2
I0228 12:22:49.296372  2164 net.cpp:150] Setting up pool2
I0228 12:22:49.296381  2164 net.cpp:157] Top shape: 1 128 56 56 (401408)
I0228 12:22:49.296385  2164 net.cpp:165] Memory required for data: 81887232
I0228 12:22:49.296387  2164 layer_factory.hpp:77] Creating layer conv3_1
I0228 12:22:49.296396  2164 net.cpp:106] Creating Layer conv3_1
I0228 12:22:49.296398  2164 net.cpp:454] conv3_1 <- pool2
I0228 12:22:49.296404  2164 net.cpp:411] conv3_1 -> conv3_1
I0228 12:22:49.299250  2164 net.cpp:150] Setting up conv3_1
I0228 12:22:49.299264  2164 net.cpp:157] Top shape: 1 256 56 56 (802816)
I0228 12:22:49.299279  2164 net.cpp:165] Memory required for data: 85098496
I0228 12:22:49.299288  2164 layer_factory.hpp:77] Creating layer relu3_1
I0228 12:22:49.299296  2164 net.cpp:106] Creating Layer relu3_1
I0228 12:22:49.299311  2164 net.cpp:454] relu3_1 <- conv3_1
I0228 12:22:49.299316  2164 net.cpp:397] relu3_1 -> conv3_1 (in-place)
I0228 12:22:49.300307  2164 net.cpp:150] Setting up relu3_1
I0228 12:22:49.300317  2164 net.cpp:157] Top shape: 1 256 56 56 (802816)
I0228 12:22:49.300330  2164 net.cpp:165] Memory required for data: 88309760
I0228 12:22:49.300333  2164 layer_factory.hpp:77] Creating layer conv3_2
I0228 12:22:49.300343  2164 net.cpp:106] Creating Layer conv3_2
I0228 12:22:49.300345  2164 net.cpp:454] conv3_2 <- conv3_1
I0228 12:22:49.300361  2164 net.cpp:411] conv3_2 -> conv3_2
I0228 12:22:49.303946  2164 net.cpp:150] Setting up conv3_2
I0228 12:22:49.303961  2164 net.cpp:157] Top shape: 1 256 56 56 (802816)
I0228 12:22:49.303975  2164 net.cpp:165] Memory required for data: 91521024
I0228 12:22:49.303982  2164 layer_factory.hpp:77] Creating layer relu3_2
I0228 12:22:49.303989  2164 net.cpp:106] Creating Layer relu3_2
I0228 12:22:49.304004  2164 net.cpp:454] relu3_2 <- conv3_2
I0228 12:22:49.304010  2164 net.cpp:397] relu3_2 -> conv3_2 (in-place)
I0228 12:22:49.304953  2164 net.cpp:150] Setting up relu3_2
I0228 12:22:49.304962  2164 net.cpp:157] Top shape: 1 256 56 56 (802816)
I0228 12:22:49.304976  2164 net.cpp:165] Memory required for data: 94732288
I0228 12:22:49.304980  2164 layer_factory.hpp:77] Creating layer conv3_3
I0228 12:22:49.304989  2164 net.cpp:106] Creating Layer conv3_3
I0228 12:22:49.304993  2164 net.cpp:454] conv3_3 <- conv3_2
I0228 12:22:49.305009  2164 net.cpp:411] conv3_3 -> conv3_3
I0228 12:22:49.308688  2164 net.cpp:150] Setting up conv3_3
I0228 12:22:49.308702  2164 net.cpp:157] Top shape: 1 256 56 56 (802816)
I0228 12:22:49.308717  2164 net.cpp:165] Memory required for data: 97943552
I0228 12:22:49.308724  2164 layer_factory.hpp:77] Creating layer relu3_3
I0228 12:22:49.308732  2164 net.cpp:106] Creating Layer relu3_3
I0228 12:22:49.308748  2164 net.cpp:454] relu3_3 <- conv3_3
I0228 12:22:49.308753  2164 net.cpp:397] relu3_3 -> conv3_3 (in-place)
I0228 12:22:49.309620  2164 net.cpp:150] Setting up relu3_3
I0228 12:22:49.309633  2164 net.cpp:157] Top shape: 1 256 56 56 (802816)
I0228 12:22:49.309648  2164 net.cpp:165] Memory required for data: 101154816
I0228 12:22:49.309653  2164 layer_factory.hpp:77] Creating layer pool3
I0228 12:22:49.309661  2164 net.cpp:106] Creating Layer pool3
I0228 12:22:49.309665  2164 net.cpp:454] pool3 <- conv3_3
I0228 12:22:49.309684  2164 net.cpp:411] pool3 -> pool3
I0228 12:22:49.309762  2164 net.cpp:150] Setting up pool3
I0228 12:22:49.309770  2164 net.cpp:157] Top shape: 1 256 28 28 (200704)
I0228 12:22:49.309773  2164 net.cpp:165] Memory required for data: 101957632
I0228 12:22:49.309777  2164 layer_factory.hpp:77] Creating layer conv4_1
I0228 12:22:49.309787  2164 net.cpp:106] Creating Layer conv4_1
I0228 12:22:49.309789  2164 net.cpp:454] conv4_1 <- pool3
I0228 12:22:49.309794  2164 net.cpp:411] conv4_1 -> conv4_1
I0228 12:22:49.315269  2164 net.cpp:150] Setting up conv4_1
I0228 12:22:49.315296  2164 net.cpp:157] Top shape: 1 512 28 28 (401408)
I0228 12:22:49.315300  2164 net.cpp:165] Memory required for data: 103563264
I0228 12:22:49.315307  2164 layer_factory.hpp:77] Creating layer relu4_1
I0228 12:22:49.315315  2164 net.cpp:106] Creating Layer relu4_1
I0228 12:22:49.315331  2164 net.cpp:454] relu4_1 <- conv4_1
I0228 12:22:49.315337  2164 net.cpp:397] relu4_1 -> conv4_1 (in-place)
I0228 12:22:49.316285  2164 net.cpp:150] Setting up relu4_1
I0228 12:22:49.316294  2164 net.cpp:157] Top shape: 1 512 28 28 (401408)
I0228 12:22:49.316308  2164 net.cpp:165] Memory required for data: 105168896
I0228 12:22:49.316313  2164 layer_factory.hpp:77] Creating layer conv4_2
I0228 12:22:49.316320  2164 net.cpp:106] Creating Layer conv4_2
I0228 12:22:49.316324  2164 net.cpp:454] conv4_2 <- conv4_1
I0228 12:22:49.316341  2164 net.cpp:411] conv4_2 -> conv4_2
I0228 12:22:49.324121  2164 net.cpp:150] Setting up conv4_2
I0228 12:22:49.324154  2164 net.cpp:157] Top shape: 1 512 28 28 (401408)
I0228 12:22:49.324159  2164 net.cpp:165] Memory required for data: 106774528
I0228 12:22:49.324172  2164 layer_factory.hpp:77] Creating layer relu4_2
I0228 12:22:49.324190  2164 net.cpp:106] Creating Layer relu4_2
I0228 12:22:49.324194  2164 net.cpp:454] relu4_2 <- conv4_2
I0228 12:22:49.324201  2164 net.cpp:397] relu4_2 -> conv4_2 (in-place)
I0228 12:22:49.325219  2164 net.cpp:150] Setting up relu4_2
I0228 12:22:49.325228  2164 net.cpp:157] Top shape: 1 512 28 28 (401408)
I0228 12:22:49.325245  2164 net.cpp:165] Memory required for data: 108380160
I0228 12:22:49.325248  2164 layer_factory.hpp:77] Creating layer conv4_3
I0228 12:22:49.325255  2164 net.cpp:106] Creating Layer conv4_3
I0228 12:22:49.325259  2164 net.cpp:454] conv4_3 <- conv4_2
I0228 12:22:49.325276  2164 net.cpp:411] conv4_3 -> conv4_3
I0228 12:22:49.333092  2164 net.cpp:150] Setting up conv4_3
I0228 12:22:49.333124  2164 net.cpp:157] Top shape: 1 512 28 28 (401408)
I0228 12:22:49.333128  2164 net.cpp:165] Memory required for data: 109985792
I0228 12:22:49.333137  2164 layer_factory.hpp:77] Creating layer relu4_3
I0228 12:22:49.333145  2164 net.cpp:106] Creating Layer relu4_3
I0228 12:22:49.333161  2164 net.cpp:454] relu4_3 <- conv4_3
I0228 12:22:49.333168  2164 net.cpp:397] relu4_3 -> conv4_3 (in-place)
I0228 12:22:49.334116  2164 net.cpp:150] Setting up relu4_3
I0228 12:22:49.334130  2164 net.cpp:157] Top shape: 1 512 28 28 (401408)
I0228 12:22:49.334144  2164 net.cpp:165] Memory required for data: 111591424
I0228 12:22:49.334148  2164 layer_factory.hpp:77] Creating layer pool4
I0228 12:22:49.334156  2164 net.cpp:106] Creating Layer pool4
I0228 12:22:49.334159  2164 net.cpp:454] pool4 <- conv4_3
I0228 12:22:49.334177  2164 net.cpp:411] pool4 -> pool4
I0228 12:22:49.334242  2164 net.cpp:150] Setting up pool4
I0228 12:22:49.334251  2164 net.cpp:157] Top shape: 1 512 14 14 (100352)
I0228 12:22:49.334254  2164 net.cpp:165] Memory required for data: 111992832
I0228 12:22:49.334257  2164 layer_factory.hpp:77] Creating layer conv5_1
I0228 12:22:49.334269  2164 net.cpp:106] Creating Layer conv5_1
I0228 12:22:49.334272  2164 net.cpp:454] conv5_1 <- pool4
I0228 12:22:49.334277  2164 net.cpp:411] conv5_1 -> conv5_1
I0228 12:22:49.342316  2164 net.cpp:150] Setting up conv5_1
I0228 12:22:49.342350  2164 net.cpp:157] Top shape: 1 512 14 14 (100352)
I0228 12:22:49.342355  2164 net.cpp:165] Memory required for data: 112394240
I0228 12:22:49.342363  2164 layer_factory.hpp:77] Creating layer relu5_1
I0228 12:22:49.342370  2164 net.cpp:106] Creating Layer relu5_1
I0228 12:22:49.342375  2164 net.cpp:454] relu5_1 <- conv5_1
I0228 12:22:49.342391  2164 net.cpp:397] relu5_1 -> conv5_1 (in-place)
I0228 12:22:49.343199  2164 net.cpp:150] Setting up relu5_1
I0228 12:22:49.343209  2164 net.cpp:157] Top shape: 1 512 14 14 (100352)
I0228 12:22:49.343222  2164 net.cpp:165] Memory required for data: 112795648
I0228 12:22:49.343226  2164 layer_factory.hpp:77] Creating layer conv5_2
I0228 12:22:49.343235  2164 net.cpp:106] Creating Layer conv5_2
I0228 12:22:49.343240  2164 net.cpp:454] conv5_2 <- conv5_1
I0228 12:22:49.343255  2164 net.cpp:411] conv5_2 -> conv5_2
I0228 12:22:49.351512  2164 net.cpp:150] Setting up conv5_2
I0228 12:22:49.351546  2164 net.cpp:157] Top shape: 1 512 14 14 (100352)
I0228 12:22:49.351549  2164 net.cpp:165] Memory required for data: 113197056
I0228 12:22:49.351557  2164 layer_factory.hpp:77] Creating layer relu5_2
I0228 12:22:49.351567  2164 net.cpp:106] Creating Layer relu5_2
I0228 12:22:49.351582  2164 net.cpp:454] relu5_2 <- conv5_2
I0228 12:22:49.351588  2164 net.cpp:397] relu5_2 -> conv5_2 (in-place)
I0228 12:22:49.352428  2164 net.cpp:150] Setting up relu5_2
I0228 12:22:49.352437  2164 net.cpp:157] Top shape: 1 512 14 14 (100352)
I0228 12:22:49.352452  2164 net.cpp:165] Memory required for data: 113598464
I0228 12:22:49.352455  2164 layer_factory.hpp:77] Creating layer conv5_3
I0228 12:22:49.352464  2164 net.cpp:106] Creating Layer conv5_3
I0228 12:22:49.352468  2164 net.cpp:454] conv5_3 <- conv5_2
I0228 12:22:49.352484  2164 net.cpp:411] conv5_3 -> conv5_3
I0228 12:22:49.360371  2164 net.cpp:150] Setting up conv5_3
I0228 12:22:49.360402  2164 net.cpp:157] Top shape: 1 512 14 14 (100352)
I0228 12:22:49.360407  2164 net.cpp:165] Memory required for data: 113999872
I0228 12:22:49.360415  2164 layer_factory.hpp:77] Creating layer relu5_3
I0228 12:22:49.360424  2164 net.cpp:106] Creating Layer relu5_3
I0228 12:22:49.360427  2164 net.cpp:454] relu5_3 <- conv5_3
I0228 12:22:49.360446  2164 net.cpp:397] relu5_3 -> conv5_3 (in-place)
I0228 12:22:49.361277  2164 net.cpp:150] Setting up relu5_3
I0228 12:22:49.361290  2164 net.cpp:157] Top shape: 1 512 14 14 (100352)
I0228 12:22:49.361306  2164 net.cpp:165] Memory required for data: 114401280
I0228 12:22:49.361310  2164 layer_factory.hpp:77] Creating layer conv5_3_relu5_3_0_split
I0228 12:22:49.361316  2164 net.cpp:106] Creating Layer conv5_3_relu5_3_0_split
I0228 12:22:49.361320  2164 net.cpp:454] conv5_3_relu5_3_0_split <- conv5_3
I0228 12:22:49.361338  2164 net.cpp:411] conv5_3_relu5_3_0_split -> conv5_3_relu5_3_0_split_0
I0228 12:22:49.361346  2164 net.cpp:411] conv5_3_relu5_3_0_split -> conv5_3_relu5_3_0_split_1
I0228 12:22:49.361418  2164 net.cpp:150] Setting up conv5_3_relu5_3_0_split
I0228 12:22:49.361425  2164 net.cpp:157] Top shape: 1 512 14 14 (100352)
I0228 12:22:49.361429  2164 net.cpp:157] Top shape: 1 512 14 14 (100352)
I0228 12:22:49.361433  2164 net.cpp:165] Memory required for data: 115204096
I0228 12:22:49.361436  2164 layer_factory.hpp:77] Creating layer rpn_conv/3x3
I0228 12:22:49.361448  2164 net.cpp:106] Creating Layer rpn_conv/3x3
I0228 12:22:49.361459  2164 net.cpp:454] rpn_conv/3x3 <- conv5_3_relu5_3_0_split_0
I0228 12:22:49.361476  2164 net.cpp:411] rpn_conv/3x3 -> rpn/output
I0228 12:22:49.369686  2164 net.cpp:150] Setting up rpn_conv/3x3
I0228 12:22:49.369720  2164 net.cpp:157] Top shape: 1 512 14 14 (100352)
I0228 12:22:49.369724  2164 net.cpp:165] Memory required for data: 115605504
I0228 12:22:49.369734  2164 layer_factory.hpp:77] Creating layer rpn_relu/3x3
I0228 12:22:49.369757  2164 net.cpp:106] Creating Layer rpn_relu/3x3
I0228 12:22:49.369762  2164 net.cpp:454] rpn_relu/3x3 <- rpn/output
I0228 12:22:49.369779  2164 net.cpp:397] rpn_relu/3x3 -> rpn/output (in-place)
I0228 12:22:49.370823  2164 net.cpp:150] Setting up rpn_relu/3x3
I0228 12:22:49.370834  2164 net.cpp:157] Top shape: 1 512 14 14 (100352)
I0228 12:22:49.370849  2164 net.cpp:165] Memory required for data: 116006912
I0228 12:22:49.370853  2164 layer_factory.hpp:77] Creating layer rpn/output_rpn_relu/3x3_0_split
I0228 12:22:49.370860  2164 net.cpp:106] Creating Layer rpn/output_rpn_relu/3x3_0_split
I0228 12:22:49.370864  2164 net.cpp:454] rpn/output_rpn_relu/3x3_0_split <- rpn/output
I0228 12:22:49.370880  2164 net.cpp:411] rpn/output_rpn_relu/3x3_0_split -> rpn/output_rpn_relu/3x3_0_split_0
I0228 12:22:49.370887  2164 net.cpp:411] rpn/output_rpn_relu/3x3_0_split -> rpn/output_rpn_relu/3x3_0_split_1
I0228 12:22:49.370956  2164 net.cpp:150] Setting up rpn/output_rpn_relu/3x3_0_split
I0228 12:22:49.370965  2164 net.cpp:157] Top shape: 1 512 14 14 (100352)
I0228 12:22:49.370970  2164 net.cpp:157] Top shape: 1 512 14 14 (100352)
I0228 12:22:49.370972  2164 net.cpp:165] Memory required for data: 116809728
I0228 12:22:49.370975  2164 layer_factory.hpp:77] Creating layer rpn_cls_score
I0228 12:22:49.370985  2164 net.cpp:106] Creating Layer rpn_cls_score
I0228 12:22:49.370990  2164 net.cpp:454] rpn_cls_score <- rpn/output_rpn_relu/3x3_0_split_0
I0228 12:22:49.371000  2164 net.cpp:411] rpn_cls_score -> rpn_cls_score
I0228 12:22:49.374594  2164 net.cpp:150] Setting up rpn_cls_score
I0228 12:22:49.374621  2164 net.cpp:157] Top shape: 1 18 14 14 (3528)
I0228 12:22:49.374625  2164 net.cpp:165] Memory required for data: 116823840
I0228 12:22:49.374634  2164 layer_factory.hpp:77] Creating layer rpn_bbox_pred
I0228 12:22:49.374641  2164 net.cpp:106] Creating Layer rpn_bbox_pred
I0228 12:22:49.374656  2164 net.cpp:454] rpn_bbox_pred <- rpn/output_rpn_relu/3x3_0_split_1
I0228 12:22:49.374663  2164 net.cpp:411] rpn_bbox_pred -> rpn_bbox_pred
I0228 12:22:49.377964  2164 net.cpp:150] Setting up rpn_bbox_pred
I0228 12:22:49.377979  2164 net.cpp:157] Top shape: 1 36 14 14 (7056)
I0228 12:22:49.377993  2164 net.cpp:165] Memory required for data: 116852064
I0228 12:22:49.378000  2164 layer_factory.hpp:77] Creating layer rpn_cls_score_reshape
I0228 12:22:49.378010  2164 net.cpp:106] Creating Layer rpn_cls_score_reshape
I0228 12:22:49.378026  2164 net.cpp:454] rpn_cls_score_reshape <- rpn_cls_score
I0228 12:22:49.378031  2164 net.cpp:411] rpn_cls_score_reshape -> rpn_cls_score_reshape
I0228 12:22:49.378075  2164 net.cpp:150] Setting up rpn_cls_score_reshape
I0228 12:22:49.378083  2164 net.cpp:157] Top shape: 1 2 126 14 (3528)
I0228 12:22:49.378087  2164 net.cpp:165] Memory required for data: 116866176
I0228 12:22:49.378090  2164 layer_factory.hpp:77] Creating layer rpn_cls_prob
I0228 12:22:49.378096  2164 net.cpp:106] Creating Layer rpn_cls_prob
I0228 12:22:49.378100  2164 net.cpp:454] rpn_cls_prob <- rpn_cls_score_reshape
I0228 12:22:49.378106  2164 net.cpp:411] rpn_cls_prob -> rpn_cls_prob
I0228 12:22:49.379034  2164 net.cpp:150] Setting up rpn_cls_prob
I0228 12:22:49.379045  2164 net.cpp:157] Top shape: 1 2 126 14 (3528)
I0228 12:22:49.379060  2164 net.cpp:165] Memory required for data: 116880288
I0228 12:22:49.379062  2164 layer_factory.hpp:77] Creating layer rpn_cls_prob_reshape
I0228 12:22:49.379068  2164 net.cpp:106] Creating Layer rpn_cls_prob_reshape
I0228 12:22:49.379072  2164 net.cpp:454] rpn_cls_prob_reshape <- rpn_cls_prob
I0228 12:22:49.379091  2164 net.cpp:411] rpn_cls_prob_reshape -> rpn_cls_prob_reshape
I0228 12:22:49.379127  2164 net.cpp:150] Setting up rpn_cls_prob_reshape
I0228 12:22:49.379135  2164 net.cpp:157] Top shape: 1 18 14 14 (3528)
I0228 12:22:49.379138  2164 net.cpp:165] Memory required for data: 116894400
I0228 12:22:49.379142  2164 layer_factory.hpp:77] Creating layer proposal
I0228 12:22:49.382131  2164 net.cpp:106] Creating Layer proposal
I0228 12:22:49.382145  2164 net.cpp:454] proposal <- rpn_cls_prob_reshape
I0228 12:22:49.382163  2164 net.cpp:454] proposal <- rpn_bbox_pred
I0228 12:22:49.382167  2164 net.cpp:454] proposal <- im_info
I0228 12:22:49.382172  2164 net.cpp:411] proposal -> rois
I0228 12:22:49.383052  2164 net.cpp:150] Setting up proposal
I0228 12:22:49.383067  2164 net.cpp:157] Top shape: 1 5 (5)
I0228 12:22:49.383082  2164 net.cpp:165] Memory required for data: 116894420
I0228 12:22:49.383086  2164 layer_factory.hpp:77] Creating layer roi_pool5
I0228 12:22:49.383098  2164 net.cpp:106] Creating Layer roi_pool5
I0228 12:22:49.383114  2164 net.cpp:454] roi_pool5 <- conv5_3_relu5_3_0_split_1
I0228 12:22:49.383119  2164 net.cpp:454] roi_pool5 <- rois
I0228 12:22:49.383124  2164 net.cpp:411] roi_pool5 -> pool5
I0228 12:22:49.383131  2164 roi_pooling_layer.cpp:30] Spatial scale: 0.0625
I0228 12:22:49.383203  2164 net.cpp:150] Setting up roi_pool5
I0228 12:22:49.383210  2164 net.cpp:157] Top shape: 1 512 7 7 (25088)
I0228 12:22:49.383214  2164 net.cpp:165] Memory required for data: 116994772
I0228 12:22:49.383218  2164 layer_factory.hpp:77] Creating layer fc6
I0228 12:22:49.383224  2164 net.cpp:106] Creating Layer fc6
I0228 12:22:49.383227  2164 net.cpp:454] fc6 <- pool5
I0228 12:22:49.383234  2164 net.cpp:411] fc6 -> fc6
I0228 12:22:49.641017  2164 net.cpp:150] Setting up fc6
I0228 12:22:49.641072  2164 net.cpp:157] Top shape: 1 4096 (4096)
I0228 12:22:49.641077  2164 net.cpp:165] Memory required for data: 117011156
I0228 12:22:49.641096  2164 layer_factory.hpp:77] Creating layer relu6
I0228 12:22:49.641108  2164 net.cpp:106] Creating Layer relu6
I0228 12:22:49.641124  2164 net.cpp:454] relu6 <- fc6
I0228 12:22:49.641131  2164 net.cpp:397] relu6 -> fc6 (in-place)
I0228 12:22:49.641630  2164 net.cpp:150] Setting up relu6
I0228 12:22:49.641644  2164 net.cpp:157] Top shape: 1 4096 (4096)
I0228 12:22:49.641659  2164 net.cpp:165] Memory required for data: 117027540
I0228 12:22:49.641662  2164 layer_factory.hpp:77] Creating layer fc7
I0228 12:22:49.641672  2164 net.cpp:106] Creating Layer fc7
I0228 12:22:49.641676  2164 net.cpp:454] fc7 <- fc6
I0228 12:22:49.641692  2164 net.cpp:411] fc7 -> fc7
I0228 12:22:49.682824  2164 net.cpp:150] Setting up fc7
I0228 12:22:49.682878  2164 net.cpp:157] Top shape: 1 4096 (4096)
I0228 12:22:49.682883  2164 net.cpp:165] Memory required for data: 117043924
I0228 12:22:49.682893  2164 layer_factory.hpp:77] Creating layer relu7
I0228 12:22:49.682907  2164 net.cpp:106] Creating Layer relu7
I0228 12:22:49.682911  2164 net.cpp:454] relu7 <- fc7
I0228 12:22:49.682929  2164 net.cpp:397] relu7 -> fc7 (in-place)
I0228 12:22:49.683181  2164 net.cpp:150] Setting up relu7
I0228 12:22:49.683192  2164 net.cpp:157] Top shape: 1 4096 (4096)
I0228 12:22:49.683195  2164 net.cpp:165] Memory required for data: 117060308
I0228 12:22:49.683198  2164 layer_factory.hpp:77] Creating layer fc7_relu7_0_split
I0228 12:22:49.683204  2164 net.cpp:106] Creating Layer fc7_relu7_0_split
I0228 12:22:49.683207  2164 net.cpp:454] fc7_relu7_0_split <- fc7
I0228 12:22:49.683213  2164 net.cpp:411] fc7_relu7_0_split -> fc7_relu7_0_split_0
I0228 12:22:49.683219  2164 net.cpp:411] fc7_relu7_0_split -> fc7_relu7_0_split_1
I0228 12:22:49.683282  2164 net.cpp:150] Setting up fc7_relu7_0_split
I0228 12:22:49.683291  2164 net.cpp:157] Top shape: 1 4096 (4096)
I0228 12:22:49.683295  2164 net.cpp:157] Top shape: 1 4096 (4096)
I0228 12:22:49.683298  2164 net.cpp:165] Memory required for data: 117093076
I0228 12:22:49.683301  2164 layer_factory.hpp:77] Creating layer cls_score
I0228 12:22:49.683308  2164 net.cpp:106] Creating Layer cls_score
I0228 12:22:49.683311  2164 net.cpp:454] cls_score <- fc7_relu7_0_split_0
I0228 12:22:49.683317  2164 net.cpp:411] cls_score -> cls_score
I0228 12:22:49.683501  2164 net.cpp:150] Setting up cls_score
I0228 12:22:49.683508  2164 net.cpp:157] Top shape: 1 4 (4)
I0228 12:22:49.683511  2164 net.cpp:165] Memory required for data: 117093092
I0228 12:22:49.683517  2164 layer_factory.hpp:77] Creating layer bbox_pred
I0228 12:22:49.683522  2164 net.cpp:106] Creating Layer bbox_pred
I0228 12:22:49.683526  2164 net.cpp:454] bbox_pred <- fc7_relu7_0_split_1
I0228 12:22:49.683532  2164 net.cpp:411] bbox_pred -> bbox_pred
I0228 12:22:49.683766  2164 net.cpp:150] Setting up bbox_pred
I0228 12:22:49.683775  2164 net.cpp:157] Top shape: 1 16 (16)
I0228 12:22:49.683779  2164 net.cpp:165] Memory required for data: 117093156
I0228 12:22:49.683784  2164 layer_factory.hpp:77] Creating layer cls_prob
I0228 12:22:49.683790  2164 net.cpp:106] Creating Layer cls_prob
I0228 12:22:49.683794  2164 net.cpp:454] cls_prob <- cls_score
I0228 12:22:49.683799  2164 net.cpp:411] cls_prob -> cls_prob
I0228 12:22:49.684504  2164 net.cpp:150] Setting up cls_prob
I0228 12:22:49.684515  2164 net.cpp:157] Top shape: 1 4 (4)
I0228 12:22:49.684530  2164 net.cpp:165] Memory required for data: 117093172
I0228 12:22:49.684533  2164 net.cpp:228] cls_prob does not need backward computation.
I0228 12:22:49.684537  2164 net.cpp:228] bbox_pred does not need backward computation.
I0228 12:22:49.684540  2164 net.cpp:228] cls_score does not need backward computation.
I0228 12:22:49.684543  2164 net.cpp:228] fc7_relu7_0_split does not need backward computation.
…
